models/baseline/ppo/agent1.pth (torch, 40600 bytes, 5 tensors)

fc.weight f4 [128, 68]
-0.09486188 0.041244697 0.11704696 -0.033870593 0.05031281 -0.06198188 -0.014881089 -0.09880589
-0.07675609 -0.09301567 0.09980495 0.046142355 0.09369595 -0.08130549 -0.028986601 0.058509994
-0.11503721 0.023140393 0.09274551 0.0029763684 0.059773643 -0.05213512 -0.012430944 0.04315691
0.031742405 0.00762119 -0.108569 -0.09212073 -0.06551685 0.030423678 -0.03809058 -0.073514655
0.009441944 -0.072131716 -3.9733783e-05 0.054987844 -0.0021990123 0.119175404 0.017973395 0.051528174
0.05673648 0.000919868 -0.01148261 -0.08766576 -0.008131539 -0.070956275 -0.06800679 0.095819846
0.011494321 0.08754687 0.11010144 -0.035301756 -0.058308285 -0.09980606 -0.023627033 -0.11673938
0.0914148 0.10986296 0.035863236 0.10784153 0.11304402 0.073543034 0.09543893 0.07739756
-0.012174215 -0.0046435785 -0.017000405 -0.03292246 0.014287434 0.009969823 0.11766093 -0.11651681
-0.022668932 -0.052566525 -0.10525053 0.09877607 0.044240274 0.11882314 -0.061180584 0.051865034
-0.05686542 -0.058823448 0.024931248 -0.06992627 -0.023473235 0.11682869 -0.07753392 -0.08200115
0.063587144 0.07633644 0.003259147 -0.013789243 0.090123855 0.10168496 -0.031266987 -0.04372946
-0.11567886 -0.12067016 0.033304382 0.06028219 0.086049855 0.025186323 0.03542775 0.090727106
-0.020322971 0.060464397 -0.092184305 -0.07569836 0.1004187 -0.02764898 0.027075823 0.06803426
-0.05011 -0.08344206 -0.029232705 -0.10611659 0.052013624 0.0042314744 -0.007965654 0.11760932
-0.068868086 0.067250125 0.11313207 -0.089554384 -0.009371987 0.075079285 0.05233064 -0.07712873
-0.117127046 0.056876697 0.08207021 0.091876306 0.06272249 0.039128948 0.11200284 -0.118932955
0.031904258 -0.111540996 -0.022878876 0.08021394 0.032449048 -0.1039123 -0.07930967 0.064190865
0.0038100025 0.07912326 0.016363809 0.07260379 0.084175475 0.0025556914 -0.094089165 -0.09090918
-0.012141515 0.06501762 -0.04626591 0.05122572 -0.0048780157 0.106063105 -0.017987853 -0.09011287
-0.09637091 0.059626102 -0.011702089 -0.112159796 -0.067913346 0.09511904 0.03010839 -0.042878907
0.09527792 0.012408077 -0.032685433 -0.053565074 0.08494696 -0.007850842 -0.100778125 -0.061763786
0.034840308 0.045249753 -0.059278272 0.075676285 -0.11674264 -0.029244574 0.10105744 0.08044692
0.0729734 -0.040144283 0.11897418 -0.053220842 0.11281037 0.029472895 0.046296053 -0.0021727453
-0.07575383 -0.092928715 -0.033522584 0.11315859 -0.057714697 0.0123593705 0.107574806 0.043952737
0.01988619 -0.039679065 0.07085153 -0.01695374 -0.027099997 0.09239808 -0.062031496 -0.093352616
-0.04967088 0.07002869 -0.117181994 0.058390904 -0.05146111 -0.0045384094 -0.10077012 0.1024264
-0.0050225346 0.038895857 0.055658586 -0.11737711 0.00054951094 -0.036229905 -0.11950021 -0.07252241
-0.0057426584 -0.009448374 -0.0154261915 -0.037649393 -0.08885662 -0.045803368 -0.07647337 -0.08662476
0.010869047 -0.025978383 -0.09883846 -0.08177198 0.0041212756 -0.11582113 0.116430305 -0.1208104
0.027354319 -0.013410706 0.015559044 0.094044626 0.076704346 -0.107476585 0.046340883 0.04385179
-0.028444724 0.035910755 0.08431683 -0.05658353 0.09345326 -0.11366871 -0.02798448 0.034946594
00000000: f246 c2bd 33f0 283d 51b6 ef3d e4bb 0abd
00000010: ce14 4e3d b6e0 7dbd d0cf 73bc be5a cabd
00000020: 4c32 9dbd 007f bebd 8a66 cc3d c4ff 3c3d
00000030: aae3 bf3d 7e83 a6bd 4f75 edbc 2da8 6f3d
00000040: a198 ebbd ec90 bd3c 5cf1 bd3d 2d0f 433b
00000050: 35d5 743d a38b 55bd 28ab 4bbc 4dc5 303d
00000060: 5304 023d 2dbb f93b 6d59 debd cba9 bcbd
00000070: b32d 86bd 143b f93c de04 1cbd da8e 96bd
00000080: 62b2 1a3c cbb9 93bd d3a7 26b8 ef3a 613d
00000090: 4e1d 10bb 3c12 f43d f13c 933c 350f 533d
000000a0: 8364 683d 4c23 713a 8f21 3cbc 1b8a b3bd
000000b0: 263a 05bc 8651 91bd 2547 8bbd 323d c43d
000000c0: ad52 3c3c c64b b33d dd7c e13d 9398 10bd
000000d0: abd4 6ebd 1f67 ccbd 7b8d c1bc 0e15 efbd
000000e0: af37 bb3d d5ff e03d 54e5 123d 05dc dc3d
000000f0: a083 e73d bb9d 963d 7c75 c33d 9d82 9e3d
00000100: 5c76 47bc 2929 98bb 6f44 8bbc b4d9 06bd
00000110: d715 6a3c 7858 233c 37f8 f03d 5ea0 eebd
00000120: 32b4 b9bc ff4f 57bd 978d d7bd 1c4b ca3d
00000130: 4a35 353d 8c59 f33d 7e98 7abd 6e70 543d
00000140: b7eb 68bd dbf0 70bd 9e3c cc3c 8135 8fbd
00000150: f14a c0bc e143 ef3d 1bca 9ebd 38f0 a7bd
00000160: fa39 823d 4856 9c3d 6a97 553b 47ec 61bc
00000170: db92 b83d 3440 d03d d011 00bd aa1d 33bd
00000180: 0ae9 ecbd eb21 f7bd 2d6a 083d 75ea 763d
00000190: e83a b03d 8c53 ce3c b01c 113d 22cf b93d
000001a0: 5c7c a6bc 84a9 773d 20cb bcbd be07 9bbd
000001b0: 52a8 cd3d 1d80 e2bc 1ece dd3c 8c55 8b3d
000001c0: 2540 4dbd ace3 aabd 6d79 efbc a853 d9bd
000001d0: 3d0c 553d 2ea8 8a3b 6082 02bc 28dd f03d
000001e0: b60a 8dbd 6fba 893d c9b1 e73d 4a68 b7bd
000001f0: f68c 19bc 2bc3 993d a758 563d abf5 9dbd
00000200: 4ee0 efbd 8af7 683d 6d14 a83d a529 bc3d
00000210: a674 803d ad45 203d bf61 e53d 1f93 f3bd
00000220: 0aae 023d 9b6f e4bd 7b6c bbbc 3547 a43d
00000230: 4be9 043d f9cf d4bd 1c6d a2bd 8076 833d
00000240: 3cb1 793b 600b a23d 650d 863c 4cb1 943d
00000250: 3164 ac3d 637d 273b d2b1 c0bd 982e babd
00000260: 34ed 46bc f527 853d 5381 3dbd 10d2 513d
00000270: c3d7 9fbb 9d37 d93d 435b 93bc 198d b8bd
00000280: 1d5e c5bd 803a 743d 1eba 3fbc 09b4 e5bd
00000290: 2716 8bbd c5cd c23d dfa5 f63c cba1 2fbd
000002a0: 1221 c33d 3f4b 4b3c 29e1 05bd 0d67 5bbd
000002b0: acf8 ad3d d1a0 00bc c364 cebd 06fc 7cbd
000002c0: b6b4 0e3d ce57 393d c6cd 72bd 2bfc 9a3d
000002d0: c416 efbd 5192 efbc 34f7 ce3d 5bc1 a43d
000002e0: 1473 953d 556e 24bd bca8 f33d 19fe 59bd
000002f0: 2009 e73d 2471 f13c eea0 3d3d 9e64 0ebb
00000300: d324 9bbd 6951 bebd fa4e 09bd b1bf e73d
00000310: 3f66 6cbd f57e 4a3c 2e50 dc3d c907 343d
00000320: 5de8 a23c 8486 22bd 9b1a 913d 92e2 8abc
00000330: d000 debc 343b bd3d bd14 7ebd a82f bfbd
00000340: b173 4bbd 346b 8f3d 1dfd efbd 4d2b 6f3d
00000350: e3c8 52bd f0b6 94bb 9160 cebd efc4 d13d
00000360: 1394 a4bb 4351 1f3d 42fa 633d 6963 f0bd
00000370: 0e0d 103a cf65 14bd 87bc f4bd a186 94bd
00000380: e92c bcbb 5acd 1abc 23be 7cbc 4036 1abd
00000390: 76fa b5bd 509c 3bbd 129e 9cbd 5268 b1bd
000003a0: 1614 323c 9ed0 d4bc d26b cabd 1178 a7bd
000003b0: c40b 873b a133 edbd 0373 ee3d 716b f7bd
000003c0: 2a16 e03c 94b8 5bbc 5ceb 7e3c 789a c03d
000003d0: 2b17 9d3d af1c dcbd f0cf 3d3d ef9d 333d
000003e0: e904 e9bc 2817 133d 4dae ac3d 22c4 67bd
000003f0: 6c64 bf3d 24cb e8bd b53f e5bc 2924 0f3d

fc.bias f4 [128]
0.09776074 0.012532712 0.08038176 0.047117826 0.0067019323 -0.0261788 0.119533345 0.011744955
0.032610867 -0.10423972 0.10165875 -0.09032146 -0.11336343 -0.0059174327 -0.033890978 -0.11158614
0.020421196 0.08561409 -0.118954666 -0.051995974 0.0066721737 0.07927516 -0.076445736 -0.019136317
-0.030160254 -0.002006354 -0.08126086 -0.014073732 0.055551253 0.0032008844 0.09487514 -0.035029244
0.040225025 0.010202562 0.021146169 0.114052035 -0.071450934 0.05671313 -0.050516237 -0.04418336
-0.100520805 -0.008425733 -0.06358991 -0.038688544 -0.04156761 -0.0051527093 -0.06553714 -0.05620081
-0.0713936 0.02567262 -0.089240365 0.0862976 0.0011756397 -0.019721888 -0.016374284 0.0015180572
0.106757835 -0.008041616 0.08815551 -0.017541643 0.0077784 -0.039894447 0.049593672 -0.024857795
-0.06148261 -0.04379018 0.116152875 0.109336615 0.08397487 -0.056302488 -0.10842895 -0.0011699578
-0.05413268 0.11426337 -0.022887625 -0.040842436 -0.032242972 -0.037731078 -0.01855702 0.04832118
0.09000867 -0.085206196 -0.08041432 0.09866831 0.07131355 0.11587233 -0.026262384 -0.05678077
-0.063787885 0.06755555 -0.066211306 -0.11483911 0.05060896 -0.087637916 0.017029388 0.024099315
0.096362546 -0.059122555 -0.062738754 0.083734445 -0.06956322 -0.019630676 -0.10115376 0.052617922
-0.044228062 -0.04314852 0.0668857 0.0659297 -0.09482184 0.1090627 -0.08136523 -0.10518361
0.111641295 -0.027451841 -0.07925842 -0.053840477 0.028739998 -0.035945766 -0.09728797 0.054700013
0.00033421424 -0.07620339 0.018771827 -0.10663546 -0.02907383 -0.011065883 -0.0459633 -0.0678371
00000000: c836 c83d 0156 4d3c 319f a43d 9ffe 403d
00000010: e29b db3b ec74 d6bc e6cd f43d e96d 403c
00000020: f992 053d a27b d5bd 7632 d03d 75fa b8bd
00000030: 162b e8bd 06e7 c1bb 44d1 0abd 4687 e4bd
00000040: 5a4a a73c 7156 af3d 819e f3bd bbf9 54bd
00000050: 40a2 da3b 045b a23d 958f 9cbd c4c3 9cbc
00000060: a312 f7bc 097d 03bb 186c a6bd 8395 66bc
00000070: b689 633d eec5 513b e64d c23d d37a 0fbd
00000080: ffc2 243d a628 273c bb3a ad3c 1d94 e93d
00000090: de54 92bd 074c 683d 1dea 4ebd 9cf9 34bd
000000a0: dadd cdbd 160c 0abc 6d3b 82bd e177 1ebd
000000b0: cc42 2abd 0fd8 a8bb 5638 86bd d232 66bd
000000c0: cf36 92bd 634f d23c a7c3 b6bd ccbc b03d
000000d0: ec17 9a3a cc8f a1bc 5d23 86bc 8cf9 c63a
000000e0: daa3 da3d fbc0 03bc e08a b43d 7eb3 8fbc
000000f0: f3e1 fe3b 5c68 23bd bc22 4b3d 93a2 cbbc
00000100: 30d5 7bbd 555d 33bd 8fe1 ed3d e0eb df3d
00000110: 04fb ab3d 709d 66bd ff0f debd 4559 99ba
00000120: 3bba 5dbd ea02 ea3d d47e bbbc 664a 27bd
00000130: 3511 04bd e78b 1abd e404 98bc 6eec 453d
00000140: 7756 b83d 9680 aebd 43b0 a4bd 9c12 ca3d
00000150: d70c 923d 794e ed3d 3624 d7bc f492 68bd
00000160: 39a3 82bd 905a 8a3d cb99 87bd c430 ebbd
00000170: 574b 4f3d 827b b3bd 3781 8b3c ed6b c53c
00000180: ba59 c53d 7e2a 72bd 2d7d 80bd f77c ab3d
00000190: 2977 8ebd 83d0 a0bc b429 cfbd e485 573d
000001a0: 7c28 35bd 81bc 30bd 5ffb 883d 2706 873d
000001b0: f431 c2bd 445c df3d d0a2 a6bd 816a d7bd
000001c0: 31a4 e43d afe2 e0bc 3d52 a2bd d587 5cbd
000001d0: 2570 eb3c de3b 13bd ea3e c7bd 1f0d 603d
000001e0: 7a39 af39 8610 9cbd 60c7 993c b163 dabd
000001f0: 3e2c eebc ad4d 35bc 0344 3cbd 2dee 8abd

actor.weight f4 [4, 128]
-0.04087185 -0.03575191 0.018889327 -0.00962865 -0.08154699 -0.07596509 -0.016497774 0.06745001
0.028651476 0.055478234 -0.045781583 0.07526217 0.06941827 -0.079910815 -0.05690655 -0.032007772
0.06235607 0.08120277 -0.042006023 -0.07887639 0.0710535 0.074870795 -0.025892438 0.081243
-0.022748547 0.022096807 -0.04893846 0.06991526 0.0809879 -0.02134992 -0.07896604 -0.07414462
-0.030009849 0.021027487 -0.012450908 -0.070353776 0.067022875 -0.0054190634 -0.07197134 0.018137643
-0.021771993 0.047063243 0.02186878 0.04432622 0.0574871 -0.06915314 -0.030788878 -0.07975702
0.03294981 -0.064544305 0.003904667 -0.027435167 0.036923837 -0.006481285 0.048118953 -0.02043726
-0.045227896 -0.004861642 -0.013442981 0.04966626 -0.07815139 -0.009404311 -0.07116413 -0.03785128
-0.030630955 0.041830607 0.028592315 -0.056902155 -0.074554875 -0.051314108 -0.038788833 0.030747592
0.081343725 -0.07731723 -0.07741383 -0.07715063 -0.017700085 -0.06023798 -0.038966987 -0.08758786
-0.0246996 0.017895613 -0.0050963843 0.06815611 0.04527072 0.025446884 0.04558117 0.020136753
-0.04368851 0.056909878 -0.006000215 -0.052417263 -0.0235342 0.01907213 0.07481959 -0.04122577
0.047214366 -0.05880465 -0.022119483 -0.0137980925 0.009417124 0.0060515716 -0.0859161 -0.010222381
-0.020446217 0.06328905 0.08198315 -0.07921638 -0.04364222 0.0030325884 0.07037409 -0.028069016
0.04471967 -0.0085622445 0.0563618 0.018897545 -0.05452234 0.07733479 0.0028906637 -0.030720403
-0.07361203 -0.04185585 -0.072629094 -0.051705863 -0.024800431 -0.017628849 0.032757234 -0.037813354
0.07929792 0.054669242 0.0022736208 0.06217724 -0.03367597 0.045231286 0.06598898 -0.08379614
0.019898012 -0.069519006 -0.03856742 0.034661684 0.055190027 -0.020148851 -0.029357918 -0.030983388
-0.08387759 0.08111748 -0.06009666 -0.05253402 0.074332975 0.0036475218 -0.011244218 -0.06582549
0.056874014 0.026107991 0.046150006 0.022156697 0.08471742 -0.08080265 0.0139451595 -0.0077065243
0.027408857 -0.022942888 -0.031208096 0.029754637 0.07956073 0.07224972 -0.0015836578 0.033115957
-0.07789995 0.030207926 -0.049552813 -0.07068297 0.056807008 -0.0071558016 0.008633308 -0.038706135
-0.03692697 -0.0835921 -0.007959867 0.0041705137 0.019309292 -0.07699953 0.06803681 0.08212194
-0.0008175657 0.08092359 0.026531653 -0.08038381 -0.008818322 -0.060728215 -0.0824366 -0.03342009
0.049496315 0.081509165 -0.06744943 -0.05835917 -0.026662014 0.036860332 0.06861814 0.08106885
-0.050593745 -0.06731848 -0.038170587 -0.040669378 -0.03196509 0.020831598 0.06858396 -0.07035163
-0.07990974 -0.049076144 -0.026256623 -0.087563135 -0.058916185 -0.028616615 -0.04089132 0.03216218
-0.068893634 -0.020355457 0.078573905 0.06360163 -0.021720191 0.023930304 0.0031527346 -0.05074289
0.038737603 0.08536454 0.083490685 -0.07116834 -0.058862362 0.08743563 0.013908541 0.06840838
-0.06886786 -0.008851764 0.018028459 -0.073860824 0.04834532 -0.06592542 -0.0072263246 0.04254205
-0.077813305 0.0400559 -0.05036237 0.06300475 0.037180707 -0.06089179 0.03324408 -0.0026812477
0.065074764 -0.08378202 -0.08718675 0.03864218 -0.010026944 0.066195 -0.041981895 -0.013892624
00000000: 3e69 27bd 9870 12bd cabd 9a3c 7cc1 1dbc
00000010: 1c02 a7bd 9693 9bbd 5726 87bc 3b23 8a3d
00000020: 80b6 ea3c 253d 633d 7885 3bbd 0d23 9a3d
00000030: 2a2b 8e3d 48a8 a3bd d816 69bd 951a 03bd
00000040: 1469 7f3d a34d a63d 820e 2cbd f289 a1bd
00000050: 7f84 913d dc55 993d 611c d4bc bb62 a63d
00000060: 295b babc 5d04 b53c b273 48bd bb2f 8f3d
00000070: fcdc a53d 07e6 aebc f2b8 a1bd 22d9 97bd
00000080: 37d7 f5bc d641 ac3c e5fe 4bbc a415 90bd
00000090: 4a43 893d 6692 b1bb b665 93bd 6595 943c
000000a0: 2e5b b2bc 63c5 403d 2826 b33c 698f 353d
000000b0: 9877 6b3d 29a0 8dbd f538 fcbc a657 a3bd
000000c0: 61f6 063d ce2f 84bd 71e5 7f3b b7bf e0bc
000000d0: 733d 173d f660 d4bb 6118 453d 0a6c a7bc
000000e0: e340 39bd 694e 9fbb f33f 5cbc d96e 4b3d
000000f0: d60d a0bd 8a14 1abc 80be 91bd f209 1bbd
00000100: c5ed fabc 9256 2b3d 6e3a ea3c 3c12 69bd
00000110: 3ab0 98bd be2e 52bd 0ae1 1ebd 60e2 fb3c
00000120: 8a97 a63d 7f58 9ebd 248b 9ebd 2601 9ebd
00000130: c5ff 90bc 1abc 76bd d99b 1fbd 4461 b3bd
00000140: d156 cabc d299 923c 92ff a6bb 6e95 8b3d
00000150: ca6d 393d fc75 d03c 52b3 3a3d d5f5 a43c
00000160: b9f2 32bd 551a 693d 749d c4bb 7cb3 56bd
00000170: cbca c0bc 283d 9c3c 033b 993d 5adc 28bd
00000180: da63 413d 25dd 70bd eb33 b5bc 6511 62bc
00000190: 484a 1a3c 434c c63b c8f4 afbd c67b 27bc
000001a0: d37e a7bc b09d 813d c8e6 a73d 333c a2bd
000001b0: 2fc2 32bd 64be 463b 4a20 903d fef0 e5bc
000001c0: f92b 373d a848 0cbc a1db 663d 06cf 9a3c
000001d0: d152 5fbd b461 9e3d 4a71 3d3b 5ba9 fbbc
000001e0: e7c1 96bd 0a71 2bbd 90be 94bd 87c9 53bd
000001f0: 462a cbbc 606a 90bc 732c 063d 2de2 1abd
00000200: f366 a23d dbec 5f3d 0701 153b 90ad 7e3d
00000210: d0ef 09bd 7144 393d 3b25 873d 509d abbd
00000220: 2801 a33c fb5f 8ebd dff8 1dbd 69f9 0d3d
00000230: f00e 623d 340f a5bc 0480 f0bc e0d0 fdbc
00000240: 04c8 abbd ec20 a63d ea27 76bd ea2d 57bd
00000250: e33b 983d 430b 6f3b ab39 38bc 84cf 86bd
00000260: baf4 683d 6de0 d53c ca07 3d3d f681 b53c
00000270: 5480 ad3d dc7b a5bd 3d7a 643c 0387 fcbb
00000280: 8a88 e03c b9f2 bbbc 1fa8 ffbc ffbf f33c
00000290: bcf0 a23d a9f7 933d bd92 cfba 99a4 073d
000002a0: 028a 9fbd 9d76 f73c e4f7 4abd 3cc2 90bd
000002b0: 77ae 683d 377b eabb b872 0d3c 538a 1ebd
000002c0: bc40 17bd 5632 abbd 1a6a 02bc cea8 883b
000002d0: 852e 9e3c eeb1 9dbd e256 8b3d 8c2f a83d
000002e0: e851 56ba 44bb a53d e958 d93c 44a0 a4bd
000002f0: b97a 10bc 26be 78bd 85d4 a8bd 81e3 08bd
00000300: a6bc 4a3d 47ee a63d ed22 8abd 060a 6fbd
00000310: 4c6a dabc dcfa 163d ab87 8c3d 6d07 a63d
00000320: 633b 4fbd 45de 89bd c358 1cbd ef94 26bd
00000330: d4ed 02bd 07a7 aa3c bf75 8c3d 8414 90bd
00000340: b8a7 a3bd 1104 49bd 2118 d7bc 4d54 b3bd
00000350: 1952 71bd 646d eabc a87d 27bd 7dbc 033d
00000360: 1b18 8dbd 7dc0 a6bc 5beb a03d 9241 823d
00000370: 8bee b1bc 7c09 c43c 1c9e 4e3b c7d7 4fbd
00000380: 52ab 1e3d 9bd3 ae3d 2afd aa3d b5c0 91bd
00000390: a919 71bd 7411 b33d a6e0 633c b119 8c3d
000003a0: 980a 8dbd fd06 11bc 6bb0 933c 5844 97bd
000003b0: be05 463d e803 87bd ceca ecbb 9340 2e3d
000003c0: 955c 9fbd a811 243d c648 4ebd a208 813d
000003d0: cc4a 183d ab69 79bd f22a 083d dfb7 2fbb
000003e0: eb45 853d e895 abbd f78e b2bd 4347 1e3d
000003f0: 0d48 24bc 3f91 873d 35f5 2bbd e39d 63bc

actor.bias f4 [4]
-0.018337427 0.06595059 -0.017982785 0.03736559
00000000: 5f38 96bc 1a11 873d a250 93bc a90c 193d

critic.weight f4 [1, 128]
-0.062253065 -0.012904857 0.026922887 -0.06971062 -0.044198092 -0.01976868 -0.048525248 -0.08341259
0.029890867 0.03651202 -0.055227797 -0.008717659 0.047889303 0.03921911 -0.08637413 -0.040451866
-0.07876344 0.04923569 0.0006428336 -0.02283065 -0.0022695905 -0.025040867 0.0504451 -0.0046706214
-0.01430164 -0.015110462 -0.038932703 -0.05363906 0.06637414 -0.02888767 -0.07476129 -0.028466972
-0.055493273 0.043932498 -0.05255677 -0.013083369 -0.06785285 -0.039613422 -0.084120534 -0.069098055
-0.06260038 -0.045231745 -0.019552449 0.054459743 -0.031136151 -0.03686074 0.021983052 -0.059001613
-0.08714597 -0.058298897 -0.03299927 -0.031241672 0.07980048 0.07045168 0.057690274 -0.022735186
-0.051185552 -0.054338258 -0.0016012582 -0.013004473 -0.0784875 0.0839674 0.073038556 0.034959137
-0.07133762 -0.018476306 0.06565182 0.051095854 0.016791336 -0.0601218 0.0018143951 0.049417928
0.039433677 0.07610969 0.051375218 -0.08225258 0.0323895 0.08331627 0.064768575 -0.018644795
0.005503197 0.06210513 -0.049956515 0.08530619 0.024760818 0.033046763 0.0439029 -0.06379281
-0.005925666 -0.08213737 0.04205716 -0.05494595 0.050959818 0.08295445 -0.08675491 0.011673441
0.06871092 -0.038542356 0.0641812 -0.071314 -0.065932214 -0.058157135 -0.08209614 -0.08388222
-0.015300997 0.079765394 0.060443617 0.036954008 0.060750898 -0.037113264 0.028575424 -0.08708812
0.06960603 0.06676366 0.033741508 0.013031015 0.02531859 -0.0864057 0.059429195 -0.065667085
0.021688381 0.0041977833 0.012106987 -0.08270274 0.025016302 -0.010428371 0.05030692 -0.01132136
00000000: 12fd 7ebd e56e 53bc 638d dc3c 71c4 8ebd
00000010: 0f09 35bd edf1 a1bc 69c2 46bd 38d4 aabd
00000020: b1dd f43c a18d 153d 8b36 62bd 83d4 0ebc
00000030: 9327 443d 38a4 203d ebe4 b0bd dbb0 25bd
00000040: ba4e a1bd 5dab 493d d583 283a 5807 bbbc
00000050: 69bd 14bb 8122 cdbc 859f 4e3d 030c 99bb
00000060: 6d51 6abc df91 77bc e677 1fbd a2b4 5bbd
00000070: 2aef 873d d6a5 ecbc 721c 99bd 9133 e9bc
00000080: ea4c 63bd 90f2 333d c545 57bd a05b 56bc
00000090: 6ff6 8abd af41 22bd 6347 acbd 4883 8dbd
000000a0: a134 80bd ec44 39bd 752c a0bc 2e11 5f3d
000000b0: 3e11 ffbc 4afb 16bd cd15 b43c adab 71bd
000000c0: 9679 b2bd d3ca 6ebd 3e2a 07bd 89ee ffbc
000000d0: 6f6e a33d f848 903d a34c 6c3d 243f babc
000000e0: f1a7 51bd cb91 5ebd 4fe1 d1ba b710 55bc
000000f0: 0ebe a0bd 1af7 ab3d 3d95 953d 5031 0f3d
00000100: 7519 92bd 9f5b 97bc 7674 863d e349 513d
00000110: fc8d 893c 4742 76bd ffd0 ed3a 746a 4a3d
00000120: 3585 213d 66df 9b3d d26e 523d 0a74 a8bd
00000130: daaa 043d b8a1 aa3d 63a5 843d f8bc 98bc
00000140: 2a54 b43b f361 7e3d 349f 4cbd 03b5 ae3d
00000150: 33d7 ca3c 0b5c 073d 87d3 333d cea5 82bd
00000160: 172c c2bb a337 a8bd 2144 2c3d 010f 61bd
00000170: 3ebb 503d 06e4 a93d 8fac b1bd f641 3f3c
00000180: 50b8 8c3d 97de 1dbd 6f71 833d 130d 92bd
00000190: 7807 87bd 2d36 6ebd 0522 a8bd 71ca abbd
000001a0: 08b1 7abc 0a5c a33d ba93 773d 165d 173d
000001b0: efd5 783d 1404 18bd 0217 ea3c 425b b2bd
000001c0: 9b8d 8e3d 63bb 883d 8934 0a3d 0a80 553c
000001d0: ef68 cf3c 79f5 b0bd 076c 733d 777c 86bd
000001e0: d5ab b13c 8f8d 893b 625c 463c 0e60 a9bd
000001f0: fdee cc3c c2db 2abc a10e 4e3d 3a7d 39bc
