models/resilience/handcrafted/PPL/agent1.pth (torch, 40580 bytes, 5 tensors)

fc.weight f4 [128, 68]
-0.053258497 -0.10492118 -0.08216873 -0.035142742 -0.07358458 -0.053538315 0.07596714 -0.09485456
0.091167964 0.026687581 0.048025336 0.078288354 -0.09994993 0.06957998 0.09206938 -0.086874455
0.011259438 0.10543634 0.025930854 0.099429116 0.04623181 0.06978068 -0.03162543 0.109027416
-0.11224251 -0.09505127 0.07454 0.049865372 -7.1413874e-06 -0.00023716716 0.01598362 0.09761227
-0.044188596 -0.06934223 -0.003039239 0.047206998 0.0058523812 0.06407063 0.094703384 0.003301414
0.09654447 -0.027321525 0.02353255 -0.036476776 -0.045576233 0.05921725 0.04769397 0.0707209
-0.024174832 -0.115435295 0.06337731 0.028007828 -0.08999643 -0.07646528 0.042643897 -0.032546308
0.08482096 -0.021060819 0.055906 0.020267127 0.009632126 -0.05826217 0.062099885 -0.0959485
0.08259357 0.07196055 0.08305403 -0.07889203 -0.10476655 -0.03381915 0.114919364 -0.0016719705
0.08715348 0.012570287 0.105215736 0.07127038 -0.06593136 0.08662456 0.11501321 -0.058567096
0.0037597236 0.03256565 0.070744894 0.041900992 -0.09570991 0.05661271 -0.05113281 -0.04012254
-0.042607598 -0.07498231 0.038976334 -0.10215376 0.08497394 0.01366756 0.07041908 0.0062552625
0.05644849 -0.008893378 0.0057670115 -0.0538449 0.055348832 0.11929433 -0.032273937 0.10158823
0.03611998 -0.10374521 0.10939756 -0.11644586 -0.09471161 -0.029906895 0.026101047 0.04833479
0.11840545 -0.06914647 -0.11227792 -0.05137263 0.079279944 -0.004772471 0.11652343 -0.115308225
-0.112576686 -0.027675405 -0.09985835 0.02289828 0.05063738 0.071632795 0.113821805 0.0772918
0.08603884 -0.04715867 -0.07173243 0.099353105 -0.07948228 0.07205617 -0.103213444 -0.034143306
-0.1188493 -0.044118058 -0.025108313 0.057896134 -0.05999215 0.0062863724 -0.118719734 -0.05620075
-0.042177986 0.092651725 -0.0031455352 0.106499076 0.031741515 0.08299271 0.05833107 -0.0050540636
-0.01453946 0.10729493 0.104020365 0.117285766 0.10565484 -0.050499726 0.001935793 0.06275178
0.057444457 0.0030708832 0.009429421 0.08373342 -0.05082787 0.111483544 0.1188992 0.10733461
0.09547708 0.010634066 -0.076655984 -0.07787907 0.054485664 0.03382629 -0.0332885 0.11767736
0.061189994 0.09136738 0.006830253 -0.051268943 0.12014624 0.002708147 0.024574049 0.03460317
0.021552049 -0.016890652 0.05982531 -0.09435606 0.08208446 0.116473615 0.044967234 0.01775015
-0.10124754 0.111909874 0.07291105 0.10430576 -0.12105708 -0.06817771 -0.103363514 -0.02396521
-0.11998733 -0.047063347 0.08082579 -0.08671052 0.020142226 0.058134302 0.0684745 -0.09880384
0.12060801 -0.0031617696 0.05494177 0.028677108 0.062475733 0.05080273 0.10880437 0.10411586
0.044685137 0.0017273773 0.05213989 -0.05304469 0.074402295 0.08585335 0.00397544 0.07518826
0.07107672 -0.050693035 -0.056223117 -0.07890597 0.06496491 -0.005324916 0.04095454 0.02955411
0.05443184 0.104455195 0.037295904 0.09192469 -0.012105143 0.09379412 -0.08172626 -0.08000178
0.04185515 -0.079995245 0.102276504 -0.008493071 -0.05127724 0.031318445 -0.10719918 -0.10950976
0.09863385 -0.057648156 -0.014777656 0.11976787 -0.012342214 0.0072549554 -0.09810033 0.034317605
00000000: 9525 5abd eae0 d6bd 1448 a8bd d6f1 0fbd
00000010: 83b3 96bd fe4a 5bbd a994 9b3d 1c43 c2bd
00000020: 45b6 ba3d ea9f da3c 37b6 443d a555 a03d
00000030: 8db2 ccbd f37f 8e3d df8e bc3d 3ceb b1bd
00000040: 8179 383c 02ef d73d f16c d43c 7ea1 cb3d
00000050: 915d 3d3d 2ce9 8e3d ab89 01bd c449 df3d
00000060: 67df e5bd 3eaa c2bd 6da8 983d a23f 4c3d
00000070: 0da0 efb6 13b0 78b9 15f0 823c f1e8 c73d
00000080: 1aff 34bd 4d03 8ebd f82d 47bb 205c 413d
00000090: 55c5 bf3b 7637 833d d9f3 c13d 895c 583b
000000a0: 1bb9 c53d 64d1 dfbc 56c7 c03c ac68 15bd
000000b0: 25ae 3abd ca8d 723d c15a 433d 1fd6 903d
000000c0: 4c0a c6bc 5769 ecbd f7cb 813d ac70 e53c
000000d0: 0c50 b8bd d499 9cbd 5eab 2e3d 474f 05bd
000000e0: 9db6 ad3d bd87 acbc b1fd 643d 3f07 a63c
000000f0: 11d0 1d3c 50a4 6ebd 735c 7e3d a680 c4bd
00000100: d126 a93d 0e60 933d 3b18 aa3d 2592 a1bd
00000110: d88f d6bd f385 0abd d85a eb3d 0526 dbba
00000120: 867d b23d 9bf3 4d3c 597b d73d 34f6 913d
00000130: 0507 87bd 3868 b13d 0c8c eb3d 0de4 6fbd
00000140: b265 763b 8f63 053d b3e2 903d 60a0 2b3d
00000150: 8f03 c4bd bbe2 673d a370 51bd 8857 24bd
00000160: 4e85 2ebd 5390 99bd a6a5 1f3d fe35 d1bd
00000170: d106 ae3d e7ed 5f3c e137 903d f2f8 cc3b
00000180: 8836 673d 88b5 11bc 33f9 bc3b 788c 5cbd
00000190: 75b5 623d 9650 f43d ad31 04bd 7d0d d03d
000001a0: 8bf2 133d 5e78 d4bd d40b e03d 2b7b eebd
000001b0: 29f8 c1bd 4eff f4bc ddd1 d53c b3fa 453d
000001c0: 8e7e f23d aa9c 8dbd f7f1 e5bd 1b6c 52bd
000001d0: 865d a23d 6362 9cbb d6a3 ee3d b826 ecbd
000001e0: 9b8e e6bd 88b7 e2bc 8982 ccbd 2c95 bb3c
000001f0: 2469 4f3d 37b4 923d 681b e93d 2a4b 9e3d
00000200: 2235 b03d 7329 41bd 74e8 92bd a479 cb3d
00000210: 9bc7 a2bd 2f92 933d 9261 d3bd dad9 0bbd
00000220: 4367 f3bd 23b5 34bd f3af cdbc 7f24 6d3d
00000230: 54ba 75bd eafd cd3b 5523 f3bd c232 66bd
00000240: d3c2 2cbd 30c0 bd3d 5325 4ebb 301c da3d
00000250: 6403 023d 15f8 a93d 8fec 6e3d 8f9c a5bb
00000260: ea36 6ebc 72bd db3d a108 d53d 8533 f03d
00000270: 9161 d83d cdd8 4ebd 6fba fd3a 0184 803d
00000280: e14a 6b3d df40 493b dc7d 1a3c 6d7c ab3d
00000290: e230 50bd 7c51 e43d 6c81 f33d 3fd2 db3d
000002a0: 7d89 c33d 813a 2e3c d0fd 9cbd 107f 9fbd
000002b0: 5c2c 5f3d 708d 0a3d 8659 08bd d400 f13d
000002c0: 5ca2 7a3d d21e bb3d 51d0 df3b 62ff 51bd
000002d0: 3b0f f63d 2b7b 313b 844f c93c 0ebc 0d3d
000002e0: ec8d b03c 445e 8abc 620b 753d c03d c1bd
000002f0: e61b a83d b889 ee3d 902f 383d c368 913c
00000300: df5a cfbd 0131 e53d 6352 953d 429e d53d
00000310: c6ec f7bd c1a0 8bbd 40b0 d3bd b052 c4bc
00000320: ebbb f5bd 7fc5 40bd fe87 a53d 4995 b1bd
00000330: 4f01 a53c 3c1e 6e3d 5c3c 8c3d ab59 cabd
00000340: 5501 f73d b135 4fbb 9f0a 613d 41ec ea3c
00000350: 8ee6 7f3d 8616 503d d3d4 de3d b23a d53d
00000360: c307 373d 2a69 e23a a390 553d 6445 59bd
00000370: 3b60 983d e2d3 af3d 6844 823b 4dfc 993d
00000380: ac90 913d 80a3 4fbd 364a 66bd 7499 a1bd
00000390: 530c 853d a27c aebb f3bf 273d 761b f23c
000003a0: ecf3 5e3d 9bec d53d 97c3 183d 0343 bc3d
000003b0: a654 46bc 2217 c03d 1960 a7bd f9d7 a3bd
000003c0: 4e70 2b3d 8cd4 a3bd 5876 d13d 8626 0bbc
000003d0: 1508 52bd c547 003d 3e8b dbbd a746 e0bd
000003e0: 8b00 ca3d 7920 6cbd fb1d 72bc db48 f53d
000003f0: ff36 4abc faba ed3b d3e8 c8bd 9e90 0c3d

fc.bias f4 [128]
-0.031170746 0.11071119 0.022371052 0.09297192 -0.114294365 -0.0581499 -0.11486162 -0.022854803
0.0119492775 -0.06797236 -0.08006383 -0.038004305 0.044395797 -0.07701898 0.017589243 -0.07405423
0.03281392 0.06620188 -0.058816414 -0.117365204 -0.019496216 -0.016021846 -0.11822024 -0.09366856
-0.07958583 -0.0928787 -0.033315122 0.11770216 0.0488933 0.1063407 -0.009246833 -0.0006673861
0.017042398 -0.10050027 0.016500931 0.09912862 0.06166811 -0.10221765 0.11284861 0.09638273
0.07576884 -0.065985434 0.003428866 0.024407534 0.006298447 -0.080988504 -0.048498504 -0.08910246
-0.08813618 0.084379695 0.049508084 -0.109853305 -0.000103272 -0.01612786 0.10557079 0.054973107
0.087541126 0.06265018 -0.11349785 -0.038555622 -0.024119906 -0.042626243 -0.08261602 0.07942265
-0.10818486 -0.01593053 0.02870736 0.015501778 -0.09746149 -0.06509136 -0.10369592 0.019152462
-0.11556832 -0.09368886 0.06457812 -0.10980546 0.09876971 0.05894716 0.03511653 -0.042299423
0.1154747 0.064470746 0.07698046 0.095888175 -0.10692186 -0.11179587 0.008929104 -0.023848759
0.049688864 0.06797284 0.114979774 0.09008182 -0.005248191 0.035237234 -0.022644974 -0.028720526
0.048637487 0.011714717 -0.096373215 -0.0035005768 -0.09313658 -0.030686852 0.068226516 0.06477544
0.11502412 0.116291806 -0.073679484 0.05244276 -0.05599504 -0.046565887 0.022835257 0.056188915
-0.040896982 0.054169882 -0.08290333 0.0061849575 0.06808813 0.06711161 0.10111406 0.07650683
-0.12120844 -0.11781543 0.09507401 0.07321331 -0.08345594 -0.033409037 -0.01966841 -0.054470167
00000000: cb59 ffbc 8cbc e23d 7f43 b73c 1068 be3d
00000010: 2a13 eabd 972e 6ebd 923c ebbd ff39 bbbc
00000020: e7c6 433c 1835 8bbd 81f8 a3bd 67aa 1bbd
00000030: 5ed8 353d 21bc 9dbd 5117 903c bea9 97bd
00000040: e467 063d da94 873d 7be9 70bd 2b5d f0bd
00000050: 87b6 9fbc 3f40 83bc 741d f2bd 4dd5 bfbd
00000060: e5fd a2bd 3037 bebd 7075 08bd d40d f13d
00000070: 5744 483d 27c9 d93d 0780 17bc 86f3 2eba
00000080: 809c 8b3c 16d3 cdbd f62c 873c f203 cb3d
00000090: b397 7c3d 7d57 d1bd 2c1d e73d 4f64 c53d
000000a0: b22c 9b3d 5f23 87bd d3b6 603b 4ff2 c73c
000000b0: 3463 ce3b 4ddd a5bd 5ea6 46bd 5a7b b6bd
000000c0: be80 b4bd 43cf ac3d fdc8 4a3d c5fa e0bd
000000d0: bc93 d8b8 931e 84bc 8035 d83d 7b2b 613d
000000e0: c348 b33d bd4e 803d 9071 e8bd 80ec 1dbd
000000f0: 1c97 c5bc db98 2ebd 9732 a9bd 58a8 a23d
00000100: 0690 ddbd be80 82bc b32b eb3c 2bfb 7d3c
00000110: e499 c7bd 9e4e 85bd 875e d4bd a0e5 9c3c
00000120: 15af ecbd f2df bfbd 8941 843d afe1 e0bd
00000130: c647 ca3d 9472 713d 5ad6 0f3d 2942 2dbd
00000140: 007e ec3d 3d09 843d eea7 9d3d 0561 c43d
00000150: d9f9 dabd 3cf5 e4bd 604b 123c 795e c3bc
00000160: 8d86 4b3d 5835 8b3d 847a eb3d d17c b83d
00000170: 04f9 abbb eb54 103d f481 b9bc 4f47 ebbc
00000180: 1a38 473d 16ef 3f3c 525f c5bd ef69 65bb
00000190: 64be bebd fe62 fbbc 58ba 8b3d fca8 843d
000001a0: c491 eb3d 662a ee3d 45e5 96bd 38ce 563d
000001b0: 0e5b 65bd dfbb 3ebd 0111 bb3c 5926 663d
000001c0: 9883 27bd 3de1 5d3d 39c9 a9bd 2fab ca3b
000001d0: ca71 8b3d d071 893d e314 cf3d 9daf 9c3d
000001e0: 213c f8bd 3749 f1bd 2ab6 c23d dcf0 953d
000001f0: f3ea aabd ead7 08bd a51f a1bc 1c1c 5fbd

actor.weight f4 [4, 128]
-0.034275316 -0.010790479 -0.027638094 0.044157296 -0.03080788 0.07631487 0.02616157 -0.074953616
-0.038156018 0.047114365 -0.035150878 -0.06542402 -0.03835339 -0.017609503 -0.08645371 0.025998196
-0.06487332 0.047901392 0.044559438 0.07181692 -0.06701336 0.031879697 -0.052727938 0.014115362
-0.02297167 0.04199619 0.04515923 -0.01538935 -0.039024148 0.087329105 -0.013831028 0.08437265
0.05527924 0.046835992 0.01640228 -0.0012267467 0.060762946 -0.036263168 -0.06588025 0.011634351
0.06475013 -0.04294124 0.020120967 0.00061112165 -0.03891089 -0.03344253 0.046102256 -0.051380303
0.01646259 -0.053404745 0.019957036 -0.070734896 0.07011643 0.035551902 0.04251532 0.054740854
0.029132787 -0.067614846 0.0003041322 -0.050607383 -0.06975364 -0.018684305 -0.055164102 0.023017185
0.07135949 -0.056658 0.029470585 0.048666295 0.044865254 0.032324042 -0.07946874 0.017362626
0.0027439557 -0.041629434 -0.017804123 0.015131713 0.020836184 0.06696169 0.00028650364 -0.011932789
0.0016509565 0.061790768 -0.05705767 -0.0035153928 0.00044891774 0.0063806027 0.072939925 0.062790535
-0.042486575 0.081200905 0.013700028 0.019689504 -0.021616722 -0.07732208 -0.049247604 -0.06545749
0.00029258593 -0.08110801 -0.05243241 0.012181207 0.025470147 0.029403249 -0.060272872 -0.04645524
0.04084471 -0.076799266 -0.020124696 -0.014903033 -0.07421494 0.057135567 0.06729349 -0.064024806
-0.053950068 -0.079576395 -0.04020904 0.064244196 -0.059324063 -0.05417392 0.012290933 -0.0044333083
-0.039781217 -0.010696895 -0.03198667 0.058288652 -0.07882643 0.04721219 0.023027733 -0.06039536
0.041435845 -0.024065737 0.01829331 0.063896954 0.03220084 0.03608753 0.068519175 -0.0070184297
-0.015206144 0.026606811 -0.055014268 0.029188888 0.03196875 -0.026044732 -0.038268354 -0.078794174
-0.016102029 -0.036597036 0.023093766 0.011742012 -0.07120244 0.018251006 -0.06714582 0.021936962
-0.064660475 -0.08053502 -0.083372325 0.0062964186 0.016232548 -0.06450411 -0.050600093 -0.068673894
-0.072568275 -0.07014866 0.048801087 -0.04803287 -0.06947961 -0.028648436 0.002977022 -0.016876856
-0.037902374 0.08511225 0.06404615 0.031287424 0.04511894 0.03890589 -0.055271152 -0.073732525
0.035076052 -0.0517527 0.04009447 -0.0050852518 -0.070458874 -0.025440894 -0.0017827218 0.019649798
-0.040887818 -0.06280822 0.009615795 -0.01579768 0.009176861 -0.04136807 -0.042588055 0.013470386
-0.04800883 -0.04615096 0.009520565 0.071693 0.07829102 -0.026589056 0.032489672 0.009334293
0.049225833 -0.022079583 0.03987931 0.06431612 0.058949172 0.016890671 0.040254228 0.027003428
-0.023614505 -0.07396811 -0.036219303 -0.036027677 0.068359874 -0.07492236 -0.01952435 0.039343555
-0.08834149 -0.05969422 0.0880606 -0.065990314 -0.0031373284 -0.0021035052 -0.0005341374 -0.048251677
-0.058869623 -0.057354745 -0.056708 -0.0085273255 -0.074045084 -0.054434218 -0.040862456 0.011882207
0.06290936 0.028949931 0.004660199 -0.023613816 0.07716345 0.08172127 -0.036413338 0.010206565
0.042458072 -0.076265074 -0.04815746 0.016230956 0.03616954 0.028715927 -0.07392566 0.066378035
0.017809197 0.07410435 0.04153662 0.002864901 -0.0046359766 -0.033709053 0.036165096 0.027924743
00000000: 4664 0cbd 8dca 30bc 4969 e2bc 48de 343d
00000010: cf60 fcbc f84a 9c3d ca50 d63c 4881 99bd
00000020: 7c49 1cbd fefa 403d 5efa 0fbd 07fd 85bd
00000030: 7218 1dbd ce41 90bc a50e b1bd 2bfa d43c
00000040: 4edc 84bd 4034 443d f583 363d c014 933d
00000050: 4d3e 89bd 4994 023d 40f9 57bd 1f44 673c
00000060: 152f bcbc 3204 2c3d e2f8 383d 9d23 7cbc
00000070: c9d7 1fbd 9ad9 b23d 899b 62bc 91cb ac3d
00000080: 7c6c 623d 19d7 3f3d 135e 863c caca a0ba
00000090: 91e2 783d b088 14bd 39ec 86bd 019e 3e3c
000000a0: b79b 843d 27e3 2fbd bad4 a43c ae33 203a
000000b0: 0761 1fbd 09fb 08bd b8d5 3c3d 2774 52bd
000000c0: 8edc 863c efbe 5abd f07c a33c 75dd 90bd
000000d0: 3499 8f3d df9e 113d 8b24 2e3d f237 603d
000000e0: e2a7 ee3c a779 8abd ef73 9f39 b049 4fbd
000000f0: ffda 8ebd d40f 99bc c1f3 61bd 898e bc3c
00000100: ed24 923d 3812 68bd 4c6c f13c 4f56 473d
00000110: a1c4 373d 3766 043d 82c0 a2bd 113c 8e3c
00000120: f0d3 333b a083 2abd f4d9 91bc 01eb 773c
00000130: a5b0 aa3c 3623 893d de35 9639 bf81 43bc
00000140: e864 d83a 5118 7d3d 4eb5 69bd 8162 66bb
00000150: b85c eb39 6014 d13b 8761 953d 5398 803d
00000160: 6706 2ebd a94c a63d 1576 603c e24b a13c
00000170: 8d15 b1bc 0a5b 9ebd dbb7 49bd 940e 86bd
00000180: 3866 9939 f51b a6bd 5ec3 56bd af93 473c
00000190: c5a6 d03c 15df f03c b0e0 76bd da47 3ebd
000001a0: c84c 273d ef48 9dbd 8cdc a4bc da2b 74bc
000001b0: 01fe 97bd fc06 6a3d 2bd1 893d 701f 83bd
000001c0: bffa 5cbd f3f8 a2bd 3cb2 24bd 7692 833d
000001d0: cafd 72bd 79e5 5dbd e95f 493c 4945 91bb
000001e0: a1f1 22bd 0842 2fbc 7404 03bd 15c0 6e3d
000001f0: c06f a1bd 9261 413d a8a4 bc3c 2061 77bd
00000200: a2b8 293d 8225 c5bc dadb 953c 68dc 823d
00000210: 07e5 033d 85d0 133d c853 8c3d dbfa e5bb
00000220: 3123 79bc 87f6 d93c a456 61bd 891d ef3c
00000230: aaf1 023d c35b d5bc 47bf 1cbd d75e a1bd
00000240: 67e8 83bc c6e6 15bd 232f bd3c 9161 403c
00000250: 96d2 91bd 2283 953c bf83 89bd 25b5 b33c
00000260: b66c 84bd 8bef a4bd 1cbf aabd 3052 ce3b
00000270: 1ffa 843c bb1a 84bd 0b42 4fbd e6a4 8cbd
00000280: ad9e 94bd 1aaa 8fbd a6e3 473d 1dbe 44bd
00000290: 534b 8ebd 20b0 eabc 241a 433b 5541 8abc
000002a0: 853f 1bbd 554f ae3d a12a 833d 3e27 003d
000002b0: a3ce 383d c85b 1f3d 0164 62bd 1401 97bd
000002c0: e8ab 0f3d a4fa 53bd 193a 243d 2fa2 a6bb
000002d0: be4c 90bd 6c69 d0bc 38aa e9ba 9df8 a03c
000002e0: fc79 27bd 99a1 80bd 918b 1d3c 236a 81bc
000002f0: 8b5a 163c 9171 29bd d070 2ebd e5b2 5c3c
00000300: e8a4 44bd ca08 3dbd 25fc 1b3c c8d3 923d
00000310: 0b57 a03d 4bd1 d9bc e413 053d ddee 183c
00000320: 07a1 493d 3ee0 b4bc 7d58 233d 2cb8 833d
00000330: b074 713d 4e5e 8a3c 9ee1 243d 4b36 dd3c
00000340: 3573 c1bc 987c 97bd b15a 14bd c291 13bd
00000350: 4300 8c3d e570 99bd 88f1 9fbc b526 213d
00000360: 62ec b4bd ed81 74bd 1e59 b43d ee25 87bd
00000370: a39b 4dbb f6da 09bb 5b05 0cba 8da3 45bd
00000380: 4621 71bd cfec 6abd a646 68bd 32b6 0bbc
00000390: f3a4 97bd 6af6 5ebd 645f 27bd 97ad 423c
000003a0: 9fd6 803d 6828 ed3c 95b4 983b c371 c1bc
000003b0: df07 9e3d 7b5d a73d 2726 15bd 7039 273c
000003c0: 84e8 2d3d dd30 9cbd c240 45bd c8f6 843c
000003d0: 8326 143d aa3d eb3c 5666 97bd 35f1 873d
000003e0: 98e4 913c 05c4 973d 4e22 2a3d 10c1 3b3b
000003f0: 64e9 97bb 8112 0abd da21 143d 6ec2 e43c

actor.bias f4 [4]
-0.0585374 -0.005782631 -0.07547502 -0.059575833
00000000: eac4 6fbd 3a7c bdbb a692 9abd ca05 74bd

critic.weight f4 [1, 128]
0.030099533 0.03894896 0.0012552177 0.01586183 0.019300098 0.0013971897 -0.03138536 0.018067626
0.01538681 0.060543768 0.062209 0.011266322 -0.029565526 0.0069173747 -0.012244766 0.034998894
-0.08009076 -0.018064963 0.07575568 0.051558625 0.053054344 -0.010303598 -0.06915235 -0.0871786
0.0653336 0.0060482994 0.052077405 0.060949206 -0.078933865 -0.015529327 -0.063731074 -0.07028326
-0.03271347 -0.06869011 -0.046696093 0.0044561806 -0.061411675 0.06300464 0.03806272 -0.03820681
-0.020349227 -0.062650114 0.02273201 -0.037060358 0.04035103 -0.015901823 0.061486296 0.034319397
-0.077637225 -0.08206301 0.08666014 0.07115629 -0.019902667 -0.05872647 -0.057381798 0.06937046
0.0082727745 0.021780353 -0.057522375 0.06149975 0.025601577 -0.024533864 0.035015617 0.071148045
0.050933093 -0.06099364 -0.011096101 0.0050772415 0.01778043 0.06208974 -0.03780451 -0.07777617
0.04641528 -0.052354254 0.059373103 -0.06872177 -0.017707769 -0.05197245 0.0810558 0.050761156
0.07133957 0.052921627 0.07782857 -0.054964233 0.054365125 -0.06049828 -0.03466076 0.0625227
-0.008616114 -0.08779414 -0.06412661 -0.07028395 0.073545836 0.023080878 -0.076222084 0.059427112
-0.08672064 -0.006951898 -0.0624645 -0.033999465 0.029740375 0.054520957 -0.07838448 0.085315846
0.01664445 0.070861384 -0.07507551 0.019367035 0.015829122 -0.040517807 0.07946148 -0.0013367534
0.044952534 -0.03654042 -0.058311395 -0.0512721 0.0058019655 0.042841423 -0.07913721 0.04706555
0.046677437 -0.076902874 -0.07102341 -0.078644626 0.034834903 0.071112685 0.075511776 -0.06370705
00000000: 4c93 f63c f288 1f3d 1e86 a43a abf0 813c
00000010: 3d1b 9e3c e821 b73a ef8d 00bd 8f02 943c
00000020: f518 7c3c befc 773d ddce 7e3d 6196 383c
00000030: 6733 f2bc 25ab e23b 459e 48bc 005b 0f3d
00000040: a006 a4bd f9fc 93bc cb25 9b3d 232f 533d
00000050: 834f 593d 6cd0 28bc bf9f 8dbd b28a b2bd
00000060: 9fcd 853d d030 c63b 1e4f 553d e0a5 793d
00000070: 14a8 a1bd b86e 7ebc 7085 82bd abf0 8fbd
00000080: 8ffe 05bd 67ad 8cbd 6744 3fbd 2705 923b
00000090: cf8a 7bbd 9408 813d a8e7 1b3d be7e 1cbd
000000a0: 6cb3 a6bc b44e 80bd 7b38 ba3c 9acc 17bd
000000b0: 1f47 253d 8a44 82bc 0ed9 7b3d 7f92 0c3d
000000c0: 4400 9fbd a710 a8bd df7a b13d 64ba 913d
000000d0: eb0a a3bc 2b8b 70bd 2d09 6bbd 1a12 8e3d
000000e0: 888a 073c b66c b23c 959c 6bbd 29e7 7b3d
000000f0: 66ba d13c 3efb c8bc 896c 0f3d 11b6 913d
00000100: 389f 503d 78d4 79bd 6ccc 35bc fd5e a63b
00000110: 44a8 913c d051 7e3d e7d8 1abd 1d49 9fbd
00000120: f31d 3e3d 6a71 56bd 3631 733d 00be 8cbd
00000130: e20f 91bc 10e1 54bd 9500 a63d eeea 4f3d
00000140: 7b1a 923d 59c4 583d 9664 9f3d 2d22 61bd
00000150: f7ad 5e3d 0bcd 77bd 71f8 0dbd e70b 803d
00000160: 9a2a 0dbc 6acd b3bd d054 83bd 08f1 8fbd
00000170: 339f 963d 1c14 bd3c 531a 9cbd d869 733d
00000180: 979a b1bd bfcc e3bb c7da 7fbd 0643 0bbd
00000190: 16a2 f33c 5e51 5f3d 0b88 a0bd 13ba ae3d
000001a0: f159 883c c61f 913d 30c1 99bd 9ea7 9e3c
000001b0: 13ac 813c 00f6 25bd b3bc a23d 0036 afba
000001c0: 2620 383d 68ab 15bd eed7 6ebd b202 52bd
000001d0: 6a1e be3b 7d7a 2f3d b112 a2bd cec7 403d
000001e0: d730 3f3d 417f 9dbd b974 91bd 6f10 a1bd
000001f0: 0baf 0e3d 87a3 913d eba5 9a3d d878 82bd
