models/resilience/handcrafted/PPL/agent2.pth (torch, 40580 bytes, 5 tensors)

fc.weight f4 [128, 68]
00000000: bd49 2f3d d718 bfbb 509b bb3b 272b a73c
00000010: 717d 4abc 7dc1 a5bd 189e 4e3d 0ced d4bd
00000020: bf70 af3d 649a 70bd 1fda 1c3d f3f0 b1bc
00000030: e90c a5bd 00e2 a13d 20e2 c6bd 2193 a2bd
00000040: af12 3dbd 1f1f 8fbd 944b e9bd 6ce4 33bc
00000050: 51df 5cbd 6f61 b63d 3491 97bd 1f7c ce3c
00000060: 4cb0 d3bd f062 bb3c 33ed 263d 17ea 593d
00000070: c62b b63d 576d 8fb9 8004 b53c 0f7d e1bd
00000080: 8f38 463d dcdf 5abd 2b48 303d 594d 493d
00000090: 7951 59bd 2ab5 3cbd fb48 47bd b114 d43d
000000a0: 2119 d33d bfd0 a53c d402 df3d 7806 163d
000000b0: a0e8 cd3d 110e dcbd 1f63 83bd f0fc 09bd
000000c0: bfa2 2f3d a280 abbd 9ba8 ddba 969f 85bd
000000d0: 6035 8b3d 736d b3bd 54b3 19bd fe5c ffbc
000000e0: 6268 a3bd 0ad3 64bd ec65 dfbd c76c 47bb
000000f0: 2fc4 f0bd a289 ac3d b17b 263d 3670 f5bd
00000100: 6089 c5bc 87a9 b83c e2d2 693d 9d1d c13d
00000110: 8bf5 eebd fb22 f3bd a30c bebd 842c 88bc
00000120: 537c 7f3d 12ff debd 2f8e b53d 055b 9cbd
00000130: 5420 c4bd 9259 a83d ebcd f33d fde1 46bc
00000140: 9741 d83d 875b 75bd 9daf 803c b4db f4bd
00000150: b704 91bd ed91 b4bc 7e54 8d3b e56a c6bd
00000160: de9b aebd b40f debd 3c12 edbc f362 8c3d
00000170: 4a66 2dbc 8132 483d bd02 513d 70ca d53d
00000180: 3908 f33d 63c6 d13d af24 3ebd 7e62 edbd
00000190: 8a7e 8bbc b08c a03d e5be cdbd 50f7 4f3d
000001a0: 1bd3 f5bd cb5d 363d 118b 36bd 64dd f0bd
000001b0: 80a3 6d3d e2fb d43d 483e eabd adf0 eb3c
000001c0: 5995 e9bd 214e 8abd 05a8 04bc ba62 b73d
000001d0: 392b 9d3d b009 aa3b 4b31 3bbd 9d38 333d
000001e0: 5dbe 80bd 1893 97bc 65eb a6bd dd9c cf3d
000001f0: a1b4 b9bd 7a1a b8bd 8632 f5bc 5f8d 9f3d
00000200: 535c b83d efb4 42bd 4970 85bd f02f f7bc
00000210: d703 f23d f41d 813d ff5f 443d 2b01 913b
00000220: 3d6b 82bd d65d b8bc c14c 03bd 8b75 243d
00000230: 82ca 83bd a7b4 babd f93e b53d 5d67 7e3d
00000240: b1c7 133d 9480 96bd 261d d0bd 9476 0fbd
00000250: cc80 a73d cfa8 c63d f02b 7fbc 5958 e93d
00000260: 7964 953b 7294 c3bb 5cde 933d 12de 4c3d
00000270: fedf 82bd 57b5 a4bd 30e1 f33d 31cf b2bd
00000280: 0971 f7bd 5979 903c f541 473d 025d ab3d
00000290: efdc ed3d c4b8 c63c 0941 40bd daf8 f5bd
000002a0: 12d4 51bc c883 8bbd 3cf3 ca3d e2e2 c43d
000002b0: ca02 223d fc52 a2bd 6b3b 873c 044c efbd
000002c0: 3295 793d 2dda 793c 7795 4f3d 804b b4bc
000002d0: d9d0 59bd 71e8 99bd 1fa7 1ebd fc4f a4bd
000002e0: 77de 893d f6ce 11bb 5414 81bc 6490 a8bc
000002f0: 86d8 e03d 5144 b3bc caa6 993b 0a5e c43d
00000300: 3cc0 34bd 308f e8bd 5b28 be3d 2176 2a3d
00000310: 9aad d63c a74e 0ebd e84b d4bd b389 bf3c
00000320: 72d7 b1bd d288 c73c 4ff3 efbd 7dba e4bd
00000330: 101b e2bc af0f b3bd d74e 973d 1554 8e3d
00000340: f4f5 673d ee0f b7bd d3c0 d5bc 78ba 2dbd
00000350: e52f 9d3d dea3 bebb 1003 81bd 2435 e1bc
00000360: 9004 16bd be4b b2bd 1fb4 bbbd ba94 b73d
00000370: 7d52 f2bc 4e46 cb3d ba28 80bd 6030 4abc
00000380: 466a e1bd ec72 293d e775 aebd 1de5 bbbd
00000390: 5904 2ebd 8423 aa3c 760d a63b 2740 363d
000003a0: 7588 9cbd 22f4 cebd a181 36bd 880d 153c
000003b0: 4128 5fbd e331 d4bc edd2 ceba ee5f 7f3d
000003c0: c5ab e63d 38c0 853d 2561 d13d 9fa0 2b3d
000003d0: f25f d0bc 4645 b6bc 0105 163b edce bc3d
000003e0: d272 e6bd f7c2 ccbd 47a1 ca3c f3b0 b13d
000003f0: c508 253c 2ef9 1cbd e38d 043b c3e7 a7bd
0.04279493 -0.0058318186 0.005725302 0.020406319 -0.012359009 -0.080935456 0.05044374 -0.103967756
0.085664265 -0.05874099 0.038293954 -0.021721339 -0.08059103 0.07904434 -0.09711099 -0.07938219
-0.046160396 -0.06988358 -0.113913685 -0.010979753 -0.05392391 0.08905303 -0.07400742 0.02520567
-0.1033636 0.022874326 0.040753555 0.05320176 0.08895068 -0.0002735655 0.022096872 -0.11010181
0.048393782 -0.053436145 0.043037575 0.04914603 -0.053056214 -0.04607121 -0.048653584 0.10355509
0.10307527 0.02024114 0.10889211 0.036627263 0.10054135 -0.107448705 -0.0641539 -0.033688486
0.042879816 -0.08374144 -0.001691121 -0.06524579 0.0679729 -0.0876111 -0.037524536 -0.031172272
-0.07978894 -0.055865325 -0.10908112 -0.0030429827 -0.11756169 0.08424689 0.040645305 -0.11984293
-0.024113357 0.022541774 0.05708588 0.094294764 -0.11667927 -0.11871906 -0.09279754 -0.01662279
0.062374424 -0.108884946 0.0886501 -0.07634548 -0.095764786 0.08220209 0.1190451 -0.012138841
0.10559385 -0.05990174 0.015708739 -0.119559675 -0.070809774 -0.02204224 0.004313051 -0.09688357
-0.08525823 -0.10842839 -0.028939359 0.068548106 -0.01058347 0.04887629 0.051028002 0.104390025
0.11866803 0.102429174 -0.046421703 -0.115910515 -0.017028112 0.07839334 -0.10046176 0.050772965
-0.12003156 0.04452304 -0.044566218 -0.11760977 0.058017254 0.10399605 -0.114376605 0.028801287
-0.11405439 -0.06753183 -0.0080967 0.089543775 0.0767426 0.005189143 -0.045701306 0.043755163
-0.06286309 -0.018502757 -0.08150367 0.10137341 -0.09067655 -0.08989425 -0.029931318 0.07790636
0.090019844 -0.047535833 -0.06515557 -0.030174226 0.11817139 0.06304541 0.04794311 0.004425188
-0.0636811 -0.022505682 -0.03205562 0.04015116 -0.0643511 -0.09116488 0.08849902 0.062110294
0.036079112 -0.07348743 -0.101618096 -0.035025194 0.08178863 0.097001664 -0.01557444 0.11393804
0.0045590964 -0.005968624 0.07220146 0.05001647 -0.06390379 -0.080424 0.119081855 -0.08730925
-0.120821066 0.017635988 0.048646886 0.08367349 0.11614405 0.024258025 -0.046937022 -0.12010355
-0.012806909 -0.06812245 0.099096745 0.09613587 0.03955344 -0.07925984 0.016507825 -0.11684421
0.0609333 0.015249771 0.05067965 -0.022008657 -0.05317769 -0.07515038 -0.038733598 -0.08023068
0.06731885 -0.0022248602 -0.015756764 -0.020576663 0.109787986 -0.021883162 0.0046890723 0.09588249
-0.04412864 -0.11355436 0.09285041 0.041616563 0.026205827 -0.034742977 -0.103660405 0.02338109
-0.08683671 0.024357233 -0.11716329 -0.11168382 -0.027600795 -0.08743226 0.073880844 0.06949631
0.056631044 -0.08938585 -0.026092922 -0.04241416 0.07675151 -0.0058178743 -0.06299412 -0.02749116
-0.036625445 -0.08705853 -0.09165215 0.08963914 -0.02958035 0.09925519 -0.06257768 -0.012340635
-0.11006598 0.041369364 -0.08518582 -0.09174559 -0.042484615 0.020768888 0.0050675226 0.044494774
-0.076432146 -0.101051584 -0.044557218 0.009097464 -0.05448175 -0.025902694 -0.0015779414 0.062347345
0.11263231 0.065308034 0.10223607 0.041901227 -0.025436375 -0.022249829 0.0022891166 0.092191555
-0.11252369 -0.09998124 0.024735106 0.086763285 0.010072892 -0.038323574 0.0020226173 -0.08198502

fc.bias f4 [128]
00000000: 2613 70bc 6a65 bc3d 4bb0 f1bd d39d db3b
00000010: f91d 913d 2713 9b3d 6231 0ebd ea1a 923d
00000020: 490b 94bd 1a6b d13d 71ab bb3d 1d08 a1bd
00000030: cdfc a13d 4288 9fbd 08e0 983c 9b7c 453d
00000040: e810 f83d a1db 90bd 2ad6 923c eb71 2cbd
00000050: 9bd6 12bc 1f93 62bd 51bb 3ebd e3e2 f13d
00000060: 9692 e13d 0887 553b 3e03 3ebd d2f6 b1bd
00000070: 2173 e63d 9516 503d eac0 4dbd ad3d be3c
00000080: e94a 18bd 4390 9bbc bb56 dd3d 8511 653d
00000090: f944 a23d b8e2 74bd 3d31 3dbd e71d 9fbd
000000a0: 8270 e2bc ccb3 073c 020c 4b3d 9a51 08bc
000000b0: 19a0 8f3d f512 f0bd f023 b63d 7775 363d
000000c0: 992e d53d fdbf 9ebd e68f 7a3c 8b44 db3d
000000d0: 5465 743c 8783 c6bd f465 03bc 1ed8 c4bd
000000e0: afa1 c7bc ab08 893d ebad 8bbd 15ea f2bd
000000f0: 8833 9fba 7771 72bd 121c c03d 6395 873d
00000100: f5c5 99bc d762 b5bd 0293 90bc 768c dc3d
00000110: 725c e8bd 0901 dc3d 223f 9cbd 48f8 9bbd
00000120: bfe8 df3d e5e2 6fbb e26c f8bd c438 8c3c
00000130: 1fe6 123c 3a89 b9bd 7217 e4bd 9d7a 99bc
00000140: 5fa2 933d 0350 4a3d a1a2 e73c 1d7b f63c
00000150: ffff 0f3c 895d 973b 08c3 f6bd a2cc bc3d
00000160: 588e 10bb efad d3bd 9415 e03c 09fc 0f3d
00000170: a8a5 13bc c2ef ea3c 9035 ab3d cd4d a63d
00000180: 8633 a03c 4076 96bc 6c56 803d 46af b6bd
00000190: 7002 0c3d 3800 71bc 230d 18bc 2f55 13bd
000001a0: b80c 6fbc e778 9bbc 0222 823d 48d8 83bd
000001b0: aabe b23d aae0 893d fd0c eb3d d379 343c
000001c0: 8bb8 aabd 476b 493d 6255 6fbd 6f85 f7bd
000001d0: 76bb 893c 3adc 8f3d ba33 d5bd 4bc2 84bd
000001e0: 8407 ccbd 42f9 c03d 7983 aebd dba7 c13d
000001f0: ac6a d53c 9be4 e43d 140c ecbd 368f adbd
-0.014653003 0.09199031 -0.11801203 0.0067021637 0.07085795 0.075720124 -0.034715064 0.0713404
-0.07228715 0.10225506 0.09163559 -0.078628756 0.07909546 -0.07789661 0.018661514 0.048214536
0.121125996 -0.07073141 0.017924387 -0.04210083 -0.008962299 -0.055316087 -0.046565358 0.11810853
0.11014287 0.0032581706 -0.04638981 -0.08689655 0.11252428 0.050802786 -0.050232805 0.023222769
-0.037180815 -0.018989688 0.10807558 0.05592491 0.07923312 -0.05978653 -0.046189535 -0.07769375
-0.027641539 0.008282613 0.049572 -0.008320237 0.07012958 -0.11722366 0.08893573 0.044545617
0.104092784 -0.077514626 0.015293097 0.10706433 0.014916737 -0.096930556 -0.008019913 -0.096115336
-0.024369089 0.066911064 -0.068202816 -0.11861054 -0.0012146095 -0.05919024 0.09380354 0.0662029
-0.018771151 -0.08856743 -0.017648224 0.10768978 -0.113457575 0.10742385 -0.07629229 -0.07615715
0.10933065 -0.0036603746 -0.12130143 0.017116912 0.008965998 -0.09059377 -0.11137284 -0.018735224
0.07208704 0.04939271 0.02827579 0.030088002 0.008789062 0.0046193046 -0.12048918 0.09218718
-0.00220575 -0.103359096 0.02735404 0.03515247 -0.0090116635 0.028678779 0.083598256 0.08120308
0.019555818 -0.018366933 0.06266484 -0.089201495 0.034182012 -0.014709525 -0.009280476 -0.03596991
-0.014590435 -0.01897855 0.06354143 -0.06437737 0.087277725 0.067323044 0.11477087 0.011015373
-0.0833598 0.049174573 -0.058431037 -0.12085997 0.016813021 0.07024427 -0.10410257 -0.06482371
-0.09962371 0.09422542 -0.0852117 0.09455844 0.026051842 0.111764155 -0.11525741 -0.08474581

actor.weight f4 [4, 128]
00000000: 892f ce3c 2f8b 883c 203d 803c 60f5 873d
00000010: 2691 47bd 0f62 103c 5d68 a0bd efd5 5a3c
00000020: f689 b13b dfdd 7abd fa6e 013b fca8 ad3a
00000030: adef 903d 6cdc 563d 4270 b13d 69f2 1c3d
00000040: 9a8e 8f3d b6ca 4abd 9dee cd3c e9e2 a0bc
00000050: 3a34 6d3d 6279 0d3d e7af 953d a3f7 8e3d
00000060: 19c6 9ebd 5483 113d 398d 643d 75cf 57bc
00000070: ef06 853a 0091 a8bd fa76 133b 368b 62bd
00000080: 1152 863d ee80 ec3c e46e 71bd 4b94 a9bd
00000090: 10a8 a63d 880d ac3d 02a8 8cbd 27a7 59bd
000000a0: dd64 a33d 779a 93bc c2f0 09bd b3bf 103c
000000b0: 7380 96bd 8023 9fbd cb81 9d3d 6889 353d
000000c0: 798b 80bd 5d52 acbc d3d3 16bd 9fc7 afbc
000000d0: bd50 a2bd 31ff 963d 07d3 5f3d e741 743c
000000e0: 8f03 6d3c 0350 a63d 3c6a 953c fb38 3bbd
000000f0: 3d01 b4bc c58f 953b f2fe 90bd a6c9 60bd
00000100: f7da 703d 65ce 3fbd 021c a03d 66e2 1abd
00000110: 1127 223c 82a3 f6bc c458 dc3c b7ac b03d
00000120: 9985 45bd 022e a9bd 9012 813c 17ac aabd
00000130: 46b1 4abd f9d4 34bd 2121 76b8 b9d9 b539
00000140: 19fd 8abd ed86 7fbd c9fe 35bd 6aca a13d
00000150: 87ca 0d3d db8a 483b db48 ecbb e20c 70bd
00000160: 3995 2cbc 41b8 0f3d 2317 833c fe0b 2bbb
00000170: aebb 253d 7940 a7bd 2dc9 5fbd 7ba8 a93d
00000180: c05e a6bd 9d20 533d 7e5e 693c 6581 73bb
00000190: f4b9 c33c edf1 843d fba4 9fbd 321b 79bd
000001a0: 7945 aa3d 28ac 873d a091 143d cd56 7bbd
000001b0: bb40 8bbd 2ceb 86bd 28bf 99bc 22e1 99bb
000001c0: b66b a1bd 9bb5 96bd fdb2 a73d 0a64 15bd
000001d0: d11e a7bd 85c9 9e3d 5ea5 d8bc 7bd2 33bd
000001e0: f612 9cbd 3a42 fb3c 5043 66bc c5aa b03d
000001f0: e76a b3bd e872 36bd 3695 833c 56c4 42bd
00000200: 6c56 aebd c78b 9fbd 3685 acbc 0d35 e73b
00000210: 89df 5f3c c6d7 5abd 1db0 263d 4054 a93d
00000220: f8e9 213d 785a b13d b2fb 36bb c289 553b
00000230: 6ea4 3b3d 6473 423d 7322 07bc d7cf fc3c
00000240: 2ca4 8d3c 5ecd c7bc 55bd 53bc 5088 5f3c
00000250: 9507 443d 21f8 69bd 55a1 e9bc 1169 a33d
00000260: 5da3 fdbc 2578 b1bd 80b0 00bd cfb4 5b3d
00000270: 37ec 333d dcd0 e13c 6897 8fbd f8fe 673d
00000280: efa2 4dbd 398b 40bd 1951 1f3d 5e02 0fbc
00000290: 99a1 7bbd 9b8c a93d f67f 863d 962e b63c
000002a0: f94f cabb a647 7b3c d7bc 90bd c4c4 59bd
000002b0: ab79 a2bd 3327 673c 2c33 51bd 2d82 47bc
000002c0: af2d 49bd 94b7 aabc 0744 a13d f504 3e3c
000002d0: 6dcc 9e3d e822 62bd 0dc3 873d 0fd2 493d
000002e0: c012 febb 77e7 733d e37a 543d 90fe 973d
000002f0: 091c c13c ed7d a03d a4e2 393d d6b1 e0bc
00000300: 2af7 f13c b249 c5bb d435 9e3c cc12 843c
00000310: 5de8 a53d 65c0 3f3d 6a00 34bc 2458 a3bc
00000320: fb6b b33d cd18 823d 2378 6e3d e366 e93c
00000330: 1a37 27bd cf70 26bd 680f 1fbd e00a 91bd
00000340: 4f65 373d 4a8a 8e3c 4c33 833d 9592 e03c
00000350: d7af babc 4163 683c c75e aebd e907 48bc
00000360: 00ba e43b a3d3 983c 3508 9f3d 9092 59bd
00000370: e03b a7bd cbc3 2b3d a56f 34bd 75fe 333d
00000380: e8c2 a9bd a4b9 85bc a057 44bd 3d78 193d
00000390: c45b b6bb ab4d 963d 2234 f93c f0a1 3538
000003a0: cebf 203d b8a3 b3bc bb02 113d 6e48 5f3c
000003b0: fc43 b03d f01c abbd 86b6 ecba f0c4 a23b
000003c0: 7116 7cbd b484 103d 48bd eabb 9034 9ebd
000003d0: c344 8ebc 6e82 1abc f823 76bb 73aa 77bd
000003e0: 92a1 37bd 8fcd 11bc 41db 5a3d 5d7c 26bc
000003f0: 9fab 96bd c820 b2bc 28d9 5abd 3895 13bd
0.02516915 0.01666793 0.015654147 0.066385984 -0.04872241 0.0088124415 -0.07832406 0.01335667
0.0054180576 -0.06124675 0.0019749985 0.0013249214 0.070769645 0.052456304 0.086639896 0.038317118
0.07009621 -0.049509726 0.025138194 -0.01963945 0.057911135 0.034539588 0.07308941 0.06980827
-0.07752628 0.035525635 0.055798743 -0.01317202 0.0010149161 -0.082307816 0.0022501335 -0.055308543
0.06558622 0.028870072 -0.058943644 -0.08280238 0.08137524 0.084010184 -0.068679824 -0.053137925
0.079782225 -0.01801799 -0.03367687 0.008834767 -0.073487185 -0.07770443 0.07690772 0.044320494
-0.06276602 -0.021035368 -0.036823105 -0.021457491 -0.07925556 0.07372893 0.05464461 0.0149082905
0.0144661805 0.0812073 0.018239133 -0.045708638 -0.021973247 0.004564258 -0.07079877 -0.054879807
0.05880257 -0.046827693 0.07817842 -0.037813567 0.0098970095 -0.030107263 0.026897795 0.08626693
-0.04822311 -0.082607284 0.015755922 -0.08333605 -0.049485467 -0.04414842 -5.8681824e-05 0.00034685226
-0.06786556 -0.062384535 -0.044432435 0.078999355 0.034616973 0.0030600342 -0.0072108335 -0.058606036
-0.010533624 0.035087828 0.016002243 -0.0026099677 0.04046219 -0.08166594 -0.054635216 0.08284088
-0.08123541 0.051544774 0.01424372 -0.0037155983 0.02389238 0.06491456 -0.077951394 -0.06081695
0.08314032 0.06624633 0.03627169 -0.061362077 -0.06799456 -0.06587824 -0.018767908 -0.0046960274
-0.07881872 -0.07358857 0.08188436 -0.036472358 -0.08160175 0.077532806 -0.02644604 -0.0439019
-0.07620804 0.030671228 -0.0140541345 0.08626322 -0.087606244 -0.044543177 0.01606236 -0.04755052
-0.085125774 -0.07790332 -0.021059614 0.0070558847 0.013664135 -0.053428434 0.0406953 0.082680225
0.03952977 0.08659834 -0.0027921018 0.003258333 0.04581111 0.047473326 -0.008247959 0.030860825
0.017290197 -0.024389919 -0.012923558 0.013643339 0.047858793 -0.0571214 -0.028519312 0.07979024
-0.030961687 -0.08665494 -0.031418324 0.05363923 0.043926444 0.027565412 -0.070113 0.05663964
-0.050204214 -0.047007773 0.0388957 -0.008728592 -0.06143341 0.082787715 0.06567375 0.02223901
-0.0061740843 0.015336907 -0.07067268 -0.053166166 -0.079333626 0.014108467 -0.051074192 -0.012177032
-0.049115833 -0.02083949 0.07874303 0.011597862 0.07753835 -0.05520907 0.06629 0.049272593
-0.0077537 0.059546914 0.051875006 0.07421601 0.023572939 0.078365184 0.045382157 -0.027428549
0.029536802 -0.006020748 0.019312777 0.016122244 0.081009604 0.04681434 -0.010986427 -0.01993949
0.0876083 0.063523866 0.05822004 0.028491443 -0.040824033 -0.040634926 -0.038833052 -0.07082152
0.04477435 0.017399926 0.064062685 0.027413646 -0.022788925 0.01418382 -0.08514171 -0.012208917
0.0069801807 0.018655604 0.07765237 -0.05311829 -0.08165717 0.04193477 -0.044051785 0.04394384
-0.082891285 -0.016323872 -0.04793513 0.037468184 -0.0055651385 0.07339033 0.030420367 4.330458e-05
0.03924542 -0.021928653 0.035402995 0.013628108 0.08606717 -0.08355129 -0.0018059767 0.0049673244
-0.06154484 0.035282806 -0.0071636774 -0.07724869 -0.017366773 -0.009430511 -0.003755806 -0.060465287
-0.04483182 -0.008899107 0.053431753 -0.010161486 -0.07356953 -0.021744147 -0.053429753 -0.036030978

actor.bias f4 [4]
00000000: 8677 ebbc cf8b a6bd 4cac 403d 7b1c 693d
-0.028743517 -0.08132135 0.047039315 0.056911927

critic.weight f4 [1, 128]
00000000: 4bbd 973d c739 233d 3e29 c8bc 18d2 c9bc
00000010: eb00 04bd c2e5 8e3d 9e8f 9fbd 4931 803d
00000020: bdf5 b03d 68f6 9a3d 9032 7c3c 8a37 2fbd
00000030: 2d0c 713d c497 d4bc 93f3 1ebd caa0 95bd
00000040: 5fb1 aa3d d071 183b 0939 4b3d c2a2 1ebd
00000050: 6b87 10bc 0f4a 5c3d 7e05 9a3d 44d1 803d
00000060: afe8 39bd 0918 b0bd 3e83 733d 078e febc
00000070: 6158 b03d e5fd 58bd 6dcb 9d3d d615 b63c
00000080: 84e6 223d 311e 98bd 60ae 01bb 5b11 e1bc
00000090: b980 bd3c 949b a33d d700 533d 8494 6b3c
000000a0: 2ce0 e13c b85a 553d 70b5 033d e6f0 96bd
000000b0: b0b9 c73b e598 483d 788b 22bd 6fa8 fbbc
000000c0: 0497 a83d 8b3c 8fbd bcc4 adbd 0c53 c23c
000000d0: 9f92 46bd 43b3 ef3c 15df 9abd f533 9e3b
000000e0: de31 09bb 3df0 b93b 35ce 49bc e11c acbd
000000f0: c31b 993d 726e ac3d 856e 45bc 8319 94bd
00000100: f4a9 9fbc cbc0 b1bd d6fd 12bd 87f3 543d
00000110: ece0 e6bc fdb4 1a3d 2a94 a73d d31b 57bc
00000120: b8f1 ea3c 198a 18bd abcb 313d a919 573d
00000130: 8e12 0abd c1f0 b03d 65f6 9aba 91b1 a4bc
00000140: 998b b2bd 6dee dcbb 4363 e2bc b3ac 513d
00000150: de4a acbd b45f 57bd e067 aa3d 7436 cd39
00000160: 267f 7cbd fca3 acbd f6be 5a3d ebfc 983d
00000170: 7341 0b3d 3124 4fbc f385 823d 3ede 06bd
00000180: 634c 31bc e49b 923d dc33 2b3c 9dd1 e1bc
00000190: fc21 f33c 61f1 b1bd 3254 d7bc 8012 a13d
000001a0: 2dad 2d3d a7b8 5a3d e949 a33d 6b82 6b3d
000001b0: 7e2e b13d 2950 aa3d 531d 92bd 6b9f a73d
000001c0: fcfb 363d 40f4 48bd 0063 56bd 053d 95bd
000001d0: e312 b0bd 65b2 0e3d 570e 90bd dd96 abbd
000001e0: e84f 0c3d 19a3 763d 8f0f 82bc 423e 593d
000001f0: 0d99 68bd 4154 423d 5b8b 173d bcdf bbbc
0.07409152 0.039850023 -0.024433728 -0.024636313 -0.032227438 0.069774166 -0.07791065 0.062594004
0.08640621 0.075665295 0.015392914 -0.042777576 0.058849502 -0.025951274 -0.03880651 -0.07306059
0.08334612 0.0023261197 0.04961494 -0.038729437 -0.008821349 0.053781565 0.07520579 0.06289914
-0.04538792 -0.08598334 0.059451334 -0.031073583 0.08610607 -0.052976508 0.07704816 0.022227209
0.039770618 -0.074276336 -0.0019787773 -0.027474096 0.023132669 0.079886585 0.051514473 0.014378671
0.027572714 0.05208847 0.032155454 -0.073701665 0.0060951337 0.048973937 -0.03968379 -0.030719964
0.08231929 -0.069939695 -0.0848479 0.02372124 -0.048479673 0.029260283 -0.07562081 0.004827971
-0.0020934264 0.0056743906 -0.01231723 -0.08403946 0.07475998 0.08419503 -0.012050276 -0.072314285
-0.01949022 -0.086793505 -0.035886608 0.05199006 -0.028183423 0.03777026 0.08182557 -0.013129192
0.028679714 -0.037241075 0.043407124 0.052514706 -0.0337091 0.0863967 -0.0011822699 -0.020104202
-0.087180324 -0.0067422898 -0.027635222 0.05119009 -0.08412717 -0.052581504 0.08320594 0.00039141218
-0.061644696 -0.08429715 0.05340477 0.07470115 0.033997964 -0.012642906 0.06373205 -0.03292679
-0.010821435 0.0715864 0.010449376 -0.027565772 0.029679291 -0.086886175 -0.026285265 0.07864857
0.04240148 0.053398754 0.079730816 0.057497423 0.08651446 0.083160706 -0.071344994 0.081847034
0.044673905 -0.04906106 -0.052340508 -0.07287029 -0.08597352 0.0348381 -0.07033985 -0.08378384
0.034255892 0.060214136 -0.01587656 0.05303789 -0.056786586 0.047443632 0.036998134 -0.022933833
