models/hybrid/handcrafted/MPL/agent1.pth (torch, 40590 bytes, 5 tensors)

fc.weight f4 [128, 68]
0	0x3c91d951	0.01780382
1	0x3beacee4	0.0071657766
2	0xbc726ec3	-0.014796915
3	0x3c755fed	0.014976484
4	0x3ba29a44	0.0049622376
5	0xbdf2d1f5	-0.118564524
6	0x3c844b11	0.016149076
7	0xbb9084de	-0.0044103703
8	0xbddb3a0c	-0.10704431
9	0x3dd6d94a	0.10490663
10	0xbda028ef	-0.078203075
11	0xbdc0b275	-0.09409038
12	0xbcb5690e	-0.02214482
13	0xbd6a45ec	-0.05719559
14	0x3c7cb30b	0.015423547
15	0x3d73c791	0.059516493
16	0xbdbc68c0	-0.09199667
17	0xbc52fd69	-0.0128778005
18	0xba26bc54	-0.00063604605
19	0x3c97ecdc	0.01854556
20	0xbda84d34	-0.0821785
21	0x3c74f4ad	0.014950913
22	0x3d82b9c3	0.063830875
23	0xbd8bc3fa	-0.06824489
24	0x3dd8dcce	0.1058899
25	0x3ddfe3c5	0.109321155
26	0xbc7444e6	-0.014909005
27	0x3cab2cda	0.02089541
28	0xbdc58165	-0.09643821
29	0xbca3d9a3	-0.020001238
30	0x3d875d8e	0.06609641
31	0x3af20a8c	0.0018466278
32	0xbdb19f4d	-0.08672962
33	0x3db9a62c	0.09064898
34	0xbdd5dfd9	-0.10443086
35	0xbdbe4f52	-0.09292473
36	0x3d746428	0.05966583
37	0xbce4e893	-0.027942931
38	0xbbf6ceb7	-0.0075319665
39	0x3c1b8d2a	0.009494105
40	0x3cd06d4e	0.025442746
41	0x3db6e225	0.089298524
42	0xbdcb0860	-0.09913707
43	0x3d921149	0.07132203
44	0xbd83543a	-0.06412549
45	0xbd4088b6	-0.047005378
46	0xbdac8d57	-0.08425396
47	0x3ced5866	0.028972816
48	0xbcbaefcb	-0.02281942
49	0x3cd47a31	0.025937172
50	0xbb51689e	-0.0031953226
51	0x3de6ce41	0.112698086
52	0xbc8d5157	-0.0172507
53	0x3d2822ef	0.04104894
54	0xbd332ed6	-0.043745838
55	0xbd5f5368	-0.0545229
56	0xbde137a5	-0.109969415
57	0xbdad01ec	-0.08447632
58	0xbd048146	-0.032349847
59	0x3ddb99c7	0.1072269
60	0xbde31109	-0.110872336
61	0x3d6792a6	0.05653634
62	0xbd2ed4b8	-0.042683333
63	0x3de8b912	0.11363424
64	0xbd606c30	-0.054790676
65	0x3da6face	0.08153306
66	0x3d6e684d	0.058204938
67	0x3ab34a69	0.0013678792
68	0x3dd4f367	0.10397988
69	0x3b8f8ff1	0.004381173
70	0x3d58b685	0.05290844
71	0x3dcb55dd	0.099284865
72	0x3c0ed06d	0.008716685
73	0x3c119a45	0.008886878
74	0xbcc77053	-0.024345553
75	0xbdcfae93	-0.10140719
76	0xbdc19fcf	-0.09454309
77	0xbcdca12e	-0.026932325
78	0xbd34e3cc	-0.044162557
79	0x3ba0e89d	0.004910542
80	0x3db2c941	0.087297924
81	0x3d21eb2c	0.039530918
82	0xbd39e075	-0.045380075
83	0xbdbbe853	-0.09175172
84	0xbdab183a	-0.0835423
85	0x3c72a550	0.014809921
86	0x3a223bcd	0.00061887206
87	0x3d43d3b8	0.047809333
88	0x3c6aea58	0.0143380985
89	0xbcff4d8f	-0.031164913
90	0xbd795c41	-0.060878996
91	0x3db5c023	0.08874538
92	0x3dbe2648	0.09284645
93	0x3d651e77	0.055937257
94	0x3d86e22f	0.0658611
95	0xbd8b94f6	-0.068155214
96	0xbc987ad6	-0.01861326
97	0x3d0b9398	0.034076303
98	0xbda1f447	-0.0790792
99	0x3dbfa413	0.093574665
100	0x3d5f3b3e	0.054499857
101	0x3db90e6d	0.090359546
102	0x3df3d374	0.11905566
103	0xbda3ed66	-0.080042645
104	0xbd85fcdf	-0.06542372
105	0x3d95c1b3	0.07312336
106	0xbd575565	-0.052571673
107	0x3dcc3071	0.09970177
108	0x3d8fc769	0.07020456
109	0x3d4cd12c	0.05000417
110	0x3d4477bc	0.04796575
111	0x3d89af55	0.06722895
112	0x3da9b67b	0.082867585
113	0x3d816bda	0.06319399
114	0xbd0385ef	-0.03211015
115	0xbde76da4	-0.11300209
116	0xbd797b67	-0.0609087
117	0x3c427c71	0.011870489
118	0x3d50e168	0.050996214
119	0x3dc56943	0.09639218
120	0xbd23b42b	-0.039966743
121	0x3dc44137	0.09582751
122	0x3de4df64	0.11175421
123	0xbdeef3be	-0.11667584
124	0x3cfdf877	0.031002266
125	0xbd982005	-0.07427982
126	0x3def654c	0.11689243
127	0xbd6a9cdb	-0.057278495
128	0x3db292f5	0.08719436
129	0xbd8712e5	-0.06595401
130	0x3d78ca7a	0.06073997
131	0x3d946480	0.07245731
132	0xbddc5c66	-0.10759811
133	0x3dc879bc	0.09788844
134	0xbd87bfe8	-0.066284
135	0xbd5124e0	-0.051060557
136	0xbd8dcffa	-0.06924434
137	0xbdf610f4	-0.12014952
138	0xbdc28497	-0.09497946
139	0x3df372dc	0.11887142
140	0xbdbcab05	-0.09212307
141	0x3d1905f2	0.037359186
142	0xbd7ca6a8	-0.061682373
143	0xbda96a72	-0.08272256
144	0xbd4cdd2d	-0.050015617
145	0xbca2fcbd	-0.019895906
146	0xbc06849a	-0.008210326
147	0x3d9e86c6	0.0774055
148	0xbcddd705	-0.027080068
149	0xbd4e4cdc	-0.050366268
150	0x3b2fa1fb	0.0026799429
151	0x3d71be4c	0.059019372
152	0x3d032639	0.032018874
153	0xbde5b9ca	-0.11217077
154	0x3cda2e87	0.026633514
155	0x3dc6d11a	0.09707852
156	0xbcda012d	-0.026611889
157	0xbd01d16a	-0.031693853
158	0xbd166bb7	-0.03672382
159	0xbb3f7dd2	-0.0029219282
160	0xbdc2c957	-0.09511059
161	0xbd1fb475	-0.038990457
162	0xbdb8a596	-0.09015958
163	0xbdbbadaa	-0.09163983
164	0xbd951279	-0.07278914
165	0xbdb7316f	-0.089449756
166	0xbd9d381c	-0.07676718
167	0xbdacc134	-0.08435288
168	0xbdc4ca22	-0.09608866
169	0x3d99a399	0.07501907
170	0x3d2f73e3	0.042835128
171	0x3d9a56fe	0.07536124
172	0x3cce0d68	0.025152877
173	0xbc31feaa	-0.010863939
174	0x3cd6574a	0.02616467
175	0xbd6ea1b1	-0.05825967
176	0xbda254f4	-0.0792636
177	0x3defe008	0.117126524
178	0x3da4f91f	0.080553286
179	0xbd3bde58	-0.04586634
180	0xbd58e81b	-0.052955728
181	0xbd4bb1fe	-0.049730293
182	0x3c7d657d	0.015466091
183	0x3c98c623	0.018649166
184	0xbd3bba84	-0.045832172
185	0xbde7fd8e	-0.113276586
186	0x3dd5928c	0.10428342
187	0x3da7ef40	0.0819993
188	0xbd7e0317	-0.062014665
189	0x3d9d2691	0.076733716
190	0xbd3f828f	-0.04675537
191	0x3d0792e1	0.03309906
192	0xbdce25d7	-0.10065811
193	0x3d3dd865	0.046348948
194	0x3da8ad75	0.08236209
195	0xbdee63c3	-0.11640122
196	0x3ca2fba5	0.019895384
197	0x3d4c50b7	0.049881663
198	0xbbb2607c	-0.0054436307
199	0x3dbff0da	0.09372111
200	0xbc2e0c19	-0.0106230015
201	0xbd2d0f13	-0.042250704
202	0x3b2e1303	0.0026561625
203	0x3d94c21e	0.072635874
204	0xbb687c8b	-0.0035474624
205	0xbd57dd8b	-0.052701514
206	0xbd31c5de	-0.04340159
207	0xbdc89aca	-0.09795149
208	0x3d9b266c	0.07575688
209	0xbdf68e17	-0.1203882
210	0x3c24fb27	0.010069645
211	0x3ca5db1b	0.02024608
212	0x3dc98e07	0.09841543
213	0xbd0e0fe6	-0.03468313
214	0xbd946619	-0.07246036
215	0x3d4af096	0.049545847
216	0x3ce303df	0.027711807
217	0xbd8ec4d0	-0.06971133
218	0xbd810ecd	-0.06301651
219	0xbdd90709	-0.10597045
220	0xbd105cc6	-0.035244726
221	0xbcee20e7	-0.029068423
222	0xbd7b66ef	-0.061377462
223	0x3d2ea53e	0.042638056
224	0xbd221c2e	-0.039577655
225	0x3d136e59	0.035993908
226	0x3dd1f712	0.10252203
227	0xbdcb3ea1	-0.09924055
228	0xbde60f0a	-0.11233337
229	0x3d83f71d	0.064436175
230	0x3dd6d8db	0.10490581
231	0x3d86ca51	0.065815575
232	0x3d9deacb	0.07710799
233	0xbd7a8b6d	-0.061168123
234	0xbced77bc	-0.028987758
235	0x3d2949c0	0.0413301
236	0xbd9cae2f	-0.076504104
237	0x3d4894f6	0.048970185
238	0x3d1e8374	0.038699582
239	0xbda23f9b	-0.07922288
240	0x3b96fb34	0.0046075825
241	0x3b872577	0.004124339
242	0xbd9cf0e8	-0.07663137
243	0x3d36610c	0.044526145
244	0xbdf6c6a0	-0.120496035
245	0xbd85901c	-0.06521627
246	0x3cf1e0dc	0.029526167
247	0xbd7bfe7d	-0.061521996
248	0xbdc8f7a0	-0.09812856
249	0xbdb70350	-0.08936179
250	0xbd90e9a6	-0.07075815
251	0xbd55387e	-0.05205583
252	0xbdd3d5b5	-0.10343496
253	0xbd7b3113	-0.061326098
254	0xbda13e04	-0.07873157
255	0x3cc6d8f4	0.024273373

fc.bias f4 [128]
0	0xbdccef6b	-0.10006603
1	0xbdbfee4f	-0.09371626
2	0xbdbb3833	-0.091415785
3	0x3d9912cb	0.074742876
4	0x3d53047a	0.05151794
5	0xbd238b24	-0.039927617
6	0x3dbab279	0.09116072
7	0xbcd80c64	-0.026373096
8	0x3c1c57d7	0.009542427
9	0xbcdd5eab	-0.02702268
10	0xbd8649ce	-0.06557046
11	0x3da59c44	0.08086446
12	0xbd6266e6	-0.055273913
13	0xbd91d941	-0.07121516
14	0x3dc01037	0.09378093
15	0x3d115a0a	0.03548626
16	0x3d7b70f9	0.061387036
17	0x3ded70d0	0.11593783
18	0xbc7afd1d	-0.015319136
19	0xbd43692a	-0.047707714
20	0xbd3a6078	-0.045502156
21	0xbbed10cb	-0.007234668
22	0x3c289471	0.010289297
23	0x3d0d6901	0.034523968
24	0x3d809b5d	0.06279633
25	0xbd407b1f	-0.046992417
26	0x3da4ede6	0.08053188
27	0xbde86c82	-0.11348821
28	0x3dd5073b	0.1040177
29	0xbdcf3e15	-0.10119263
30	0x3dcfedf7	0.1015281
31	0x3cde71e5	0.027153919
32	0x3d1b4db4	0.0379159
33	0xbd180345	-0.037112493
34	0x3cc3c9e2	0.023899976
35	0xbcfd73ec	-0.030939065
36	0x3d428f72	0.04750008
37	0xbcee404d	-0.029083395
38	0xbc1169c7	-0.008875317
39	0x3db72d62	0.08944203
40	0x3db5b286	0.08871941
41	0xbde2c4ce	-0.11072694
42	0x3ce04ad6	0.027379435
43	0x3ce95606	0.028483402
44	0x3d3d37ac	0.04619567
45	0x3cc68187	0.024231685
46	0x3d7320d5	0.059357483
47	0x3c140980	0.009035468
48	0xbda58609	-0.08082206
49	0x3dc7b08f	0.09750473
50	0x3db3bbd4	0.0877606
51	0xbd39d329	-0.045367394
52	0xbc3b844a	-0.011445114
53	0x3df74d76	0.120753214
54	0xbd1445c5	-0.03619935
55	0xbd990fe5	-0.07473735
56	0xbd7e8d6c	-0.06214659
57	0xbd91288f	-0.07087814
58	0x3d972d49	0.07381684
59	0x3d139009	0.036026035
60	0x3da5dcf3	0.08098783
61	0x3d9d0ff4	0.076690584
62	0xbd3bc1a3	-0.045838963
63	0x3d7ee3ce	0.06222897
64	0xbdc5fc01	-0.096672066
65	0x39d636d2	0.00040858105
66	0xbdf2e509	-0.11860091
67	0x3d876fd8	0.066131294
68	0xbd995c0a	-0.07488258
69	0xbcd91569	-0.026499467
70	0xbd7b4259	-0.06134257
71	0x3df358f7	0.11882203
72	0x3cef0a9c	0.029179864
73	0x3df18990	0.11793816
74	0xbd235dba	-0.039884306
75	0x3aff799e	0.0019491201
76	0xbd33e42a	-0.043918766
77	0xbda06e07	-0.07833486
78	0xbcfa839c	-0.030580334
79	0xbb476f87	-0.0030431466
80	0x3dcb7ec7	0.0993629
81	0xbd9c9dc5	-0.0764728
82	0x3c9bf3aa	0.019037087
83	0x3da2130e	0.07913791
84	0x3d81f1df	0.063449614
85	0xbb7ee567	-0.0038894059
86	0xbde467fd	-0.11152647
87	0x3daa5d61	0.08318592
88	0xbdc580d8	-0.096437156
89	0x3bb35c2f	0.0054736356
90	0x3dd7c9cf	0.10536539
91	0xbdc4bb2f	-0.09606015
92	0xbdf80106	-0.1210957
93	0x3bdf2983	0.0068103685
94	0xbc9e8caa	-0.019354183
95	0xbc323ae4	-0.010878298
96	0x3ade9a8f	0.0016983318
97	0x3d8976d4	0.06712118
98	0xbd58fa57	-0.052973118
99	0xbde09424	-0.109657556
100	0x3d68969a	0.05678425
101	0xbd1b1328	-0.037860066
102	0xbc94e827	-0.018177105
103	0xbba260f3	-0.004955405
104	0x3d9e3020	0.07724023
105	0x3dcce0b7	0.100037985
106	0x3d6bcfef	0.057571348
107	0xbd68c8be	-0.056832068
108	0x3cf68b85	0.030095825
109	0x3b6abd72	0.0035818485
110	0x3d3db7f8	0.046318024
111	0x3c453fb3	0.012039113
112	0x3c6388d3	0.013887602
113	0x3ce2c349	0.02768101
114	0xbdf69d23	-0.1204169
115	0x3df5f8d8	0.12010354
116	0x3d839184	0.06424239
117	0xbdc2bd48	-0.09508759
118	0xbda35f74	-0.079771906
119	0x3d46ca66	0.048532866
120	0x3c0a2a81	0.008432985
121	0xbc3d9396	-0.011570832
122	0xbd12d0d8	-0.0358437
123	0x3cd25002	0.025672916
124	0xbd755029	-0.0598909
125	0xbdabc7c8	-0.083877146
126	0xbd3d7327	-0.046252396
127	0x3d5018bd	0.050804842

actor.weight f4 [4, 128]
0	0xbdb367bb	-0.087600194
1	0x3d2e5291	0.04255921
2	0xbdafe1a4	-0.085879594
3	0xbd9a4c3d	-0.075340725
4	0x3cbffa56	0.0234348
5	0xbdac2bb4	-0.08406773
6	0xbc234bcb	-0.009966801
7	0xbbb4adba	-0.005513874
8	0x3bba8e81	0.0056932573
9	0xbd2b60ee	-0.041840486
10	0xbba45fb2	-0.0050162906
11	0x3b810b9b	0.003938151
12	0xbd792973	-0.060830545
13	0xbc2a98c7	-0.0104124015
14	0x3abeeaeb	0.0014565861
15	0x3cf4f9fa	0.029904354
16	0x3c31bc69	0.010848143
17	0xbd333fa9	-0.043761883
18	0xbda14fe8	-0.07876569
19	0xbc0fd658	-0.008779131
20	0xbd3c1a49	-0.045923505
21	0xbd5ab767	-0.053397562
22	0x3d083c3b	0.033260565
23	0x3b52c382	0.0032159989
24	0x3da810b7	0.08206313
25	0xbd8ad280	-0.06778431
26	0xbd786ea3	-0.060652386
27	0x3d3c11e8	0.045915514
28	0xbd864463	-0.065560125
29	0xbd5700dc	-0.052491054
30	0xbc11d431	-0.008900688
31	0xbc9c4a65	-0.019078443
32	0x3c9678c9	0.018368142
33	0xbd036e64	-0.0320877
34	0x3d8c1d32	0.06841506
35	0x3d951103	0.07278635
36	0x3c8237d5	0.015895763
37	0x3d2feb1b	0.042948823
38	0xbc88c5dc	-0.01669591
39	0x3cf117f0	0.02943036
40	0x3d3263b9	0.043552134
41	0xbd8a45e4	-0.06751612
42	0x3d1f455e	0.038884513
43	0xbc940e36	-0.018073183
44	0x3b552f3f	0.0032529382
45	0xbcd56f5d	-0.026054079
46	0xbc95fc6d	-0.018308843
47	0x3a8a7ebb	0.0010566333
48	0x3bdcdcc3	0.006740184
49	0x3d89f141	0.06735469
50	0x3d04dbc2	0.03243614
51	0x3d4d09cb	0.050058167
52	0x3d534ee3	0.051588904
53	0x3c2dd92c	0.01061086
54	0xbc94fa66	-0.018185806
55	0xbc92f9ef	-0.017941443
56	0x3d6604b5	0.056156833
57	0xbd19a22e	-0.037508182
58	0x3b4d7abb	0.003135367
59	0x3cb1d858	0.021709606
60	0xbdafbf04	-0.08581355
61	0x3da55bf0	0.08074176
62	0xbdac21f8	-0.084049165
63	0x3d4af568	0.049550444
64	0x3d122992	0.035684176
65	0xbd7dd662	-0.06197203
66	0xbd2f4e48	-0.042799264
67	0x3d9eab20	0.07747483
68	0xbc7b8b08	-0.015352972
69	0x3db327ff	0.08747863
70	0xbd320155	-0.0434583
71	0x3d8150a0	0.06314206
72	0xbd2b8935	-0.041878898
73	0x3c96ed87	0.018423809
74	0xbd519c0d	-0.051174212
75	0xbdb389af	-0.087664954
76	0x3d6979e6	0.057001017
77	0xbd53ccdd	-0.051709045
78	0x3d02e5b3	0.03195734
79	0x3db0f483	0.08640387
80	0xbda63627	-0.081157975
81	0xbc976fe1	-0.018485965
82	0x3d9e15b4	0.07718983
83	0xbc5d0869	-0.013490775
84	0xbd98d9cb	-0.07463416
85	0x3d262aa5	0.040568013
86	0x3d8677d9	0.06565828
87	0x3d41c37d	0.047305573
88	0x3d93acc4	0.07210687
89	0x3dab1854	0.083542496
90	0x3d91b005	0.07113651
91	0xbd8613e8	-0.065467656
92	0xbd2fb76f	-0.042899545
93	0x3cad0882	0.02112222
94	0x3d8e3229	0.06943161
95	0x3d41186e	0.04714244
96	0xbd801564	-0.0625408
97	0xbdac01f4	-0.0839881
98	0xbd9ad45c	-0.075600356
99	0x3d99df2a	0.07513268
100	0x3c6ffe07	0.014647967
101	0xbd2e940d	-0.04262166
102	0xbc9ce76e	-0.019153323
103	0xbd99790c	-0.07493791
104	0xbd2ff7cd	-0.04296093
105	0x3c3c5737	0.011495403
106	0xbda630ad	-0.08114753
107	0x3d6235e5	0.05522718
108	0xbda4167e	-0.080121025
109	0x3d100d5a	0.035168983
110	0x3bf5f977	0.007506545
111	0x3c8ef2e5	0.017449806
112	0x3d69129d	0.056902517
113	0x3cf0362f	0.029322712
114	0x3c7633be	0.015026985
115	0xbd1b01c1	-0.03784347
116	0x3c959505	0.018259535
117	0xbd34553f	-0.04402661
118	0x3d5c2ebd	0.05375551
119	0xbda47d45	-0.08031706
120	0xbc78dd4e	-0.015189482
121	0x3d038db1	0.03211755
122	0xbc1b1e08	-0.009467609
123	0xbdab5548	-0.083658755
124	0xbdaa6eda	-0.083219245
125	0x3cbe5852	0.023235474
126	0xbd9765e0	-0.07392478
127	0x3d77075f	0.060309764
128	0xbb9bc5be	-0.0047537973
129	0xbcd25d38	-0.025679216
130	0xbd811c48	-0.06304222
131	0x3bed6c83	0.0072456016
132	0xbd23fd79	-0.040036652
133	0x3bf73a9b	0.007544828
134	0xbdaf4d38	-0.0855965
135	0x3cde4691	0.027133258
136	0x3d3a219c	0.04544221
137	0xbcfafd72	-0.03063843
138	0x3d88b00d	0.06674204
139	0x3bab0edd	0.0052202777
140	0x3d9d2749	0.07673509
141	0xbc876ce4	-0.016531415
142	0xbd9bc9aa	-0.07606824
143	0xbd6c0039	-0.0576174
144	0x3d207b64	0.039180174
145	0x3d5a303e	0.053268664
146	0xbd654b18	-0.055979818
147	0x3d408de8	0.047010332
148	0x3d91c76c	0.07118115
149	0x3c825179	0.01590799
150	0xbc1aa55b	-0.009438838
151	0x3da367e8	0.07978803
152	0x3b73eade	0.003721885
153	0xbd8b9e7f	-0.0681734
154	0xbd95b004	-0.07308963
155	0x3c41afee	0.01182173
156	0x3bd714bb	0.0065637506
157	0x3c72b478	0.014813535
158	0x3d855bd5	0.06511656
159	0x3c476cf4	0.012171973
160	0xbd88a939	-0.06672902
161	0x3d1d5a4c	0.038416192
162	0xbcf22dc0	-0.02956283
163	0xbd9b07af	-0.07569825
164	0xbca6bd22	-0.020353857
165	0x3bb5ccec	0.00554811
166	0x3c3047bf	0.010759293
167	0x3d779fa1	0.06045497
168	0x3bee50bd	0.0072728083
169	0x3d181ade	0.037134998
170	0xbd85e9e0	-0.06538749
171	0xbda55561	-0.08072925
172	0xbb7cf150	-0.0038595982
173	0xbc729bc9	-0.01480765
174	0x3d9b4283	0.075810455
175	0x3ca2114e	0.019783642
176	0x3cd8526c	0.02640649
177	0xbd4f33c8	-0.05058649
178	0x3da661a3	0.081240915
179	0xbd826ef8	-0.06368822
180	0x3d367c7c	0.04455231
181	0xbd5727dc	-0.052528247
182	0x3d62a6ed	0.055334974
183	0xbc7213db	-0.014775242
184	0xbd82bc21	-0.06383539
185	0x3d954cc7	0.07290035
186	0xbc408b1a	-0.011751914
187	0x3cceaf72	0.025230143
188	0x3bdadb79	0.006678995
189	0x3d0dca3e	0.0346167
190	0x3c3ae584	0.01140726
191	0x3da7f361	0.08200718
192	0x3b60a9c3	0.0034280873
193	0x3d90a34b	0.07062396
194	0xbdb34b20	-0.08754563
195	0x39ac5822	0.0003287206
196	0xbd3bba57	-0.045832004
197	0x3c9486c8	0.018130675
198	0x3cf83258	0.030297443
199	0xbd885125	-0.06656102
200	0xbd8da393	-0.06915965
201	0x3d90e1c4	0.070743114
202	0x3d8f03cd	0.06983147
203	0xbdac7705	-0.08421139
204	0x3d7ef419	0.06224451
205	0x3d216464	0.03940238
206	0xb90eaf69	-0.0001360752
207	0xbd4ed1fb	-0.05049322
208	0x3dad23e6	0.08454113
209	0xbcf25e7b	-0.029586067
210	0x3cd8da7b	0.026471367
211	0xbd23a015	-0.039947588
212	0xbc7c3617	-0.015393755
213	0x3d8c012a	0.068361595
214	0xbd899785	-0.06718353
215	0x3b6e15c8	0.00363289
216	0x3d1e179b	0.03859673
217	0xbdb2aab5	-0.08723966
218	0xbcf44617	-0.029818578
219	0x3c65ef49	0.014034101
220	0xbcb578d3	-0.02215234
221	0x3d2336cc	0.03984718
222	0x3d66f191	0.05638272
223	0x3b5ad2cb	0.0033389803
224	0xbdb30e6c	-0.08742985
225	0xbd612670	-0.054968297
226	0xbca08752	-0.019595776
227	0xbdb1c9fc	-0.086811036
228	0xb84d3b74	-4.893118e-05
229	0xbc425ef7	-0.011863462
230	0x3cc1aaf7	0.023641093
231	0xbd88d274	-0.06680766
232	0x3a22f13d	0.0006215757
233	0xbd802d47	-0.06258636
234	0xbcff666a	-0.031176765
235	0xbd1d72cd	-0.03843956
236	0x3c8b5b5a	0.017011333
237	0x3c9da0af	0.019241659
238	0xbd0de4a0	-0.034641862
239	0xbd29931f	-0.04140007
240	0xbcd260f8	-0.025681004
241	0x3d8a0d5a	0.06740828
242	0x3d5dcf2c	0.054152653
243	0xbdb4c2aa	-0.08826192
244	0x3b86a7ec	0.0041093733
245	0x3d870dc5	0.06594423
246	0x3da2e53f	0.079538815
247	0x3cd21dba	0.02564894
248	0x3d7f0a7c	0.062265858
249	0xbd64f19f	-0.05589449
250	0xbd0e4ebf	-0.034743067
251	0xbbcfebfa	-0.0063452693
252	0xbd5d6f35	-0.054061133
253	0x3d2fb97e	0.04290151
254	0x3d9856ae	0.07438408
255	0x3c27fff8	0.010253899

actor.bias f4 [4]
0	0x3da08544	0.078379184
1	0x3d316d8c	0.043317363
2	0xbcb10c73	-0.021612382
3	0x3d82f2f7	0.06393998

critic.weight f4 [1, 128]
0	0x3d034097	0.03204402
1	0x3d964579	0.073374696
2	0x3c72fb77	0.014830462
3	0xbd7ebede	-0.062193744
4	0xbd364d19	-0.04450712
5	0x3d0ef18f	0.034898337
6	0x3c68023a	0.014160687
7	0xbc9bbcd9	-0.019010948
8	0xbb97b0b9	-0.0046292213
9	0xbd5c1ba2	-0.05373729
10	0x3cda3bf1	0.02663991
11	0xbcb885db	-0.022524765
12	0x3cf6ddf3	0.03013513
13	0x3db47697	0.08811682
14	0xbda9bd19	-0.08288021
15	0x3d017307	0.03160384
16	0xbd5d9bee	-0.054103784
17	0xbcbab173	-0.022789693
18	0xbd876dac	-0.06612715
19	0x3daf0281	0.085453995
20	0xbd853d1d	-0.06505797
21	0x3d334594	0.043767527
22	0xbd755f8d	-0.059905577
23	0xbbabd43a	-0.0052438052
24	0x3d7a16b9	0.061056826
25	0x3d20dabe	0.03927111
26	0xbb85ef52	-0.004087367
27	0x3d87ffb4	0.066405684
28	0xbb8690f5	-0.0041066357
29	0x3d995139	0.07486195
30	0xbd7cfd51	-0.06176502
31	0xbd1d14e6	-0.03835001
32	0xbcbaa99f	-0.02278596
33	0x3d879076	0.066193506
34	0xbd9e6f42	-0.077360645
35	0xbbb1d2eb	-0.0054267547
36	0x3c3dcda3	0.011584672
37	0xb998a5b2	-0.00029115152
38	0x3d662d6c	0.05619566
39	0x3d470942	0.048592813
40	0x3d6f823b	0.058473807
41	0x3d416b6c	0.047221586
42	0x3aa89299	0.0012861072
43	0xbc3007ee	-0.010744078
44	0x3d985213	0.074375294
45	0x3d2d3058	0.042282432
46	0xbcc24b77	-0.023717625
47	0xbd23b163	-0.03996409
48	0xbc93e5e1	-0.01805395
49	0x3d339740	0.043845415
50	0x3da65cb3	0.0812315
51	0x3cb9b421	0.0226689
52	0xbda5efc6	-0.08102374
53	0xbda3d25d	-0.07999108
54	0x3d3dca40	0.04633546
55	0xbda7f0c2	-0.08200218
56	0xbd3a75da	-0.04552255
57	0x3d8e3fce	0.069457635
58	0xbda9c8ea	-0.082902744
59	0xbd55d831	-0.05220813
60	0xbd678a51	-0.056528393
61	0x3b63e63b	0.003477468
62	0x3cefec72	0.02928755
63	0xbc9f67c4	-0.019458659
64	0xbd8f5269	-0.0699814
65	0xbd8c7d62	-0.068598524
66	0x3d7c3779	0.06157634
67	0x3c95151a	0.018198539
68	0x3cbe862b	0.023257336
69	0x3c13da6f	0.009024247
70	0x3c92fd87	0.017943157
71	0x3908122b	0.00012976739
72	0x3d6b563f	0.057455298
73	0x3d6962f4	0.056979135
74	0x3d4ab607	0.04949
75	0x3d64eab7	0.055887904
76	0xbd80423e	-0.06262635
77	0x3c8dc0c4	0.017303832
78	0xbcdb5322	-0.02677304
79	0xbd0fe770	-0.035132825
80	0x3bea65a7	0.007153231
81	0x3d4ef39b	0.05052529
82	0xbd8cee81	-0.068814285
83	0xbd53a366	-0.0516695
84	0xbda27fef	-0.07934558
85	0x3d1010c2	0.03517223
86	0x3d7a8770	0.06116432
87	0x3d190dc6	0.03736665
88	0xbd5bf157	-0.053696956
89	0xbda08051	-0.078369744
90	0xbba6af6e	-0.005086831
91	0xbd913ad3	-0.07091298
92	0xbbb10936	-0.0054027094
93	0x3c87144a	0.016489167
94	0xbcc826cf	-0.024432568
95	0xbca12b5b	-0.019673994
96	0xbc15639d	-0.009117988
97	0xbcfc5147	-0.030800475
98	0xbc9f6dd6	-0.019461554
99	0x3cb470a0	0.02202636
100	0x3d172778	0.036902875
101	0x3d88e23f	0.06683778
102	0x3c67ceef	0.014148458
103	0xbc3a7aab	-0.011381785
104	0x3d87e6d2	0.06635822
105	0x3da8963d	0.08231781
106	0xbd9686c6	-0.07349925
107	0x3d5a16cf	0.05324441
108	0x3c00a825	0.007852589
109	0x3d1d790d	0.03844552
110	0xbbc2e0ec	-0.005947223
111	0x3d9e6de2	0.07735802
112	0x3cc6607f	0.024215935
113	0x3d87fa38	0.06639522
114	0xbd87ef73	-0.06637468
115	0x3d79dafc	0.060999855
116	0x3d88677a	0.066603616
117	0x3d51aa58	0.051187843
118	0x3dace0eb	0.08441337
119	0x3d4c7d33	0.049924087
120	0x3d888ff8	0.06668085
121	0x3cb45183	0.022011524
122	0xbd99e88a	-0.075150564
123	0x3d565674	0.052328542
124	0x3d148c2c	0.03626649
125	0xbdb20a27	-0.08693343
126	0x3d5f8468	0.05456963
127	0x3db2fd9e	0.0873978
