models/hybrid/handcrafted/MPL/agent2.pth (torch, 40590 bytes, 5 tensors)

fc.weight f4 [128, 68]
0	0xbcf528cd	-0.029926682
1	0xbc112a3f	-0.00886017
2	0x3d339666	0.043844603
3	0xbdf368d2	-0.11885227
4	0x3de7e0e2	0.1132219
5	0x3d9793f9	0.074012704
6	0xbc7ad494	-0.015309472
7	0xbdebbaca	-0.115102366
8	0xbd989d88	-0.07451922
9	0xbd867e8c	-0.06567106
10	0x3d5ae7a1	0.053443555
11	0x3deb8443	0.11499836
12	0xbcfd076a	-0.030887324
13	0x3dd2cbe7	0.102927975
14	0x3dbeb28c	0.09311399
15	0x3ceb0db2	0.028693054
16	0xbd67e501	-0.05661488
17	0x3cc6e1bf	0.024277566
18	0x3ded35dd	0.11582539
19	0x3daf0143	0.085451625
20	0x3d09ae6e	0.033613615
21	0x3c41cbd0	0.011828378
22	0xbde6cfc3	-0.11270096
23	0x3dbcc095	0.092164196
24	0x3d8d25d4	0.06891981
25	0xbc71833e	-0.014740763
26	0xbd2841f3	-0.04107852
27	0x3cd23161	0.025658311
28	0xbc5b4398	-0.013382815
29	0xbd1c5822	-0.038169987
30	0xbdcef64d	-0.10105572
31	0x3d1af46e	0.037830763
32	0x3c50f4dc	0.0127536915
33	0x3c483841	0.012220443
34	0x3ca0ae84	0.019614466
35	0xbdb5abc4	-0.08870652
36	0xbd99c1af	-0.07507645
37	0x3dbf9ce3	0.09356096
38	0xbdead95e	-0.11467241
39	0xbdc61fbb	-0.09674021
40	0x3d2e77b6	0.042594634
41	0xbd99b3d3	-0.07505002
42	0xbd8839f0	-0.06651676
43	0xbce597b8	-0.028026447
44	0x3d811f66	0.06304817
45	0xbddbf2f1	-0.10739697
46	0x3c4abc90	0.012374058
47	0xbd9a3eab	-0.07531484
48	0xbdaf0cdd	-0.08547375
49	0x3d80d0d1	0.062898286
50	0x3d8410e0	0.06448531
51	0xbacd5b0d	-0.0015667394
52	0x3dcbd2b4	0.09952298
53	0xbd9850c1	-0.074372776
54	0x3dda716a	0.10666163
55	0xbd34d136	-0.04414483
56	0xbd9badbe	-0.07601498
57	0xbd72a77b	-0.059241753
58	0x3da6230c	0.081121534
59	0xbd4927d8	-0.049110264
60	0x3d467150	0.048447907
61	0x3c81df73	0.01585362
62	0xbd0f2a5c	-0.034952506
63	0xbdb22dad	-0.08700118
64	0xbb45b700	-0.003016889
65	0x3cd9a11a	0.026566077
66	0x3d6593cf	0.056049164
67	0xbd8d23f5	-0.06891624
68	0xbc8e628c	-0.017380975
69	0x3d66ea8a	0.056376018
70	0x3de2ff57	0.110838585
71	0x3d9fb04a	0.07797296
72	0x3b1c9459	0.0023892133
73	0x3d04a690	0.03238541
74	0x3d2bfc11	0.041988436
75	0x3d339499	0.043842886
76	0xbdda09bd	-0.10646389
77	0x3c0fe8bd	0.0087835165
78	0xbdb61183	-0.08890059
79	0xbd728c7c	-0.059216008
80	0xbd473c83	-0.048641693
81	0x3d1e67d6	0.038673244
82	0x3ca5cdfa	0.020239819
83	0x3dde00e9	0.10840017
84	0xbc32975c	-0.010900345
85	0xbc165d03	-0.009177449
86	0x3bdf818c	0.006820863
87	0x3d31753a	0.043324687
88	0x3d006d95	0.031354506
89	0xbd10666e	-0.035253935
90	0x3b2af648	0.0026086736
91	0x3da8234a	0.08209856
92	0x3c824bfc	0.015905373
93	0xbde5c1bf	-0.11218595
94	0xbdf748b3	-0.12074413
95	0xbcb66ca1	-0.022268595
96	0xbcdf443f	-0.027254222
97	0x3db0686c	0.08613667
98	0x3de06334	0.109564215
99	0x3d8ef827	0.06980925
100	0xbbe14ba6	-0.006875473
101	0x3c2c3c21	0.010512383
102	0x3df1fd1e	0.118158564
103	0x3dce395a	0.10069533
104	0xbd810169	-0.06299097
105	0xbc1eaefa	-0.009685272
106	0xbd776c97	-0.060406294
107	0xbc85d9ab	-0.016339144
108	0x3da93d9a	0.08263703
109	0x3dc0ddd2	0.09417309
110	0xbd9a134d	-0.075232126
111	0xbd03bf4b	-0.032164853
112	0xbc61b7cf	-0.013776734
113	0xbc88afeb	-0.016685447
114	0x3c873b33	0.01650772
115	0x3d503454	0.050831154
116	0x3bc9e180	0.006160915
117	0xbdc9a13c	-0.09845206
118	0x3db76e49	0.08956582
119	0xbc2dbd17	-0.010604165
120	0xbdbc21e0	-0.09186149
121	0xbdd232bc	-0.10263583
122	0x3dcc6770	0.09980667
123	0x3d9b8c38	0.07595104
124	0xbd0bff24	-0.034178868
125	0xbd18a576	-0.03726717
126	0xbdf84b84	-0.121237785
127	0xbd2d0185	-0.042237777
128	0xbd0b3ae6	-0.033991717
129	0xbd79b92d	-0.060967613
130	0xbd01639b	-0.03158913
131	0x3d9f7616	0.07786195
132	0x3d86e354	0.06586328
133	0x3d931aaa	0.0718282
134	0xbdc11dc7	-0.09429508
135	0xbde086c4	-0.109632045
136	0xbde0d6c1	-0.10978461
137	0x3d5b98c5	0.05361249
138	0xbca1f88d	-0.019771839
139	0xbdc29701	-0.09501458
140	0x3dddc25c	0.10828087
141	0x3de798c8	0.113084376
142	0xbda3003d	-0.0795903
143	0x3da5bf57	0.08093136
144	0xbd36c74e	-0.044623666
145	0x3d83958d	0.06425009
146	0xbdbf660e	-0.09345637
147	0x3d8f0bd3	0.06984677
148	0xbdde152d	-0.10843883
149	0x3dac25e0	0.084056616
150	0x3dce4c48	0.10073143
151	0xbd4de1f6	-0.05026432
152	0xbcfd4a3b	-0.030919185
153	0xbdb6f19f	-0.08932804
154	0x3da444c2	0.08020927
155	0x3b882a50	0.0041554347
156	0xbd5d89d1	-0.05408651
157	0xbb12aaf1	-0.002237972
158	0x3d4031c3	0.046922456
159	0x3d13f921	0.03612626
160	0x3dba6662	0.09101559
161	0xbcd5e8e0	-0.02611202
162	0x3da2351b	0.07920285
163	0xbdf1e081	-0.11810399
164	0xbd7166ce	-0.058935933
165	0xbd9dc0ea	-0.07702811
166	0x3dbf4f52	0.09341301
167	0x3df2fb38	0.118643224
168	0xbd178367	-0.03699055
169	0x3d8b2a67	0.06795197
170	0xbc978389	-0.018495338
171	0x3db30359	0.08740873
172	0x3a657147	0.00087525364
173	0xb99fe55c	-0.0003049773
174	0xbd9c50bf	-0.076325886
175	0xbd2225da	-0.03958688
176	0x3c36f2ac	0.011166256
177	0xbdbb92d7	-0.09158867
178	0x3c20be4a	0.009810993
179	0x3d88e3b1	0.06684054
180	0xbdc9a8b5	-0.098466314
181	0xbcf4df74	-0.029891707
182	0xbcbe43ea	-0.023225743
183	0x3d1d59cf	0.038415726
184	0xbc8a8c56	-0.01691262
185	0x3cc4239b	0.02394276
186	0xbdc7cab3	-0.09755459
187	0x3d6e3a67	0.058161166
188	0xbd9fc0ef	-0.07800471
189	0xbd46a366	-0.048495673
190	0x3de220eb	0.11041435
191	0x3dc7d7fe	0.09757994
192	0x3dacf2fa	0.084447816
193	0x3dc65738	0.096846044
194	0x3c49aa60	0.012308687
195	0xbd912158	-0.07086438
196	0xbd9fe055	-0.0780646
197	0xbd2ee52f	-0.042699035
198	0x3c998698	0.018740937
199	0x3d23da76	0.040003262
200	0xbd127829	-0.035759125
201	0x3d9f8614	0.07789245
202	0x3ccc4cce	0.024938967
203	0xbdd5f631	-0.10447348
204	0xbd39906a	-0.04530374
205	0xbdb66aa4	-0.08907059
206	0xbdf360ee	-0.11883722
207	0xbde00c22	-0.10939814
208	0x3d825e59	0.06365652
209	0x3de8fc3d	0.11376236
210	0x3dade8a8	0.08491641
211	0xbdd28a6f	-0.1028031
212	0x3c31f978	0.010862701
213	0xbdd74728	-0.10511619
214	0x3cb2e637	0.02183829
215	0xbbcd9af6	-0.0062745763
216	0xbd54b424	-0.051929608
217	0xbdc32fd9	-0.095306106
218	0xbdd10afa	-0.10207172
219	0x3c131aa1	0.008978517
220	0x3dd53250	0.10409987
221	0xbbbe3965	-0.005805182
222	0x3d9a3e07	0.07531362
223	0xbdb37e45	-0.087643184
224	0x3de22662	0.11042477
225	0x3d521f5b	0.051299434
226	0x3d07b742	0.033133753
227	0x3dee612c	0.11639628
228	0x3dceb7e0	0.10093665
229	0xbdb6a1d7	-0.08917587
230	0xbc46e6d6	-0.0121399965
231	0xbdb70c07	-0.08937841
232	0x3daebeac	0.085324615
233	0x3d7c7da4	0.061643258
234	0x3db5a050	0.08868468
235	0x3d805f56	0.06268184
236	0x3df4a3e8	0.11945325
237	0x3be4bf4c	0.006980812
238	0xbd1e8fe1	-0.038711432
239	0x3dbcbc78	0.09215635
240	0xbdadc7c7	-0.0848537
241	0x3d309d3b	0.043118697
242	0xbc1472f2	-0.009060608
243	0x3d43749c	0.04771863
244	0x3c60eafe	0.0137279015
245	0x3c81c0da	0.01583903
246	0xbdb6c35d	-0.08923981
247	0x3deb75aa	0.11497052
248	0x3ddb7052	0.10714783
249	0xbdf5ce20	-0.12002206
250	0x3c23f0ab	0.01000611
251	0x3b485da2	0.0030573388
252	0xbca00db6	-0.019537788
253	0x3df29ea9	0.11846668
254	0xbdeb0be6	-0.11476879
255	0xbdc21c2f	-0.09478032

fc.bias f4 [128]
0	0x3d8e5072	0.069489375
1	0xbd8c50e6	-0.06851368
2	0x3decc0b8	0.11560196
3	0xbd6eb5cb	-0.05827884
4	0x3c9e87dc	0.019351892
5	0xbcb68bc8	-0.02228345
6	0xbd2f2350	-0.042758286
7	0xbc5224a6	-0.0128261205
8	0xbd236571	-0.039891664
9	0xbde034f7	-0.10947602
10	0xbd01bc58	-0.03167376
11	0xbd217f0d	-0.039427806
12	0x3dcbf667	0.09959107
13	0xbbb6e690	-0.0055816844
14	0xbc9656b1	-0.018351885
15	0x3d02c68d	0.031927634
16	0xbd6f2e72	-0.058393903
17	0x3db96363	0.0905216
18	0xbd81a00d	-0.063293554
19	0xbdf78920	-0.120867014
20	0xbd0bc29f	-0.034121152
21	0xbce73509	-0.028223531
22	0xbdca78be	-0.09886311
23	0x3cc81d4a	0.024428029
24	0xbd20e30d	-0.039279032
25	0x3d4c796c	0.049920484
26	0x3d8a7d2a	0.067621544
27	0xbd30e516	-0.043187223
28	0xbcc67cb3	-0.024229383
29	0x3d624188	0.055238277
30	0x3dc676c1	0.09690619
31	0x3de08c37	0.10964244
32	0x3d04d7e0	0.032432437
33	0xbdd00629	-0.10157425
34	0xbdb4595e	-0.08806108
35	0x3dbef51f	0.09324097
36	0xbceb39a4	-0.028714009
37	0x3d0630e6	0.032761477
38	0x3cfd8812	0.030948672
39	0xbdf1e77f	-0.118117325
40	0x3df75818	0.120773494
41	0xbc0b3cdd	-0.008498398
42	0xbdb3b7e8	-0.08775312
43	0xbdcec104	-0.100954086
44	0xbddc815c	-0.10766861
45	0xbc857959	-0.016293215
46	0xbd395add	-0.04525267
47	0x3da2a5fc	0.07941815
48	0x3d054950	0.03254062
49	0x3ccd3c4b	0.025053164
50	0x3c31900c	0.010837566
51	0xbdf3bc42	-0.11901142
52	0x3cc43da6	0.023955178
53	0xbd1ecde2	-0.038770564
54	0x3c698bed	0.014254552
55	0xbdd37a38	-0.10326046
56	0xbd760490	-0.060062945
57	0xbd3876c9	-0.045035157
58	0x3d237d72	0.039914556
59	0x3c34fbd8	0.011046372
60	0x3db927a3	0.09040763
61	0xbd80bc8b	-0.06285962
62	0x3cf34158	0.029694244
63	0xbda18dc6	-0.07888369
64	0xbd4571ea	-0.04820434
65	0x3d80a9df	0.062824
66	0x3c634694	0.013871808
67	0x3c14b80a	0.009077081
68	0xbd80de2a	-0.062923744
69	0xbde56388	-0.11200625
70	0x3d96aec6	0.07357554
71	0xbd90689e	-0.07051204
72	0x3c383549	0.011243173
73	0x3d531221	0.05153096
74	0xbcdc579e	-0.026897248
75	0xbd134d4e	-0.035962395
76	0xbb056ed2	-0.0020360244
77	0x3d9441ee	0.072391376
78	0x3cab9c11	0.020948442
79	0x3db81d8b	0.0899001
80	0xbd84d1be	-0.06485318
81	0xbd34e14c	-0.044160172
82	0xbcb356ba	-0.02189194
83	0xbd242999	-0.040078733
84	0xbd9d0aa5	-0.07668046
85	0x3c832a25	0.016011307
86	0xbd0c9e8d	-0.034330893
87	0xbd9291b3	-0.07156696
88	0x3d277b0f	0.040888842
89	0xbd3c7e86	-0.0460191
90	0xbd7809ba	-0.06055615
91	0x3d8f9300	0.0701046
92	0x3df36801	0.118850715
93	0xbd82e7a0	-0.06391835
94	0x3da64776	0.08119099
95	0x3d90375c	0.07041809
96	0xbdaa2a8e	-0.08308898
97	0x3d90885d	0.07057259
98	0xbdb37674	-0.087628275
99	0xbd8489e9	-0.06471617
100	0xbdb71da1	-0.08941198
101	0xbcd59a71	-0.02607462
102	0x3d122198	0.03567657
103	0x3cc4948b	0.023996612
104	0xbceddc3f	-0.029035686
105	0x3ddb5cc2	0.107110515
106	0x3dedac3d	0.116051175
107	0x3d4d94f9	0.0501909
108	0xbcdcebc2	-0.026967887
109	0xbc829c74	-0.015943743
110	0xbc7784d7	-0.015107355
111	0xba7b3b99	-0.0009583771
112	0xbde64dc2	-0.112453
113	0xbd57e8ed	-0.05271237
114	0x3d85d127	0.06534033
115	0x3d31c2a1	0.043398503
116	0x3b2e4410	0.0026590861
117	0xbdf44c64	-0.11928633
118	0xbd6e30f7	-0.058152165
119	0x3dc612da	0.096715644
120	0x3d012362	0.031527884
121	0xbde9bc86	-0.11412911
122	0x3d36c04e	0.04461699
123	0xbd029561	-0.03188074
124	0xbd992278	-0.074772775
125	0x3d836ee9	0.06417639
126	0xbdbad482	-0.09122564
127	0xbd3a9526	-0.045552395

actor.weight f4 [4, 128]
0	0x3aea7951	0.0017888938
1	0xbbddb06c	-0.006765416
2	0xbc2b4618	-0.010453723
3	0x3d98d815	0.074630894
4	0x3d9a2046	0.07525687
5	0x3c4e9ff4	0.012611378
6	0x3bca7af0	0.006179206
7	0x3c478407	0.012177474
8	0x3bd52af6	0.0065053655
9	0x3cc0ce36	0.023535829
10	0x3d527c35	0.051387984
11	0x3cede30c	0.029038928
12	0x3d9c87d9	0.076430984
13	0xbca7584e	-0.02042785
14	0xbccfdd68	-0.02537413
15	0x3d26b94a	0.04070405
16	0xbd0d9736	-0.034568034
17	0xbba66dc2	-0.005079002
18	0xbd5e3c08	-0.05425647
19	0xbd77b8bd	-0.060478915
20	0xbd254c56	-0.040356003
21	0xbcff1a30	-0.031140417
22	0x3b26f36a	0.0025474676
23	0xbcb2fbbd	-0.021848554
24	0xbd5bbdc0	-0.053647757
25	0xbc344569	-0.011002877
26	0xbc810336	-0.015748601
27	0x3c65e4d2	0.014031606
28	0x3d94058c	0.072276205
29	0xbd04a9f3	-0.03238864
30	0xbcc9947e	-0.02460694
31	0xbd9dddeb	-0.07708343
32	0xbcc35667	-0.02384491
33	0x3d17b613	0.037038874
34	0x3c54ee8d	0.012996328
35	0xbdaa6e18	-0.0832178
36	0x3d83d49b	0.06437036
37	0xbd043123	-0.032273423
38	0x3d0cad08	0.034344703
39	0xbb591532	-0.0033124206
40	0x3c9d89c8	0.019230738
41	0xbaa65317	-0.0012689558
42	0xbd4f8c6d	-0.05067103
43	0x3dad7652	0.084698334
44	0xbd80f03f	-0.06295823
45	0x3ca36438	0.019945249
46	0xbd206152	-0.039155312
47	0x3d15b145	0.03654601
48	0xbd277b37	-0.04088899
49	0xbc8ef42e	-0.017450418
50	0x3d941795	0.072310604
51	0x3cf00edc	0.02930396
52	0xbd9ccaaa	-0.076558426
53	0x3daab56f	0.08335387
54	0xbda5295e	-0.08064531
55	0xbcd95baf	-0.026532976
56	0x3d124dad	0.03571861
57	0x3d901240	0.07034731
58	0xbb67f27e	-0.003539234
59	0xbd010693	-0.03150041
60	0x3cc79d60	0.024367034
61	0xbc87329f	-0.01650363
62	0x3cc82124	0.024429865
63	0xbd11ebcf	-0.035625275
64	0xbc4b97ba	-0.012426311
65	0x3cd5e9ba	0.026112426
66	0xbcab26c9	-0.020892518
67	0x3c8320a8	0.016006783
68	0xbda4c61b	-0.08045598
69	0xbd3cf223	-0.046129357
70	0xbd1234ee	-0.03569501
71	0xbdaa58dc	-0.0831773
72	0xbd291f84	-0.04128982
73	0x3d9d76dd	0.07688687
74	0x3da24228	0.079227746
75	0x3d42c1b9	0.04754803
76	0x3c39684f	0.011316373
77	0x3cbdaee7	0.023154689
78	0xbd0c5908	-0.034264594
79	0x3d1c52f2	0.03816504
80	0xbc8d179a	-0.017223168
81	0x3c8c4f07	0.017127527
82	0x3d59b0fa	0.053147294
83	0x3cdc1a18	0.026867911
84	0xbd255fdc	-0.04037462
85	0xbd3c72e2	-0.046008
86	0xbc8ea955	-0.017414728
87	0xbdafb768	-0.08579904
88	0x3d901ad1	0.07036365
89	0xbc4e61af	-0.012596532
90	0xbd4971f1	-0.04918093
91	0x3d9aab85	0.07552246
92	0xbd5f2ada	-0.054484226
93	0xbc85d35d	-0.016336137
94	0xbd210b72	-0.039317556
95	0x3d71b36f	0.05900901
96	0xbd519b5e	-0.05117356
97	0x3d98ae10	0.07455075
98	0x3da06085	0.0783091
99	0xbaed971f	-0.0018126703
100	0x3d8b4661	0.06800533
101	0xbd234b8a	-0.03986696
102	0xbcd0a3ed	-0.02546879
103	0xbd0cf1d4	-0.034410313
104	0x3cabfd07	0.020994676
105	0xbd948296	-0.0725147
106	0x3cde6b8b	0.02715089
107	0xbd0820cb	-0.0332344
108	0x3d969e46	0.07354407
109	0xbd81f2f0	-0.06345165
110	0x3d37797d	0.044793595
111	0xbd40d4ae	-0.047077827
112	0xbd73430a	-0.059390105
113	0xbd791064	-0.060806647
114	0x3cf61cce	0.030043032
115	0x3db0a24e	0.08624707
116	0x3d897150	0.06711066
117	0xbda30266	-0.07959442
118	0x3cb044bc	0.02151715
119	0xbc3079a6	-0.010771191
120	0x3cd13b93	0.025541103
121	0xbd9788c9	-0.073991366
122	0x3d1795fd	0.037008274
123	0xbc0548b5	-0.0081350105
124	0xbd815099	-0.06314201
125	0xbc714dfd	-0.0147280665
126	0x3d868bf3	0.06569662
127	0x3d9c8f3a	0.07644506
128	0x3dacdf5e	0.084410414
129	0xbda6a97b	-0.081377946
130	0xbc173cc6	-0.009230798
131	0xbdb2c7cd	-0.08729515
132	0x3d58b2b8	0.052904814
133	0xbdae2ed4	-0.085050255
134	0xbd902799	-0.07038803
135	0xbd6e11a9	-0.05812231
136	0x3d48920e	0.048967414
137	0xbda05428	-0.078285515
138	0xbcd78ff3	-0.026313758
139	0x3b96aa66	0.00459795
140	0xbd35a6c8	-0.044348508
141	0xbcf31588	-0.029673353
142	0xbd97aa9a	-0.074055865
143	0xbb9022fe	-0.0043987026
144	0x3c9c7463	0.019098466
145	0x3cbba1c3	0.022904282
146	0xbdb1b59e	-0.08677219
147	0xbd862ba4	-0.065512925
148	0x3cf23ee2	0.029571
149	0xbd38c66a	-0.045111097
150	0xbd7ee2d6	-0.062228046
151	0x3c0b50da	0.008503163
152	0xbd012b4d	-0.031535435
153	0xbd1dae69	-0.03849641
154	0x3daa471b	0.083143435
155	0x3b42bd73	0.0029714971
156	0x3d951fb4	0.072814375
157	0xbd9630de	-0.073335394
158	0x3ce7a67f	0.028277634
159	0x3ba02f11	0.0048884233
160	0x3d859cdd	0.0652406
161	0x3d79b855	0.06096681
162	0x3da1bd00	0.07897377
163	0xbdae3660	-0.08506465
164	0x3d78e453	0.060764622
165	0x3c5e2ac2	0.013559999
166	0x3c5747c8	0.013139673
167	0x3c9014d6	0.01758806
168	0x3d885829	0.0665744
169	0x3d90ad07	0.07064252
170	0x3d27909a	0.040909387
171	0xbd910478	-0.070809305
172	0xbd2b5f99	-0.041839216
173	0x3c554185	0.013016109
174	0xbd50b385	-0.050952453
175	0xbd317fab	-0.043334644
176	0xbd8e676e	-0.069533214
177	0x3bfb68c8	0.007672403
178	0xbc3d5219	-0.011555218
179	0x3d5a7d92	0.05334241
180	0xbc90c57b	-0.017672291
181	0xbd5d649c	-0.054051027
182	0xbd9f0089	-0.07763774
183	0x3dac7e75	0.08422557
184	0x3da900e0	0.0825212
185	0x3ce4aabc	0.027913444
186	0xba76acf4	-0.00094099273
187	0x3d29ed48	0.041486055
188	0xbd9e6295	-0.07733647
189	0x3c2e780c	0.010648739
190	0xbd9735a5	-0.07383279
191	0x3dae728d	0.085179426
192	0xbcf603c7	-0.030031098
193	0x3d532a1b	0.051553827
194	0x3c20c160	0.009811729
195	0xbdaf4b9a	-0.08559342
196	0xbd338199	-0.043824766
197	0xbd388fab	-0.045058887
198	0xbd4358fc	-0.047692284
199	0xbce29014	-0.027656592
200	0xbd9a2e59	-0.07528371
201	0x3ce7ce62	0.028296653
202	0x3d8d695c	0.06904861
203	0xbbb7a384	-0.0056042094
204	0xbcd86a5a	-0.0264179
205	0x3d9f1c6f	0.07769095
206	0xb9e3b1ec	-0.00043429376
207	0x3db06365	0.08612708
208	0x3d450dfe	0.048109047
209	0xbbea0027	-0.0071411314
210	0x3cde3fa4	0.027129956
211	0xbd2eddc7	-0.042691972
212	0xbd4d380b	-0.050102275
213	0x3c9bdd5f	0.019026456
214	0x3d34b62f	0.044119056
215	0xbdac8890	-0.08424485
216	0x3d9d88fe	0.07692145
217	0x3d4439cd	0.047906686
218	0xbd9172b5	-0.07101957
219	0x3c33522f	0.010944887
220	0xbd50502f	-0.05085772
221	0xbdb12d71	-0.086512454
222	0x3d487e66	0.048948668
223	0xbd7b40bc	-0.061341032
224	0x3d349f80	0.044097424
225	0x3d707997	0.058709707
226	0x3d35b974	0.044366315
227	0x3be1b877	0.006888445
228	0xbcb0ab8b	-0.021566173
229	0xbd7ef933	-0.062249374
230	0xbcfb4139	-0.030670749
231	0x3d6939b7	0.056939807
232	0x3ca4ef95	0.020133773
233	0xbbf2f2f2	-0.0074142152
234	0xbdae4720	-0.0850966
235	0x3c745027	0.014911688
236	0x3d139cfe	0.03603839
237	0xbcc70868	-0.024296
238	0x3c27155a	0.010197962
239	0xbd85c19d	-0.065310694
240	0xbd12892f	-0.03577536
241	0xba0483af	-0.0005055023
242	0x3ce9a57f	0.028521297
243	0xbc41ec10	-0.011836067
244	0xba7c6d1c	-0.00096292957
245	0xbac99f81	-0.0015382619
246	0xbc04676a	-0.008081296
247	0x3d956174	0.07293978
248	0x3d4c26db	0.049841743
249	0x3d1bc39d	0.03802835
250	0xbcb4a128	-0.022049502
251	0xbd000d06	-0.03126242
252	0x3d95b5f7	0.07310098
253	0x3d8e087d	0.06935213
254	0xbc89d5e7	-0.01682563
255	0x3d70e585	0.058812637

actor.bias f4 [4]
0	0xbdb2327a	-0.08701034
1	0x3cab9aad	0.020947779
2	0x3c554d8d	0.013018978
3	0x3ca62b09	0.020284193

critic.weight f4 [1, 128]
0	0x3caf8af9	0.021428572
1	0x3d19d41c	0.0375558
2	0x3ca56a62	0.020192329
3	0xbd2413bd	-0.040057886
4	0x3d146d30	0.03623694
5	0xbd7a5c57	-0.06112322
6	0xbdacf66b	-0.08445438
7	0x3c94b91d	0.018154675
8	0x3c938cec	0.018011533
9	0xbd8035d9	-0.062602706
10	0x3d4e316f	0.050340112
11	0x3d86ee11	0.06588376
12	0xbd87fb92	-0.0663978
13	0x3d8e1e5f	0.069393866
14	0x3ce614c1	0.028086068
15	0x3d1f9510	0.038960516
16	0xbd8311b5	-0.06399862
17	0x3d859bc6	0.06523852
18	0xbad6626e	-0.0016356239
19	0xbd069992	-0.0328613
20	0xbd0752c1	-0.033037905
21	0x3ceaca82	0.028661016
22	0x3d9bf34c	0.076147646
23	0x3c8bd209	0.017067926
24	0xbc3bd064	-0.011463258
25	0xbd20bbd6	-0.039241634
26	0xbdac37a3	-0.08409049
27	0xbc555fac	-0.013023298
28	0x3db4a819	0.088211246
29	0x3d96a604	0.07355884
30	0xbc3f77ab	-0.011686246
31	0x3da6b3f1	0.0813979
32	0xbdb06fc1	-0.08615065
33	0xbc98df8f	-0.018661289
34	0xbcecfd52	-0.028929386
35	0xbd27f70e	-0.041007094
36	0x3d8ec141	0.06970454
37	0x3cca26c2	0.024676684
38	0x3d8827ad	0.066481926
39	0xbd368b3e	-0.044566385
40	0x3d05c64d	0.032659817
41	0xbd7cdc39	-0.06173346
42	0x3c749c28	0.014929809
43	0xbd3db661	-0.04631651
44	0x3bdb10d7	0.006685357
45	0x3d34736c	0.044055387
46	0xbd914f70	-0.070952296
47	0xbd24c2b2	-0.04022474
48	0x3da7bb96	0.08190076
49	0xbca4b305	-0.020104894
50	0xbd349e0d	-0.04409604
51	0xbc2c9404	-0.010533337
52	0xbb8540e6	-0.0040665744
53	0x3d941184	0.07229903
54	0xbabe657c	-0.0014526094
55	0x3cedb565	0.02901716
56	0x3c7ea458	0.015542112
57	0xbd1922ed	-0.037386823
58	0x3d4ed5e7	0.050496962
59	0x3da3a131	0.07989729
60	0x3d8049b2	0.06264056
61	0xbc9e71d5	-0.019341389
62	0xbc913515	-0.017725507
63	0x3d4ecf03	0.05049039
64	0x3d892d11	0.06698049
65	0x3d99c848	0.07508904
66	0xbce383b8	-0.02777277
67	0xbc98a4b5	-0.018633226
68	0x3c3a08b7	0.011354617
69	0xbca14943	-0.019688254
70	0x3d2ce20f	0.042207774
71	0xbd241800	-0.04006195
72	0x3d8aaaa2	0.06770827
73	0x3da186ac	0.07887015
74	0xbd35b24e	-0.044359498
75	0xbd8b5246	-0.06802802
76	0xbd8f49f5	-0.06996528
77	0xbda8bf31	-0.08239592
78	0x3d7c6720	0.061621785
79	0x3d123ef5	0.03570457
80	0xbd97d5ea	-0.07413848
81	0x3cd51b00	0.026013851
82	0xbc356f77	-0.011073939
83	0x3c5da174	0.013527263
84	0x3c717be4	0.0147390105
85	0x3d246df9	0.04014394
86	0x3d9f6f76	0.07784931
87	0xbcd76128	-0.026291445
88	0xbd4192af	-0.04725903
89	0x3da86591	0.08222497
90	0x3ca0c877	0.01962684
91	0x3d06524a	0.03279332
92	0x3daeb5ea	0.08530791
93	0xbcad30d0	-0.02114144
94	0xbd829583	-0.06376173
95	0x3d2b5979	0.041833375
96	0xbc8269cf	-0.015919594
97	0x3d49fcd3	0.049313378
98	0xbd973fa3	-0.073851846
99	0xbd267088	-0.040634662
100	0xbd2f29b8	-0.042764395
101	0xbd447481	-0.04796267
102	0x3d29026a	0.041262068
103	0x3cfc39b1	0.030789228
104	0xbcf05aa0	-0.029340088
105	0xbc9609a1	-0.018315138
106	0xbd2d316e	-0.042283468
107	0xbda30c6a	-0.07961352
108	0x3db1abfe	0.08675383
109	0xbd9495d5	-0.07255141
110	0xbd58a201	-0.052888874
111	0x3d8d1086	0.06887917
112	0xbcb2eaa5	-0.021840403
113	0xbd691c2e	-0.05691164
114	0x3d9d7bb0	0.07689607
115	0x3d65ca40	0.056101084
116	0xbd0175c7	-0.03160646
117	0xbd7e8cbc	-0.062145934
118	0xbd91ce8c	-0.07119474
119	0x3bebe1be	0.0071985414
120	0xbd8678ba	-0.065659955
121	0xbd8cefa0	-0.06881642
122	0xbda0da64	-0.07854155
123	0xbc3c2f27	-0.011485851
124	0x3d4f5b78	0.05062434
125	0x3d857b0d	0.06517611
126	0x3db13260	0.086521864
127	0xbd6d3f3e	-0.05792164
