models/resilience/handcrafted/MPL/agent1.pth (torch, 40590 bytes, 5 tensors)

fc.weight f4 [128, 68]
0.09275015 -0.02419875 0.051023275 -0.09090797 0.09026497 0.055292033 -0.029109884 -0.11924985
0.045462966 0.043200087 0.053312045 -0.03165482 -0.10065511 -0.086827375 0.01080862 -0.009323052
-0.031769402 -0.10683327 0.09605642 0.11745393 -0.10800754 0.032680158 -0.027445666 0.05343726
-0.05251477 0.013658814 0.02657303 0.086966775 0.015343487 -0.026607841 -0.0025646063 -0.030435197
-0.119705595 0.002319133 -0.027210584 -0.1134535 -0.121087775 0.047644418 0.09316598 0.042249627
-0.100989 0.07620525 -0.10720388 0.079417646 -0.066386044 -0.06456189 0.055536993 0.120241
0.10838284 -0.0882309 0.090184145 0.052373488 0.05803123 -0.08648041 0.08632908 -0.018913371
-0.028463574 -0.03563866 0.07298566 -0.10412805 -0.10950462 0.014807363 -0.039108418 -0.101097755
0.07565921 -0.015091183 0.036510456 0.023041716 -0.018567776 -0.055155836 0.013445673 -0.0712589
-0.07089203 0.10412128 0.03053679 0.0886863 0.120763965 -0.038437143 0.06082101 0.11933601
0.072372556 0.009179733 -0.10727049 0.10225336 0.042921387 0.050018854 0.032623984 -0.08430179
-0.074590795 0.061268374 0.012142729 -0.030154696 -0.052115433 0.04067766 -0.091985546 0.062554434
-0.0062078605 -0.09603815 -0.057102636 0.07976343 -0.001850228 -0.028467502 0.08618603 -0.101344064
-0.11152313 -0.0020861246 -0.06769476 -0.11999221 0.06687053 -0.100488365 -0.037409764 0.014495628
-0.057552412 0.006353059 0.0845388 -0.043757934 -0.07589347 0.0018394855 -0.069063745 -0.09168161
0.105023146 0.04304143 0.040517397 -0.1123975 -0.005506082 0.05455767 -0.074521154 -0.040478237
-0.012577805 0.03522054 0.06776792 0.107598126 0.08198158 -0.1208867 -0.06961302 -0.03229542
-0.09100831 0.014800785 -0.0149903465 -0.023749394 -0.08419099 0.110382125 0.118367724 -0.06798634
-0.07452457 0.058567025 -0.055081576 -0.03971944 0.031675506 -0.08483708 0.048518687 -0.10441375
-0.018957477 -0.069634296 -0.06220443 -0.07836367 0.115098834 -0.032098178 -0.03721841 -0.02738671
0.074024595 0.05480094 -0.06440535 -0.018625187 0.0874811 -0.02154676 0.02417807 -0.07325749
-0.039365835 0.1045453 0.059988968 0.101400554 -0.04951851 -0.029772978 -0.09158826 0.07292882
0.00073813234 -0.1029028 -0.028048363 -0.09450922 0.07558395 -0.029794445 -0.063885175 -0.090584904
-0.09728131 -0.09361049 0.09358739 0.057001468 -0.02247477 -0.10627739 -0.07005786 0.07010441
0.017190056 0.013305532 -0.002826587 -0.037616912 0.063614145 -0.081535906 -0.07112481 0.0028737579
0.10883694 -0.049957126 -0.07262474 0.0066794087 -0.07196137 -0.041745085 0.09335483 -0.08794187
-0.06902618 -0.05261391 -0.0207081 -0.0074734474 0.04293412 -0.07548469 0.11344899 -0.004108495
-0.10907824 5.500603e-05 -0.08196319 -0.10133155 0.0713868 -0.068649605 0.045914076 -0.07171118
0.08123543 0.05008683 -0.079192474 0.0062940153 0.020856915 0.04539829 -0.057230167 -0.10512787
0.028598018 -0.013675608 -0.05602117 -0.012908783 -0.10881994 -0.009008621 -0.026882032 -0.11072299
0.02722534 0.11899994 -0.07245166 0.022809014 -0.08480286 -0.0071295006 0.10878186 0.042553198
-0.08117089 -0.062409233 -0.10416864 0.09622381 0.090920255 0.07899605 0.08299457 -0.09637776
00000000: caf3 bd3d 753c c6bc c8fd 503d f52d babd
00000010: d7dc b83d e679 623d da77 eebc 4439 f4bd
00000020: 6037 3a3d 93f2 303d bb5d 5a3d 7ca8 01bd
00000030: 4424 cebd 8dd2 b1bd a316 313c b7bf 18bc
00000040: a220 02bd 67cb dabd 3ab9 c43d b08b f03d
00000050: 0f33 ddbd a1db 053d bcd5 e0bc 07e1 5a3d
00000060: ba19 57bd 38c9 5f3c afaf d93c a31b b23d
00000070: 4063 7b3c b0f8 d9bc f412 28bb 3c53 f9bc
00000080: 3528 f5bd 98fc 173b bbe8 debc 4f5a e8bd
00000090: defc f7bd cb26 433d cecd be3d f20d 2d3d
000000a0: 52d3 cebd 8011 9c3d b58d dbbd b8a5 a23d
000000b0: 68f5 87bd 0639 84bd c27a 633d ea40 f63d
000000c0: d3f7 dd3d 67b2 b4bd 77b2 b83d 9585 563d
000000d0: 28b2 6d3d a41c b1bd 4dcd b03d 37f0 9abc
000000e0: 712c e9bc d8f9 11bd 8179 953d 1641 d5bd
000000f0: f543 e0bd 959a 723c 2630 20bd 570c cfbd
00000100: 37f3 9a3d 0241 77bc fd8b 153d fbc1 bc3c
00000110: 731b 98bc 16eb 61bd 3d4b 5c3c 30f0 91bd
00000120: d72f 91bd 8a3d d53d 4a28 fa3c 2aa1 b53d
00000130: 1953 f73d 4470 1dbd 741f 793d 7066 f43d
00000140: 1038 943d 9766 163c a1b0 dbbd 366a d13d
00000150: 56ce 2f3d 92e0 4c3d baa0 053d 6ba6 acbd
00000160: 0fc3 98bd 8cf4 7a3d 4cf2 463c fb06 f7bc
00000170: fe76 55bd 9e9d 263d eb62 bcbd 8a1c 803d
00000180: 4f6b cbbb a6af c4bd 74e4 69bd 025b a33d
00000190: 5a83 f2ba ae34 e9bc 4d82 b03d 7a8d cfbd
000001a0: 3d66 e4bd 5db7 08bb 8da3 8abd 7abe f5bd
000001b0: 6bf3 883d d8cc cdbd fb3a 19bd 127f 6d3c
000001c0: 14bc 6bbd 522d d03b ae22 ad3d 853b 33bd
000001d0: 096e 9bbd e41a f13a 4b71 8dbd 91c3 bbbd
000001e0: 6016 d73d 364c 303d 92f5 253d a930 e6bd
000001f0: 5d6c b4bb dd77 5f3d 8c9e 98bd 82cc 25bd
00000200: 2313 4ebc 6a43 103d e8c9 8a3d 685c dc3d
00000210: f5e5 a73d 7293 f7bd 4591 8ebd 3448 04bd
00000220: 9162 babd fe7e 723c 129a 75bc 178e c2bc
00000230: 536c acbd 0610 e23d c76a f23d 6c3c 8bbd
00000240: 56a0 98bd fae3 6f3d 389d 61bd dab0 22bd
00000250: 2dbe 013d 10bf adbd 88bb 463d e0d6 d5bd
00000260: b64c 9bbc 6d9c 8ebd 13ca 7ebd 227d a0bd
00000270: f0b8 eb3d 6179 03bd 5572 18bd 185a e0bc
00000280: 359a 973d f376 603d f4e6 83bd d993 98bc
00000290: 4a29 b33d d582 b0bc 1611 c63c 0608 96bd
000002a0: 123e 21bd d91b d63d feb6 753d 18ab cf3d
000002b0: ecd3 4abd 76e6 f3bc a092 bbbd b55b 953d
000002c0: 397f 413a b4be d2bd aec5 e5bc 0d8e c1bd
000002d0: c2cb 9a3d 7b13 f4bc 3bd6 82bd 9484 b9bd
000002e0: 6c3b c7bd dbb6 bfbd bfaa bf3d 5f7a 693d
000002f0: 021d b8bc f6a7 d9bd 7f7a 8fbd e792 8f3d
00000300: 29d2 8c3c 72ff 593c 433e 39bb 3114 1abd
00000310: 2248 823d 4cfc a6bd e2a9 91bd a855 3c3b
00000320: e7e5 de3d d89f 4cbd 48bc 94bd f1de da3b
00000330: 7c60 93bd e5fc 2abd d130 bf3d de1a b4bd
00000340: 995d 8dbd af81 57bd 09a4 a9bc d2e3 f4bb
00000350: b0db 2f3d b897 9abd f257 e83d 8ea0 86bb
00000360: 6a64 dfbd 46b6 6638 51dc a7bd ea86 cfbd
00000370: 3e33 923d 2a98 8cbd 6610 3c3d 50dd 92bd
00000380: c35e a63d d927 4d3d aa2f a2bd 073e ce3b
00000390: 1fdc aa3c 8ff3 393d 2e6a 6abd 484d d7bd
000003a0: 6446 ea3c a80f 60bc 7476 65bd 5c7f 53bc
000003b0: fddc debd e598 13bc b537 dcbc bcc2 e2bd
000003c0: ad07 df3c 3eb6 f33d 8961 94bd f8d9 ba3c
000003d0: 1fad adbd 969e e9bb 06c9 de3d 434c 2e3d
000003e0: ec3c a6bd d3a0 7fbd 5e56 d5bd fd10 c53d
000003f0: 6634 ba3d aec8 a13d 0ff9 a93d b461 c5bd

fc.bias f4 [128]
-0.016553098 0.085267566 -0.07943398 -0.052476626 0.018895302 -0.026877325 -0.02685732 0.040549017
-0.048812732 0.011267873 -0.014724984 -0.015447802 0.10813821 -0.10736903 0.02839156 0.038756296
0.04536227 -0.05267268 0.10374736 0.027520932 -0.012430431 -0.019814663 0.012052253 0.06262521
-0.059545185 -0.004218803 0.034418434 -0.02256421 0.11807207 0.09661006 0.019294126 0.00046297256
-0.032187484 0.065636836 0.0809476 0.11772936 -0.09724159 -0.040765937 -0.10056928 0.100352325
0.102413 0.103599064 -0.059970066 -0.114435844 -0.06453942 0.119568974 0.029073665 0.018083276
-0.109276675 0.104138725 -0.019871805 0.09933869 0.033205193 0.013138604 -0.06451606 -0.090398856
0.088466875 -0.11883426 0.04440095 -0.052015875 0.0233905 -0.019743199 0.078542665 -0.11748923
0.09812924 0.06379621 -0.11173889 -0.0046702716 0.030229805 0.036197115 0.035323884 -0.008515373
0.12110618 0.051981922 0.01179392 0.11385988 -0.033760086 0.09231593 0.089644425 0.03992191
-0.08119861 -0.0047518495 0.07315571 0.019378522 -0.009352887 -0.09177959 0.07590078 -0.100785635
0.0787646 -0.010209704 -0.010450557 0.055325113 -0.035416294 0.085501045 -0.09753467 0.06639148
-0.09656441 -0.00843181 0.09265585 0.09572379 -0.11152474 -0.0111163715 -0.1148407 0.021119837
-0.07639942 0.037797987 -0.057054628 0.028182639 -0.09214338 0.11699106 0.043454655 0.044913407
-0.09694976 0.05067918 0.11189003 0.058367416 -0.017984165 -0.085060924 -0.03482086 -0.020358022
0.008346257 0.11211095 0.049794853 0.07662342 0.032734677 -0.0036620137 0.0007292084 0.08661426
00000000: 5d9a 87bc c3a0 ae3d 48ae a2bd bbf1 56bd
00000010: 52ca 9a3c d62d dcbc e203 dcbc ba16 263d
00000020: dcef 47bd e39c 383c 0f41 71bc c718 7dbc
00000030: 9177 dd3d 4be4 dbbd 6b95 e83c ecbe 1e3d
00000040: cacd 393d 4fbf 57bd 7f79 d43d 9473 e13c
00000050: 02a9 4bbc 5c52 a2bc d076 453c a541 803d
00000060: a7e5 73bd e23d 8abb 58fa 0c3d 94d8 b8bc
00000070: c5cf f13d 7fdb c53d b70e 9e3c 20bb f239
00000080: 06d7 03bd 9b6c 863d dbc7 a53d 171c f13d
00000090: 9926 c7bd 2ffa 26bd 44f7 cdbd 8585 cd3d
000000a0: e8bd d13d bf2b d43d 2ca3 75bd 575d eabd
000000b0: 3e2d 84bd 94e0 f43d e52b ee3c 6123 943c
000000c0: 73cc dfbd af46 d53d 32ca a2bc 1572 cb3d
000000d0: 2b02 083d 4d43 573c ff20 84bd 0923 b9bd
000000e0: 1f2e b53d 605f f3bd c5dd 353d 990e 55bd
000000f0: 6f9d bf3c 7dbc a1bc fada a03d 329e f0bd
00000100: fcf7 c83d 96a7 823d 5cd7 e4bd 1409 99bb
00000110: 7fa4 f73c 6d43 143d c7af 103d 1084 0bbc
00000120: 8406 f83d ffea 543d 493b 413c 5e2f e93d
00000130: 0448 0abd 2210 bd3d 7f97 b73d 2885 233d
00000140: 754b a6bd 67b5 9bbb a9d2 953d b5bf 9e3c
00000150: da3c 19bc f0f6 bbbd de71 9b3d b368 cebd
00000160: 564f a13d 9a46 27bc d038 2bbc 969c 623d
00000170: ad10 11bd 2c1b af3d 42c0 c7bd 42f8 873d
00000180: 90c3 c5bd 9325 0abc 5ac2 bd3d d60a c43d
00000190: 1567 e4bd 7121 36bc 9a31 ebbd 8203 ad3c
000001a0: 4d77 9cbd 10d2 1a3d 1db2 69bd 47df e63c
000001b0: abb5 bcbd 0299 ef3d 82fd 313d 1ff7 373d
000001c0: 998d c6bd f994 4f3d 9a26 e53d ac12 6f3d
000001d0: 8753 93bc 6c34 aebd 51a0 0ebd dec5 a6bc
000001e0: bdbe 083c 6d9a e53d b0f5 4b3d bdec 9c3d
000001f0: cc14 063d 65fe 6fbb 5928 3f3a d162 b13d

actor.weight f4 [4, 128]
0.062423833 0.06314809 -0.07167354 0.013008684 0.08612986 0.041126363 0.056602493 -0.054362226
-0.029128917 0.023909505 -0.027594993 -0.05912518 0.07900355 0.03191534 0.06855037 -0.011299851
-0.0045097033 0.0822783 0.049944006 -0.078614876 0.01692585 -0.0390215 -0.05669293 0.009844594
-0.05126891 -0.04754506 -0.020095492 -0.057868447 -0.0028203009 0.022767065 0.015056184 0.045015577
-0.013920141 -0.02074307 0.05462943 0.02645715 -0.08160353 0.080367565 0.030445468 -0.04067117
0.018551618 0.0038695561 0.02168996 -0.071760304 -0.05401841 -0.07731193 0.026779972 -0.010863291
-0.08576544 0.02573109 -0.035229497 -0.07341321 -0.0064792098 -0.023149703 -0.054427706 0.014417302
0.017974857 0.08182361 -0.023889039 0.05180206 0.08163125 0.059474315 0.04151742 -0.014928888
-0.07574381 -0.035770666 -0.012797216 0.052533146 0.03151634 0.07420678 -0.06504026 -0.013921058
0.05706656 -0.026167216 0.013977719 0.06547052 0.082499914 -0.01323929 0.075449795 -0.057086468
0.0067382893 -0.035266023 0.06841055 0.086677626 0.026857376 0.07250516 -0.056489754 0.024759976
-0.036252905 -0.05143331 -0.05982617 0.007937906 0.050658423 -0.05568784 -0.05623974 -0.04697611
-0.05608748 -0.07145573 0.056042787 0.028144564 0.026502417 -0.00019750166 0.0047078193 0.025921738
0.03819944 -0.051292323 0.06603487 -0.07942139 0.07644897 -0.06804013 -0.052169323 0.034717537
0.046030328 0.045065634 0.0068687466 0.015628785 0.04206997 -0.074995674 0.07061566 0.024371536
0.018297238 0.06111514 0.009646361 0.058256578 -0.002351115 -0.06745642 -0.038013168 -0.057792567
-0.0822932 0.0103100035 -0.04311057 0.013310902 0.082433686 0.02084243 -0.07941551 0.005156486
0.024719846 0.007013609 0.05028057 0.009843363 0.040550474 0.0825802 0.052443862 0.057572793
-0.059264023 -0.030382432 0.039298564 -0.047795903 -0.06712542 -0.07126013 -0.031867675 0.029223377
-0.047018744 0.00086975994 0.07768905 0.069193564 -0.039721254 0.05309719 -0.032895803 0.026995646
0.040265765 -0.038349316 -0.031945564 0.021119602 -0.04493692 0.04537522 -0.052965485 -0.05036914
-0.0062855054 0.080250725 0.051766865 -0.036506753 0.028998867 0.06808627 0.013718979 0.043902148
-0.0010476796 0.075264476 -0.059456877 0.016311076 0.01891513 0.06025555 -0.0197805 0.020521581
0.020537013 0.05101321 -0.057214495 -0.06348274 0.07600659 0.076853715 -0.05297405 -0.06262294
0.062150925 -0.0014721256 0.007349162 0.03567523 -0.047532275 -0.07215301 0.009342754 0.019047054
-0.064875394 0.0123266885 0.045020223 -0.0037719351 -0.030366492 0.019200623 -0.00072611513 0.04366252
0.084296905 -0.04920358 -0.078459196 -0.025601372 -0.028514268 -0.04145515 -0.0554529 0.017065058
0.051860932 -0.02919097 -0.024357833 -0.07388144 -0.061699193 -0.03174137 0.02404984 -0.043065757
-0.085560955 -0.00100345 0.05185099 -0.023184733 0.0063502076 -0.08145544 -0.021167343 -0.0029511827
0.012981914 -0.0005682726 0.059019417 0.062394954 0.046036527 0.049362693 -0.056820713 -0.01657445
-0.062110107 0.013590365 -0.032255866 -0.018374499 0.08177453 0.08194321 0.017228033 0.070929214
-0.07163606 0.04235023 -0.02443749 0.045410037 0.0392598 -0.01998177 -0.06874619 0.03432636
00000000: 22b0 7f3d c953 813d 94c9 92bd 6022 553c
00000010: da64 b03d 1e74 283d 04d8 673d edaa 5ebd
00000020: c49f eebc dedd c33c e50e e2bc 3f2d 72bd
00000030: 9dcc a13d a9b9 023d 2364 8c3d 0323 39bc
00000040: 22c6 93bb 8681 a83d 1692 4c3d d600 a1bd
00000050: 15a8 8a3c 02d5 1fbd d936 68bd 384b 213c
00000060: 59ff 51bd 9cbe 42bd 4d9f a4bc 7707 6dbd
00000070: ccd4 38bb ff81 ba3c 36ae 763c 4162 383d
00000080: 4e11 64bc 5fed a9bc 1cc3 5f3d aabc d83c
00000090: c01f a7bd c097 a43d c668 f93c d096 26bd
000000a0: 90f9 973c 6198 7d3b 25af b13c 11f7 92bd
000000b0: 6942 5dbd b855 9ebd ac61 db3c f2fb 31bc
000000c0: caa5 afbd 02ca d23c ce4c 10bd aa59 96bd
000000d0: 8d4f d4bb 72a4 bdbc 96ef 5ebd 8c36 6c3c
000000e0: 0240 933c 2393 a73d f2b2 c3bc 662e 543d
000000f0: 492e a73d 579b 733d 2c0e 2a3d 4b98 74bc
00000100: 921f 9bbd 4384 12bd 6aab 51bc ff2c 573d
00000110: 4717 013d b9f9 973d d433 85bd 2615 64bc
00000120: a0be 693d a15c d6bc cd02 653c 6815 863d
00000130: b7f5 a83d 9be9 58bc 6c85 9a3d 80d3 69bd
00000140: decc dc3b 1b73 10bd d51a 8c3d 0a84 b13d
00000150: 0004 dc3c 967d 943d cd61 67bd 6fd5 ca3c
00000160: ed7d 14bd bcab 52bd 490c 75bd fe0d 023c
00000170: 357f 4f3d ef18 64bd a45b 66bd 066a 40bd
00000180: fcbb 65bd 6257 92bd 1f8d 653d 6e8f e63c
00000190: 991b d93c 7318 4fb9 0d44 9a3b d359 d43c
000001a0: 0477 1c3d e617 52bd 4a3d 873d afa7 a2bd
000001b0: 4791 9c3d a058 8bbd 80af 55bd fa33 0e3d
000001c0: 4c8a 3c3d be96 383d 3913 e13b f007 803c
000001d0: 9051 2c3d 5597 99bd f19e 903d d1a6 c73c
000001e0: 17e4 953c de53 7a3d c50b 1e3c 739e 6e3d
000001f0: 2a15 1abb 9726 8abd b2b3 1bbd e6b7 6cbd
00000200: 5689 a8bd 4aeb 283c b694 30bd f815 5a3c
00000210: fed2 a83d bebd aa3c 99a4 a2bd bdf7 a83b
00000220: 4681 ca3c 6bd2 e53b 00f3 4d3d 0f46 213c
00000230: 4118 263d cf1f a93d 60cf 563d 73d1 6b3d
00000240: d5be 72bd 94e4 f8bc 88f7 203d a3c5 43bd
00000250: 0d79 89bd d5f0 91bd ae87 02bd dd65 ef3c
00000260: ba96 40bd 9a00 643a 701b 9f3d 5bb5 8d3d
00000270: c1b2 22bd 707c 593d c0bd 06bd f925 dd3c
00000280: b7ed 243d 2c14 1dbd 5ad9 02bd 0403 ad3c
00000290: c70f 38bd 5edb 393d 56f2 58bd df4f 4ebd
000002a0: a4f6 cdbb 7e5a a43d 7e09 543d 1b88 15bd
000002b0: 088f ed3c d070 8b3d 92c5 603c bdd2 333d
000002c0: 4b52 89ba 4324 9a3d 0e89 73bd ce9e 853c
000002d0: e7f3 9a3c 86ce 763d b70a a2bc e01c a83c
000002e0: 3d3d a83c 3af3 503d bf59 6abd 3d03 82bd
000002f0: 58a9 9b3d 7b65 9d3d 51fb 58bd 7540 80bd
00000300: f891 7e3d 57f4 c0ba 3dd1 f03b 3120 123d
00000310: 34b1 42bd f5c4 93bd 5a12 193c 9108 9c3c
00000320: 64dd 84bd e1f5 493c 2067 383d 9232 77bb
00000330: 26c3 f8bc a04a 9d3c c358 3eba 78d7 323d
00000340: dba3 ac3d b189 49bd 37af a0bd f8b9 d1bc
00000350: c196 e9bc e0cc 29bd 9422 63bd 05cc 8b3c
00000360: 216c 543d e721 efbc 148a c7bc 274f 97bd
00000370: 4bb8 7cbd 3d03 02bd 2c04 c53c b865 30bd
00000380: 953a afbd 3286 83ba b461 543d e9ed bdbc
00000390: 6715 d03b 1cd2 a6bd 2367 adbc a168 41bb
000003a0: 18b2 543c 21f8 14ba 58be 713d da91 7f3d
000003b0: cc90 3c3d 8930 4a3d d6bc 68bd 24c7 87bc
000003c0: 2b67 7ebd 1faa 5e3c ba1e 04bd 1e86 96bc
000003d0: 6879 a73d d7d1 a73d ce21 8d3c 5643 913d
000003e0: edb5 92bd 6f77 2d3d 2231 c8bc e0ff 393d
000003f0: e2ce 203d cfb0 a3bc cdca 8cbd cc99 0c3d

actor.bias f4 [4]
-0.07503545 0.037425224 0.0154308025 0.067423955
00000000: 30ac 99bd 314b 193d 7ad1 7c3c 9215 8a3d

critic.weight f4 [1, 128]
-0.057791173 0.005735907 -0.07814333 0.06615178 0.07005451 -0.03807789 -0.075988784 -0.009878874
0.04036369 -0.07297303 0.029211342 -0.008846334 -0.042888295 0.03633509 -0.048783876 -0.045691043
0.004289451 0.05052005 -0.06508297 0.03776117 -0.0845165 0.048019327 0.014938846 -0.04897956
-0.08579763 0.0047053765 0.056151092 -0.058083914 0.06841516 -0.07512128 -0.049639314 -0.021642858
0.06264851 -0.052335206 0.0061854143 -0.030865349 -0.001431912 -0.037328277 -0.009769906 -0.02231942
-0.046885353 -0.03639413 0.086336456 -0.017156707 -0.041225683 -0.05956524 -0.031483892 -0.08015556
-0.020731647 0.07315452 0.005967763 0.029956037 0.016542466 0.08795686 -0.042375308 0.031961087
-0.03311411 -0.06610987 -0.045785196 -0.08197801 -0.039451588 0.02233315 -0.074510574 -0.02686843
0.00838404 0.032507796 0.025245499 -0.010606027 -0.07357775 0.021486856 0.03125204 -0.048726033
0.07599167 -0.022226797 -0.055472508 -0.0025501943 -0.08793231 -0.026159395 0.0020020711 0.053511232
0.07400288 -0.032787003 -0.07403094 -0.013601491 -0.051501885 -0.069004446 0.05297031 -0.014734203
-0.0048216125 0.05373601 -0.00667075 -0.0062055 0.068822 0.05485711 0.04947129 0.07965079
0.06561503 -0.02825375 0.005742863 -0.0470966 -0.015414624 -0.028557887 -0.08395544 0.026889242
0.035823014 0.08031377 0.009379816 0.026483083 0.030126888 0.033715803 -0.08539315 0.0011803114
0.07231775 0.00710339 -0.08335384 0.046532717 -0.04033863 -0.007140992 -0.009326992 0.02604808
0.014189106 0.08344643 0.07612117 0.014193488 0.08120779 0.021914382 0.0104152 0.08622117
00000000: 70b6 6cbd 46f4 bb3b 9c09 a0bd 967a 873d
00000010: bd78 8f3d 90f7 1bbd 02a0 9bbd 00db 21bc
00000020: 6654 253d e272 95bd a04c ef3c 37f0 10bc
00000030: a3ab 2fbd 1ad4 143d 9ad1 47bd 8826 3bbd
00000040: 868e 8c3b 1dee 4e3d 384a 85bd 75ab 1a3d
00000050: fd16 adbd eaaf 443d 10c2 743c cb9e 48bd
00000060: abb6 afbd 8f2f 9a3b b0fe 653d 66e9 6dbd
00000070: 3f1d 8c3d 30d9 99bd 9852 4bbd 5d4c b1bc
00000080: dd4d 803d 715d 56bd 04af ca3b 54d9 fcbc
00000090: feae bbba 89e5 18bd f511 20bc 37d7 b6bc
000000a0: db0a 40bd 0312 15bd 2bd1 b03d 398c 8cbc
000000b0: 43dc 28bd aefa 73bd 41f5 00bd 9928 a4bd
000000c0: 6ad5 a9bc 09d2 953d 398d c33b 5d66 f53c
000000d0: 1184 873c ba22 b43d bb91 2dbd a1e9 023d
000000e0: a9a2 07bd 9d64 87bd 4289 3bbd 16e4 a7bd
000000f0: fd97 21bd 03f4 b63c 0099 98bd 2f1b dcbc
00000100: 365d 093c e526 053d a6cf ce3c e7c4 2dbc
00000110: eeaf 96bd 3405 b03c 2402 003d f394 47bd
00000120: 85a1 9b3d f914 b6bc 2437 63bd 2921 27bb
00000130: db15 b4bd 3a4c d6bc 2e35 033b 982e 5b3d
00000140: d28e 973d aa4b 06bd 899d 97bd cad8 5ebc
00000150: a4f3 52bd 3452 8dbd 65f7 583d ba67 71bc
00000160: 9efe 9dbb 4a1a 5c3d 4f96 dabb 8257 cbbb
00000170: 8cf2 8c3d d9b1 603d 68a2 4a3d f41f a33d
00000180: 2c61 863d 6974 e7bc a02e bc3b 5de8 40bd
00000190: 9e8d 7cbc 3bf2 e9bc d4f0 abbd d446 dc3c
000001a0: 27bb 123d 8c7b a43d cdad 193c 0df3 d83c
000001b0: aacc f63c 9519 0a3d 9be2 aebd aeb4 9a3a
000001c0: 541b 943d 8ec3 e83b 6bb5 aabd 1799 3e3d
000001d0: 1f3a 25bd fcfe e9bb 3dd0 18bc c862 d53c
000001e0: 6d79 683c f6e5 aa3d 6ae5 9b3d ce8b 683c
000001f0: 4550 a63d ca85 b33c 84a4 2a3c ba94 b03d
