models/resilience/handcrafted/MPL/agent2.pth (torch, 40590 bytes, 5 tensors)

fc.weight f4 [128, 68]
000000 fe 97 de 3d 69 47 97 bd 2a c7 72 bd f5 fe 2f bd
       0.10868834 -0.07386667 -0.05927197 -0.042967755
000010 21 40 cb 3d 93 dc 25 bd 97 02 2b 3d 4a 33 a4 3d
       0.09924341 -0.04049356 0.041750517 0.08017595
000020 0c c9 a6 bd 4d 48 6a 3d 49 01 c6 bd ba 52 b7 3d
       -0.081438154 0.057197858 -0.09668214 0.08951326
000030 71 88 43 bc 54 7c 09 bd 5e 29 d6 bd af 7f e3 3d
       -0.011934386 -0.033565834 -0.10457109 0.11108338
000040 20 bb cb 3d d3 1a cd 3d c5 a0 b7 3d 7a a8 eb 3d
       0.09947801 0.10014882 0.08966211 0.11506744
000050 53 5f 66 3c 53 7a d1 bd 17 a8 db 3d ec 84 c3 bd
       0.014060813 -0.102284096 0.1072542 -0.09546837
000060 1f 59 23 bd 81 45 e8 bd 3b 6d 6d bd 0a ef 74 3c
       -0.039879914 -0.11341382 -0.0579655 0.0149495695
000070 88 b5 49 bc a4 4f 2b bc 59 b8 f4 3d 47 58 60 bc
       -0.012311347 -0.0104559995 0.11949224 -0.013692922
000080 0b ee af 3d f2 d1 be 3d 1e 7d f5 3b 1e af 9a 3d
       0.08590325 0.09317388 0.007491722 0.07552932
000090 53 78 72 3d 50 02 d7 3d a5 e5 b0 3d 22 10 c3 3d
       0.05919678 0.10498488 0.08637551 0.095245615
0000a0 6c 34 12 bd 38 0e 0a bd 9e ff d9 3d 7a 96 c3 bd
       -0.035694525 -0.033704966 0.10644458 -0.095501855
0000b0 58 fe 50 3d 0f 1a a6 bd 21 9a 27 3d c8 45 75 3d
       0.05102381 -0.08110439 0.040918473 0.059881
0000c0 11 66 f6 bd 75 28 16 bd 82 41 bb 3d a4 09 d8 3c
       -0.12031186 -0.036659677 0.09143354 0.026371785
0000d0 95 ea e3 bd 92 0e c2 bc 76 6a e8 bd 08 8b e5 bd
       -0.11128727 -0.023688588 -0.11348431 -0.11208159
0000e0 8e 36 2e 3d 80 01 a2 bd f6 78 44 3d 70 a9 16 3d
       0.042532496 -0.07910442 0.04796692 0.036782682
0000f0 44 0a 36 3d 3c 55 7e bd 2f 5e 82 bd 7c a1 ae bd
       0.044443384 -0.062093005 -0.0636562 -0.085268945
000100 10 84 47 bc 79 96 b2 bd a9 97 8b bd 21 1e d9 3b
       -0.012177482 -0.08720107 -0.06816036 0.006625906
000110 7e 33 10 3c 78 02 d9 bc 40 f1 ab 3d 47 25 ea bd
       0.008801339 -0.026490435 0.08395624 -0.11432891
000120 45 5a 8b 3d fc ef 49 bd 3b 4a 94 3d 5e 08 a2 bd
       0.06804327 -0.049301133 0.07240721 -0.07911752
000130 65 79 dd bd de 14 8b bd 30 8d a8 3d a7 2b d7 3d
       -0.1081417 -0.067910895 0.082300544 0.10506373
000140 a7 bd 81 3d 75 f1 01 bc 57 2a e4 bd 6c ba 70 bc
       0.063350014 -0.007931103 -0.11140888 -0.014692884
000150 a3 cf 4c bd 59 da c8 bd 31 c7 6e 3d 67 6d c2 3c
       -0.050002705 -0.098072715 0.058295432 0.023733808
000160 38 b1 bb 3b bd fa db 3d a1 80 cd 3d fa c1 0b bd
       0.005727913 0.10741184 0.100343 -0.034120537
000170 4a 9d d9 bc 87 02 cc 3c 84 68 ed bd b2 08 55 bd
       -0.02656426 0.024903549 -0.115922004 -0.052010246
000180 aa 75 74 bd 77 ca ed bd 3c 49 8f 3d 0c bd 30 3d
       -0.059682526 -0.11610883 0.0699639 0.04314904
000190 61 96 74 bd 07 0e b8 bd 0f 76 cb 3d bc 60 4d bd
       -0.059713725 -0.089870505 0.09934627 -0.05014108
0001a0 b0 64 a5 bd a3 89 1b 3c 23 a4 25 bd 65 ca 71 3d
       -0.08075845 0.009493264 -0.040439736 0.05903091
0001b0 b4 8f 10 bd da 6b 66 3d 30 8b 90 3d 48 8f 57 3c
       -0.035293296 0.0562552 0.07057798 0.0131567195
0001c0 c3 6d 91 3c c0 a7 ad 3d 88 49 a3 bc 28 f1 c6 3d
       0.017752534 0.084792614 -0.019932523 0.09713966
0001d0 73 29 5e 3d 4b 05 dd bd e2 fe 34 3d 17 46 8e bc
       0.054238748 -0.10792025 0.044188388 -0.017367406
0001e0 a0 fa cd 3d 0d b7 ba 3d bc 65 a4 bd ab 4d a3 3d
       0.100575686 0.091169454 -0.08027217 0.07973798
0001f0 62 84 8a 3d 99 41 07 bc 6a c5 a2 3d 2d e2 f6 3c
       0.06763531 -0.008255386 0.0794781 0.030137146
000200 a1 5f 89 3d 4c 49 bf bd db fe b4 bb df b0 9d 3c
       0.06707693 -0.09340152 -0.005523545 0.019249378
000210 2c 1c 6f 3c 0a 08 4e bc 7e 12 b7 bd 2c c1 4e bd
       0.014594119 -0.012575159 -0.08939074 -0.05047719
000220 9e f9 b9 bd 9b 46 49 bd 85 6b 64 3d d8 c9 89 3d
       -0.09080814 -0.0491396 0.0557666 0.06727952
000230 8d 70 e5 bd c8 f7 d3 3d cb ba a5 3d 4e 18 8e bd
       -0.11203108 0.10349995 0.080922686 -0.069382295
000240 97 19 2e 3d 3b 38 cd 3d 7d cb cd 3d c7 f3 0d 3c
       0.042504873 0.10020491 0.10048578 0.008664078
000250 77 ac 49 3d df 3c 86 3c 6b f9 2e 3b 2e c3 b7 bb
       0.04923674 0.016386447 0.0026698958 -0.005607984
000260 54 11 cf 3d 36 72 45 bd 81 d6 a3 3d 99 cd 8c bd
       0.10110727 -0.048204623 0.07999898 -0.06875152
000270 d0 ca b9 3c b6 96 e7 3d ec d0 a2 bd 78 78 bc 3d
       0.022679716 0.11308043 -0.07950005 0.09202665
000280 68 c0 94 3d ba 7c 15 bd b7 09 b1 3d 79 c8 70 3d
       0.07263261 -0.0364959 0.08644431 0.058784936
000290 08 d6 87 3b 3e c5 f4 3d 53 66 d9 bd e5 94 d4 3a
       0.0041453876 0.119516835 -0.1061522 0.001621869
0002a0 0b a9 e1 3d bc 7a 16 bd 8b a1 d6 3d fa 7d 5d bc
       0.110185705 -0.036738142 0.104800306 -0.013518805
0002b0 ca d7 87 bd 3d ed 6c 3d 3f ac bb 3d 82 61 18 bd
       -0.06632955 0.057843436 0.09163713 -0.037202366
0002c0 ac 2d 5b bd ea 4f 90 bd 3c 0c c9 bb 28 ad e2 3d
       -0.053510353 -0.070464924 -0.0061354917 0.11068183
0002d0 5b fd a5 3d 37 d8 fb 3c 2e f9 d9 3d 98 38 d3 3d
       0.08104964 0.030742748 0.106432304 0.10313529
0002e0 ab 4d dc bd ec 7e 43 3c e3 1a e6 3d a7 93 7b bd
       -0.107570015 0.011932116 0.11235597 -0.06142011
0002f0 67 9e 40 39 2c 74 84 3d b0 9d 97 bd da e2 f4 3b
       0.00018369556 0.064674705 -0.074031234 0.007473332
000300 20 38 3d bc fc c5 85 bd b7 d4 27 bd 3b 5c 96 bd
       -0.011549026 -0.06531903 -0.040974345 -0.0734181
000310 f9 d4 c0 bb 81 47 64 bc eb 55 de 3d fe b5 e4 3d
       -0.0058847633 -0.0139330635 0.10856231 0.11167525
000320 cf 5b f4 bd d1 4f d2 3c 13 93 d2 bd 6c 8c 6e bd
       -0.119315736 0.025672825 -0.102819584 -0.058239385
000330 17 e7 e2 bd ba c4 1a bb 5f 5a 95 3d 89 52 dc 3d
       -0.11079233 -0.0023615793 0.072926275 0.1075793
000340 2b 1e cf 3b e2 c5 0c bb dc 61 92 bd aa 5f af bd
       0.006320735 -0.0021480252 -0.071475714 -0.08563168
000350 44 a0 0f bd ef 33 e0 3d 2a 2d af 3d b8 dc 51 3d
       -0.03506495 0.109474055 0.08553536 0.051235884
000360 b7 4a 48 bd d3 ed 80 bd c2 6c e7 3d 60 3d 44 3c
       -0.04889938 -0.06295361 0.11300041 0.011977524
000370 b7 ad 33 bd ac fa 94 3d 5d 2e ac 3d bc 3b 23 3c
       -0.04386684 0.07274374 0.084072806 0.009962972
000380 d0 d8 15 3d 69 83 89 bd 3b 9a ee 3c 23 5d b7 bd
       0.03658372 -0.067145176 0.029126277 -0.08953311
000390 95 1b bb 3d 86 e7 e2 3c f2 60 a6 bd 87 b1 6b bc
       0.0913612 0.02769829 -0.081239596 -0.014385588
0003a0 52 fc e0 3d 4f 19 82 bd dd fb ca bd 40 79 4b 3d
       0.10985626 -0.063524835 -0.0991132 0.04967618
0003b0 c3 6d 71 3c 0b 94 16 3d 2d 81 0e 3d 97 c0 e4 bd
       0.014735642 0.03676228 0.03479116 -0.11169546
0003c0 0e 3b 44 3d ae 4d d0 bd a4 c0 d1 bd 5e 7f a9 bd
       0.04790788 -0.10171066 -0.102418214 -0.082762465
0003d0 ca 41 8e 3d 71 78 a1 bc 30 28 be bd 2b f0 b7 3c
       0.06946142 -0.019710751 -0.09285009 0.022453388
0003e0 ea 8a 9f 3d f6 75 71 bc ec 1a 99 3d c1 5f 4e 3b
       0.07790168 -0.014737597 0.07475838 0.003149018
0003f0 30 22 3f 3d 6e 70 33 bd 90 21 ec bd af 16 eb 3d
       0.046663463 -0.043808393 -0.11529839 0.11478936

fc.bias f4 [128]
000000 58 bf 17 bd e7 a2 28 bd 24 46 ec 3d dd c9 ce 3c
       -0.037047714 -0.04117098 0.11536816 0.02524274
000010 1f e6 9e 3d b6 d6 f0 3d b8 49 94 3c 3e 3a 37 bd
       0.07758736 0.11759703 0.018101558 -0.04473328
000020 29 1d 9d 3d 7a 3d 11 3d 79 ac 14 3d 6f 93 b0 bd
       0.076715775 0.03545902 0.036297295 -0.08621871
000030 33 63 8b 3d 4b 49 79 3d 96 ff b4 3c b1 2b 9d 3c
       0.0680603 0.060860913 0.02209453 0.019185873
000040 fd 37 5d bc 12 66 bf bd 1b 81 99 bc ac 68 ec 3d
       -0.013502118 -0.0934564 -0.01873832 0.11543402
000050 63 09 ea bd a7 67 fb 3c e5 88 53 bd 3a bd ce bd
       -0.114275716 0.030689074 -0.051644225 -0.10094686
000060 a3 75 62 bd f8 1a b9 bd 31 2a ca 3d 2f f8 a1 bd
       -0.05528797 -0.09038347 0.098713286 -0.079086654
000070 1a 41 8f 3d 84 92 24 3d 5d 54 93 bd a6 c0 db bd
       0.06994839 0.04017879 -0.071938254 -0.10730104
000080 42 98 00 3d a2 04 75 3d 4c a4 66 bd 09 5b ef bd
       0.031395204 0.05981887 -0.05630903 -0.116872855
000090 2f 61 f6 bd 10 28 bb bd 76 0f f1 bd 2b 5b 8c bd
       -0.12030255 -0.09138501 -0.11770527 -0.068533264
0000a0 ef d8 d0 3d 2d 94 f4 bc 3d 2a a1 3d 5b 9e c0 bc
       0.10197627 -0.029855812 0.078693844 -0.02351301
0000b0 d0 ad d3 3d b1 fa a7 bd e0 37 68 3c e3 34 c6 3c
       0.103358865 -0.082021125 0.014173478 0.02419514
0000c0 73 4f e9 bd cc c0 aa bd 5f 75 82 bc 79 c3 0e 3d
       -0.11392107 -0.08337554 -0.015925108 0.034854386
0000d0 2c 89 bb bc 35 3f ef 3d a2 d4 ad 3d 98 b0 d8 3b
       -0.022892557 0.11681978 0.08487822 0.0066128485
0000e0 86 c8 81 3d 01 b4 6f 3d 15 ef 9d bd f2 fc d1 bd
       0.06337075 0.058521274 -0.07711617 -0.102533236
0000f0 22 92 da bd 0c b5 d7 3d 7e 04 b9 3d 4d 35 b5 3d
       -0.10672404 0.10532579 0.0903406 0.08848057
000100 18 9d 4b 3d 1b a2 16 3c e8 f7 e8 bd cd 71 de 3d
       0.049710363 0.009193922 -0.11375409 0.108615495
000110 9c ee ba 3d 8f 7a c7 3d c1 39 63 3d 35 a9 cd bd
       0.091275424 0.09740173 0.055475 -0.10042039
000120 bc 46 83 3d d3 91 e0 bd c4 35 17 3d d2 df b2 bd
       0.06409976 -0.10965314 0.03691651 -0.087340966
000130 e0 7a 3e bc e1 94 93 bd 08 a4 4b 3c 4e 97 82 3d
       -0.011625975 -0.07206131 0.012429245 0.06376515
000140 bf e2 8e bd 4a 77 f0 bb dd 00 c6 3d 1f 8e 3c 3d
       -0.06976842 -0.007338439 0.096681334 0.046033975
000150 d1 77 4d bd 0f c1 a9 3d dc 5f 5b 3d 99 4b 87 bd
       -0.050163094 0.08288776 0.053558215 -0.06606216
000160 3b 02 e7 bc 65 c4 7d bc cd ee bd 3d 1d 8a 27 bd
       -0.028199306 -0.015488719 0.09274063 -0.0409032
000170 35 75 c2 bd 35 c2 9e bd c0 0b 58 bd 72 3f 3e 3d
       -0.09495012 -0.07751886 -0.05274558 0.046447225
000180 35 47 e1 3d 89 ac c7 3d e2 a2 ab 3d 02 58 35 3b
       0.1099991 0.09749705 0.08380677 0.0027670865
000190 39 6a 43 3d 24 18 dc bc bc 81 fe bb 3b 85 04 bc
       0.047708724 -0.02686698 -0.0077669304 -0.008088405
0001a0 8e 9f d3 3c 5e 8f c8 3d fb b2 7e 3d 1e 84 dd bc
       0.025832918 0.0979297 0.062182408 -0.027040537
0001b0 91 a8 9f 3d b2 55 85 3d 68 4e df 3d bf 52 f3 3c
       0.07795823 0.06510486 0.10903627 0.029702542
0001c0 92 a7 e9 bd 5c 33 a6 3d f1 e0 50 3d 91 d8 e1 bd
       -0.114089146 0.08115265 0.05099577 -0.11027635
0001d0 d7 27 26 3a 7c 01 d0 bd 12 93 4a bd f3 57 49 bd
       0.0006338334 -0.10156533 -0.049456663 -0.04915614
0001e0 c8 ce 2d 3d 54 31 e8 bd 59 be 3a bd 90 d1 e1 bd
       0.04243353 -0.113375336 -0.045591686 -0.11026299
0001f0 43 df 97 3d 54 c6 92 bd 0f eb 9b bd e5 16 0e 3c
       0.07415631 -0.07166734 -0.07613193 0.008672451

actor.weight f4 [4, 128]
000000 30 d1 1a bc a3 24 cb bc 89 9e 23 3d 74 15 db 3c
       -0.009449288 -0.024797743 0.039946113 0.026743628
000010 31 47 b0 3b d8 80 03 bd b8 ed a1 3c 81 31 31 3d
       0.0053795804 -0.032105297 0.019766673 0.0432601
000020 72 53 5b bd dc 5c b2 bc 49 33 e5 bc 41 a8 e3 3c
       -0.053546377 -0.021772794 -0.027978556 0.02779019
000030 db a9 77 bd 0d ac 88 3d 7e 64 8d 3d aa 90 4f 3b
       -0.06046472 0.06673441 0.06903933 0.003167192
000040 1b 13 50 bd 38 68 6c bd 53 28 71 3d 13 cf a9 3d
       -0.05079947 -0.05771658 0.058876347 0.082914494
000050 0d ff 99 3c ca d3 87 bd 95 2c ea 3b 58 3b 10 bc
       0.018798376 -0.066321924 0.007146428 -0.008803211
000060 0d 5f cb 3c bf d3 34 bd 2d 17 81 bd 96 ec 16 3c
       0.024825597 -0.04414725 -0.063032486 0.00921168
000070 71 85 46 3c 41 d8 09 bd c4 31 04 3d 1c bf b4 3d
       0.012116776 -0.0336535 0.032274023 0.08825514
000080 c4 0f 02 bb 02 7f 5a 3b 86 7d 65 bd 1f d0 7f bd
       -0.0019845823 0.0033339863 -0.05602791 -0.06245434
000090 0a 9d 78 bd 6d 1f a7 3c cc 7f da bc 94 15 02 bd
       -0.06069664 0.020400727 -0.026672266 -0.03175886
0000a0 29 00 88 3d c8 77 32 3d 9a 58 71 bd 2a b3 26 3c
       0.066406555 0.043571264 -0.058922388 0.010174552
0000b0 0c 4d 1a bd eb af 9d 3b 08 e0 9c bd 5c 06 12 3d
       -0.037671134 0.004812231 -0.07659918 0.035650596
0000c0 19 40 a3 bd 20 cf a8 bd b5 73 a3 3d 2b c3 22 3c
       -0.0797121 -0.08242631 0.07981054 0.009934227
0000d0 b1 cf 91 3d 81 4e 50 3d dc cc a3 3d 7d 3e cc 3c
       0.07119692 0.050856117 0.07998058 0.02493214
0000e0 d4 e4 57 bd fb a4 8a 3d 7c 15 98 3d 67 46 9a bc
       -0.052708462 0.06769749 0.07425973 -0.018832399
0000f0 8e 9b 6e 3d a1 1f 5a 3d 5d d1 16 bd d5 9a 8a 3d
       0.058253817 0.05325282 -0.036820758 0.06767813
000100 05 3d 02 3d db bb af 3d a2 88 7a 3c 01 4c 9c 3d
       0.031796474 0.085807525 0.015291365 0.07631684
000110 6a 5d 0e 3d 4a df b1 3d ba ef 41 bd c7 c2 51 bd
       0.034757055 0.08685167 -0.04734776 -0.051211145
000120 c4 84 4a 3d f6 29 aa 3d 64 55 9c 3d 5e 09 49 bd
       0.04944302 0.08308785 0.076334745 -0.0490812
000130 bd 98 57 bd bd b9 9d bb eb 55 0b bd d4 58 af bd
       -0.052635897 -0.0048134015 -0.034017485 -0.085618645
000140 89 22 53 3c 5b d3 0b 3b db 39 21 bd cb 57 50 3d
       0.012886652 0.0021335694 -0.039361816 0.050864976
000150 2c ac 39 3d 1d 23 85 3c 0d 98 99 bc ef b3 88 bd
       0.04533021 0.016252095 -0.018749261 -0.066749446
000160 5e 45 69 bd 3a 39 be bc e8 8d 3b 3d 0e 72 8b bd
       -0.05695092 -0.023220647 0.04578963 -0.068088636
000170 61 67 94 bd f1 09 39 bc 3a d6 fa bc 92 43 9e bc
       -0.072462805 -0.011293874 -0.03061973 -0.01931933
000180 8b 64 6a 3c 26 c4 08 3d 05 66 b4 bc ed 48 d1 3c
       0.014306198 0.033390187 -0.022021303 0.025547469
000190 ee 0b a7 3d 43 5c a4 3d c0 ec 86 3d e4 1c 9a bc
       0.08156572 0.0802541 0.06588125 -0.018812604
0001a0 48 03 61 bd 3c 0a 19 3d e6 6a 09 bc 66 2d 80 bc
       -0.05493477 0.037363276 -0.008387303 -0.015646648
0001b0 38 48 8d 3d a5 38 8c 3d 54 58 3c bd 41 bf e0 bc
       0.0689854 0.068467416 -0.045982674 -0.027434947
0001c0 da d1 9e bd 9b b1 fd bb dd 1a 75 3d a1 48 74 bd
       -0.0775487 -0.0077421195 0.059840072 -0.059639577
0001d0 59 6a 83 3a ac 50 35 3d 24 ea 3d 3d 87 04 97 bd
       0.0010026201 0.044266388 0.046365872 -0.073739104
0001e0 3f d0 71 3c 05 70 c0 3c e9 6a 02 3d b1 7e b0 bd
       0.014759122 0.023490915 0.03184024 -0.086179145
0001f0 b2 32 96 3d 7f a6 86 3d a7 3e af bd c3 1a ef bc
       0.07333888 0.06574725 -0.08556872 -0.029187566
000200 d7 48 a4 bd 48 b0 da 3a 5c b7 9e 3d ff 7a fd 3c
       -0.080217056 0.0016684616 0.07749817 0.030942438
000210 7d ef 1d bd ca d4 b4 bd df a5 12 bd 95 27 25 3c
       -0.038558472 -0.08829649 -0.03580272 0.010080238
000220 02 4f d7 3c 4d dd b0 bd a3 5e 52 3c 2f 29 97 bd
       0.026282791 -0.0863596 0.012839946 -0.07380902
000230 96 95 a5 3d 7c ec a1 3d d4 96 7a bd ed f3 2c bd
       0.08085172 0.07906434 -0.061178997 -0.042224813
000240 a8 31 fc 3c 80 8f 89 bb c8 ff 1e 3d 0a ee 23 bd
       0.030785397 -0.0041980147 0.03881815 -0.040021934
000250 6c 62 7d bd 3d d1 9d 3d 97 10 81 bd c3 18 81 3d
       -0.06186144 0.07705925 -0.063019924 0.06303551
000260 50 11 8b 3d ce 15 53 bd 52 2d 5a bc 84 11 a2 3d
       0.067904115 -0.051534466 -0.013316469 0.07913497
000270 b0 0b 8b bd 51 f9 18 bd 8b 8b 87 3c 7b 06 84 bd
       -0.067893386 -0.03734714 0.016546031 -0.064465486
000280 4f 96 91 3d a9 bd b3 3d 81 92 7c bd cd 7a 27 3d
       0.07108747 0.08776409 -0.061663155 0.040888596
000290 76 9c 56 3b 4a 00 8f bd 27 3d 27 3d 59 16 b0 bd
       0.0032747067 -0.06982477 0.040829804 -0.085980125
0002a0 a5 5e 9a 3d e9 91 e2 bc b5 57 95 3d c7 a9 8d bd
       0.07537583 -0.027657466 0.072921194 -0.06917148
0002b0 aa 81 a9 3d 00 7a 81 3d b4 a2 a5 bd 27 0e a7 3d
       0.082766846 0.06322098 -0.08087674 0.08156996
0002c0 da 5c 84 ba b9 65 56 bd 75 db 87 bd f3 01 89 3d
       -0.0010098473 -0.052343104 -0.06633655 0.06689825
0002d0 14 3d 73 3c 43 c6 96 3c af d5 24 3d 2d 4c 6c 3c
       0.014846105 0.018405085 0.040242847 0.014422459
0002e0 0c 05 27 bd 8c 4b 9f 3d 03 80 b5 3b d4 e5 62 bc
       -0.040776297 0.07778081 0.005538942 -0.013848741
0002f0 21 10 9e bc b2 7e 56 bd d4 6e 59 bc 33 aa 9d 3d
       -0.0192948 -0.05236692 -0.013271052 0.076984785
000300 ab 22 44 bd c8 a6 7c 3d 37 47 6a bd f6 27 9a bd
       -0.047884624 0.061682492 -0.057196822 -0.07527153
000310 76 43 a9 3d a2 80 6c bd 74 65 41 3d eb c5 82 bd
       0.0826482 -0.05773986 0.047215894 -0.06385406
000320 ea 26 7c bc 48 da fc bb ab a3 6e bd 98 09 b6 ba
       -0.015390137 -0.007716451 -0.058261555 -0.0013888357
000330 96 e1 71 bd 31 eb 96 3a c5 b0 76 bd d3 e9 93 3d
       -0.059053026 0.0011514184 -0.060227174 0.07222333
000340 b6 fe 75 3d 40 f9 9b 3c 72 76 b7 bc a3 34 31 3d
       0.060057364 0.01903975 -0.022395346 0.04326309
000350 37 ca 6c 3d 27 56 5c bd 30 1e 9a bd bd a9 89 bc
       0.057810035 -0.0537931 -0.07525289 -0.01680457
000360 a6 c1 82 bc c5 1d 99 3d 3c ed ef bc ee d2 bd bb
       -0.01596148 0.07476381 -0.029287927 -0.005792967
000370 b9 00 34 3d 3e 20 9c 3d 11 30 af 3d 09 10 11 bd
       0.043946 0.07623337 0.0855409 -0.035415683
000380 d0 48 3d 3c 18 d8 53 3d a9 27 98 bc dc cc 01 bd
       0.011553004 0.051719755 -0.018573599 -0.03168951
000390 82 06 39 3b e6 e9 b2 3d 4d d8 7a 3d 12 ea 3b bd
       0.0028232639 0.08736019 0.061241437 -0.045877524
0003a0 e6 76 a0 3d 3b c2 91 bc 9b 3c 09 bc 63 68 87 bd
       0.07835178 -0.017792812 -0.008376266 -0.06611707
0003b0 41 dc 82 3d b6 8b 86 3d 5b f8 4e 3d 18 f7 a3 bd
       0.06389666 0.065696165 0.05052982 -0.08006114
0003c0 70 7d 2c 3d 32 87 6d 3b 5d 84 6d bb 37 bb 2f 3d
       0.042111814 0.0036243913 -0.0036242225 0.04290315
0003d0 84 c2 87 3d 51 3b 33 bd db 66 ad 3c 8c f9 39 3d
       0.06628898 -0.04375774 0.02116721 0.045404002
0003e0 e8 62 6e bd 55 bf 21 3c a2 fd 56 3d 7b 73 0f bd
       -0.058199793 0.009872277 0.052487977 -0.03502224
0003f0 6b 79 89 bd 5f 07 97 bc 5d ed 2e 39 8b bd a0 bd
       -0.06712612 -0.018436132 0.00016682358 -0.078486525

actor.bias f4 [4]
000000 6a 9c a2 3d 43 1b 61 bc dd 8d 7f 3d 3e 09 29 3d
       0.0793999 -0.01373941 0.06239115 0.04126858

critic.weight f4 [1, 128]
000000 aa d6 81 3d ed b8 56 3c 27 b3 63 3d 58 c8 b1 3d
       0.06339772 0.013105613 0.055590775 0.08680791
000010 bd 53 ae bd 7a d3 ab 3a aa 3c 6d 3d 21 c7 53 bd
       -0.085120656 0.001310929 0.057919182 -0.051703576
000020 33 28 8d bd 90 5c a9 3d f8 c5 af bd 39 e9 33 ba
       -0.06892433 0.08269608 -0.085826814 -0.0006863061
000030 ac e3 1f bd 5c 85 0b 3d d7 96 13 3d 88 bd 49 bd
       -0.039035484 0.03406273 0.036032524 -0.049253017
000040 ab 82 8c 3d 5b 33 a7 3d 2c c8 51 bc c3 15 9d 38
       0.068608604 0.08164092 -0.012804072 7.490397e-05
000050 7f 41 3b bc d6 08 01 3d fc 96 4a bd d3 ef 40 bd
       -0.01142919 0.031502567 -0.049460396 -0.047103714
000060 92 f1 3e 3c f4 7a ae bd 48 37 5c bc 92 ef 0d 3d
       0.011654275 -0.08519545 -0.013440914 0.0346523
000070 e6 ae 8a bd fb 98 ac 3d b4 8c 43 ba 02 d1 70 3b
       -0.067716405 0.08427616 -0.0007459626 0.0036745672
000080 c5 79 f5 3c f1 3a 51 3d eb 7e 72 bd 21 d8 7e 3d
       0.02996529 0.0510816 -0.05920307 0.062217835
000090 4b e1 9a bd 89 e3 a6 bb 42 a3 8e 3d e8 b3 be 3c
       -0.075625025 -0.0050930423 0.06964733 0.023279145
0000a0 8b 19 ad 3d 62 bb 17 bd 55 a2 13 bd a4 50 88 bd
       0.084521376 -0.037043937 -0.036043484 -0.06656006
0000b0 18 c6 75 bd 65 fb 8f bc 89 64 15 bd 7d 4e a1 3a
       -0.06000337 -0.017575929 -0.03647283 0.0012306717
0000c0 64 55 87 3d 50 e9 18 3d fd a1 5d 3d 87 bc 12 3c
       0.06608084 0.03733188 0.054109562 0.008956081
0000d0 9e 7a af 3d 7b 6f 01 3d 3b 9d b6 bb db ae 6d 3d
       0.08568309 0.031600457 -0.0055729426 0.058028083
0000e0 fd 46 35 bd d1 7a 12 bd 39 81 4d bd 94 6c fd bb
       -0.044257153 -0.035761658 -0.050172064 -0.007733891
0000f0 b6 1a 3a bd 6f de 39 bc 3d 1e 16 3d d5 77 35 bd
       -0.04543563 -0.011344536 0.03664993 -0.044303734
000100 ab 16 49 bd e4 c4 c4 bc 59 4b 70 bd b5 4f 30 bd
       -0.049093883 -0.024019666 -0.058665607 -0.043044765
000110 0e e2 a3 3d 9b 4d bf bb 9b a6 b8 3c 82 ec 17 bc
       0.08002101 -0.0058381087 0.022540381 -0.009272696
000120 c5 a5 a8 bd 34 7c 8d bb 9a de b9 bc 45 ff 9a 3d
       -0.08234743 -0.0043177847 -0.022689153 0.0756822
000130 94 d9 cb bc 3f 9f 54 bd 82 49 70 3d 35 bf c0 bc
       -0.024884023 -0.05190968 0.058663853 -0.023528675
000140 65 99 a0 bd 6b 6c 97 bd 38 fb 8c bd 15 8f 97 bd
       -0.07841758 -0.07393726 -0.06883854 -0.074003376
000150 9c 48 f7 bb 0a 3d 7b 3d 0a cb 8e 3d a1 2e 74 bd
       -0.0075464975 0.06133751 0.069723204 -0.05961478
000160 c4 b8 54 3d 5c ee af 3d 42 3d 9a bd 45 53 0e bd
       0.05193402 0.08590385 -0.07531215 -0.03474738
000170 fd e3 7b bd 4c 33 81 3d 70 48 3a bc 7e bd aa bd
       -0.061496723 0.06308612 -0.0113698095 -0.08336924
000180 03 d8 85 bd d7 70 5b 3d fb ab 40 3d e2 4c 22 bd
       -0.065353416 0.05357441 0.047039013 -0.039624102
000190 0d dd b1 bd e4 14 8a bd 75 31 3e 3c 4d 06 74 3d
       -0.0868474 -0.06742266 0.011608471 0.05957632
0001a0 b3 fd c6 bc 87 1d 1e bd 75 3d 55 bd a1 70 02 bd
       -0.024290895 -0.03860238 -0.052060563 -0.031845693
0001b0 35 b7 db 3c 63 48 a5 39 5a 7c a7 bd f8 dc 46 bd
       0.026820758 0.00031525185 -0.08178015 -0.048550576
0001c0 4e 42 21 bc 0a c1 8f 3d e6 2b 53 bc 50 16 bf 3c
       -0.009842468 0.07019241 -0.012888884 0.02332607
0001d0 f4 24 f2 3b f3 17 43 3d f1 5f 8b bd 2d 8c a6 3c
       0.007389659 0.04763026 -0.06805409 0.020330513
0001e0 0e a6 50 3d fe 86 ac bc f0 f3 91 bc 29 28 87 3d
       0.050939612 -0.021060463 -0.017816514 0.06599457
0001f0 fe bd af 3d 51 7f f7 bb 39 45 ad 3d 08 59 8f 3d
       0.0858116 -0.007553019 0.08460469 0.06999403
