models/example/agent_1_.pth (torch, 40929 bytes, 5 tensors)

fc.weight f4 [128, 68]
000000 96 12 ae bd 2e d7 bb bb 93 59 16 3d f6 e1 79 3d
       -0.08499639 -0.0057324385 0.03670652 0.06100651
000010 48 7f b1 bd c0 40 98 bd 98 66 99 bd 68 e6 bc bd
       -0.08666855 -0.07434225 -0.07490271 -0.09223634
000020 b4 40 dd 3d 56 45 b5 3d f2 1e e1 3d d0 f8 d8 bd
       0.10803357 0.088511154 0.109922305 -0.10594332
000030 8b 7c 97 bd d4 32 44 3d 8c a8 4c bd 88 3d b0 3c
       -0.073968016 0.047900036 -0.049965426 0.021513715
000040 12 66 c1 bd 08 d7 89 3d 0a 68 9f 3d b4 79 3e 3d
       -0.094432965 0.06730467 0.07783516 0.046502784
000050 36 41 ad 3d c0 a8 f4 3c 44 c3 9f 3d ef f0 49 3d
       0.084597036 0.029865623 0.07800916 0.049302038
000060 c0 e0 a9 3d 4f 68 a1 bd 70 b3 78 3d 84 ba 5a 3d
       0.08294821 -0.078812234 0.060718 0.05340053
000070 a0 9c 16 3b bb dc bb 3d 6a f3 e6 bd 38 d5 4f 3b
       0.002298154 0.0917296 -0.11276896 0.0031712782
000080 16 38 9f 3c 6a f1 76 3d d5 eb 0c 3d 20 de 7e 3d
       0.019435924 0.060288824 0.034404594 0.062223554
000090 b0 69 34 bc fb a1 a9 bd 89 de 80 bd 92 88 f4 3d
       -0.011011526 -0.082828484 -0.06292445 0.11940111
0000a0 4e 2b de 3d c6 26 3f 3c aa a5 c7 bd 3d f2 77 bd
       0.108481035 0.011666959 -0.09748395 -0.06053375
0000b0 c4 5e 97 3d 46 84 cb bd 12 32 85 3d fd 1e be 3c
       0.07391122 -0.099373385 0.06503691 0.023208136
0000c0 98 26 ae 3d 5f 65 b1 bd d0 91 78 3d 3c e9 10 3d
       0.08503455 -0.08661913 0.060685933 0.03537868
0000d0 61 14 f7 bd 48 23 03 3d f4 6b 83 3d c0 b9 7c 3b
       -0.12064434 0.03201607 0.06417075 0.0038562864
0000e0 b0 64 e5 3d cc eb 66 3d 20 89 25 bd 88 2d f7 3d
       0.11200845 0.056377217 -0.040413976 0.12069231
0000f0 d0 ed 08 bd d0 93 0e 3d f0 ac a2 bc 52 69 b0 bd
       -0.03342992 0.034808934 -0.019857854 -0.08613838
000100 f6 6d a8 3d 14 5b 8d bc 90 6c fc bb d5 43 96 bd
       0.082240984 -0.017255343 -0.0077033713 -0.07337157
000110 d7 fd e8 bb d0 06 e5 3d 2d bf 50 3d 00 e4 d5 bd
       -0.007110338 0.1118294 0.05096357 -0.10443878
000120 30 27 9d 3d 40 0c 47 3d ac 56 1f bd 22 d9 e1 3d
       0.0767349 0.048595667 -0.038901016 0.11027743
000130 36 20 b2 3d 80 f3 08 3b d0 07 a0 bb 78 c4 81 3d
       0.0869755 0.002089709 -0.004883744 0.063363016
000140 28 cb 78 bd 38 53 54 3d 68 ec c4 bd 44 e0 b7 3d
       -0.06074062 0.051837176 -0.096154034 0.08978322
000150 24 2a 65 3d 8c 09 b2 3d b8 46 d4 3c 0a 93 79 bd
       0.05594839 0.08693227 0.025912628 -0.060931243
000160 5a f8 df 3d 88 12 a1 3c d8 ab 4a bd 0f dc ce bd
       0.10936041 0.019662157 -0.04948029 -0.101005666
000170 20 f0 b5 bd 1c 72 63 3d 94 dd e3 3d 00 20 bf 37
       -0.08883691 0.055528745 0.11126247 2.2783875e-05
000180 22 4d 6b bd eb c4 16 3d 45 a5 ac 3d 81 f4 c7 bd
       -0.057446606 0.03680889 0.0842996 -0.09763432
000190 7a ae 7c 3d b9 15 5f bc b7 17 91 bd fe 13 b6 3d
       0.06168983 -0.013616019 -0.07084601 0.08890532
0001a0 5f 99 96 bd 5b f3 d8 bd 6b 68 56 3d e9 52 e1 bd
       -0.07353472 -0.10593291 0.052345674 -0.11002142
0001b0 44 1d 00 bc a4 f5 df bd 34 fb 34 bd e8 e7 25 3d
       -0.0078194775 -0.10935524 -0.04418488 0.040504366
0001c0 20 8a 16 3b c4 af 47 bd 84 1c 8b 3d eb 3b 11 bc
       0.0022970513 -0.048751608 0.06792548 -0.008864383
0001d0 61 04 d2 bd 90 95 94 bc 5c 9d 9e bd 52 6f 22 bd
       -0.102547415 -0.018137723 -0.07744858 -0.039656945
0001e0 2e cb cf 3d 3e d3 ce 3d 54 98 45 3d b2 89 ac 3d
       0.10146175 0.10098885 0.048240975 0.08424701
0001f0 38 68 d7 bd ac 10 db bd 64 05 c8 3d 64 15 d2 3d
       -0.10517925 -0.10696539 0.09766653 0.10257986
000200 a3 76 f5 bd d4 21 d3 3d 88 9c 92 bd c0 63 06 bd
       -0.11985519 0.103091866 -0.07158762 -0.032809973
000210 74 95 62 bd 3e 88 e6 3d 70 bc 4e 3d 0a 29 d9 bd
       -0.05531831 0.11256455 0.050472677 -0.10603531
000220 80 c1 f2 3d 1b 39 dc bc fd 27 81 bd 8b 65 cd 3d
       0.118533134 -0.026882699 -0.06306455 0.100291334
000230 d0 8b ee 3d 70 8f 59 bd 86 4c a5 bd 3c 95 1d 3d
       0.11647761 -0.05311531 -0.08071236 0.0384724
000240 48 64 90 bc de 90 a5 bd 34 d6 34 3d b8 69 12 3d
       -0.017625943 -0.08084272 0.044149593 0.035745353
000250 a4 b5 ce bc c8 6f f2 bd b0 5e 1c 3c a0 9d 86 bb
       -0.025233097 -0.11837727 0.00954406 -0.004108146
000260 c8 66 a9 3d 10 5d 48 3c bc a6 53 3d 44 6e 45 3d
       0.08271557 0.012229219 0.051672682 0.04820086
000270 9c f5 78 3d 3c c3 a9 3d d4 76 fe bc 1f da 94 3d
       0.060781106 0.08289191 -0.031062521 0.07268166
000280 93 64 ec bd b4 dc d2 bc 38 08 a7 3d e2 c4 f5 3d
       -0.115426205 -0.025740005 0.081558645 0.12000443
000290 64 60 b1 bc bd e8 82 bc 3e 9b ef bd b0 aa b0 bd
       -0.021652408 -0.015980119 -0.11699532 -0.08626306
0002a0 36 12 a5 bd 5f 3e 87 bd 1d 88 d0 bb d6 77 d6 3d
       -0.08060114 -0.06603693 -0.006363882 0.10472076
0002b0 27 c7 a6 bd 5d bf 83 3d 0a ca 1c 3d ee c4 89 bc
       -0.08143454 0.06432984 0.038278617 -0.016817536
0002c0 d9 b7 8c bd b5 7b ad 3c 7b 54 64 3d 55 eb eb bd
       -0.06871004 0.021177152 0.05574463 -0.115194954
0002d0 20 99 95 bb f6 b7 17 bd 9a f6 67 bd 27 f3 cf bd
       -0.004565373 -0.037040673 -0.056631662 -0.101537995
0002e0 e5 a8 be 3d 96 91 78 bd f8 ba 85 bd cc a5 47 3d
       0.09309558 -0.060685717 -0.06529802 0.0487421
0002f0 90 f0 38 3d 98 c2 a2 3c cc 8d b3 3d 8c 90 1a bd
       0.045151293 0.01986818 0.0876728 -0.037735507
000300 a8 6c e6 3d 02 65 a3 3d c4 21 20 bd de 96 8c 3d
       0.11251193 0.0797825 -0.0390947 0.06864713
000310 10 65 cf bd 7c a2 ab bc e4 bc e8 3d 6a ea f0 3d
       -0.10126698 -0.020951502 0.11364153 0.11763461
000320 aa 15 e1 bd a0 ae 97 bc 40 b4 18 3d da a5 32 bd
       -0.1099046 -0.018515885 0.037281275 -0.0436152
000330 4e 08 96 bd 8f cf 85 bd 93 cb 8c bc 2b 7e 50 3c
       -0.07325803 -0.06533729 -0.017186916 0.012725393
000340 8e da d6 3d c4 04 e1 3d 18 01 ee 3d c4 35 e0 3d
       0.10490905 0.10987237 0.11621302 0.10947755
000350 98 4e e9 3d 00 80 db bd 18 d8 c3 bd 8c 1f b0 3d
       0.11391944 -0.107177734 -0.09562701 0.08599767
000360 18 f1 46 bc c2 0e e8 bd d0 ca ea 3c 70 48 e4 bc
       -0.012142442 -0.1133094 0.028661162 -0.027866572
000370 2a 6b ba bd 6c 1b 11 bd 4c d5 27 3d 00 94 09 bb
       -0.09102471 -0.035426542 0.0409749 -0.0020992756
000380 e2 c5 99 bd 38 19 ac 3d b4 7a 65 3d 03 18 f7 3d
       -0.07508446 0.084032476 0.056025222 0.12065127
000390 5d fe 67 bd b3 c8 8b bd da 7b 95 3d 40 f8 ef 3b
       -0.056639064 -0.0682539 0.072990134 0.007323295
0003a0 3e 1a 42 bd 42 9c 0c 3d c4 4a 1c 3d 7e 6c 34 3d
       -0.047388308 0.034328707 0.03815724 0.04404878
0003b0 8b b7 a3 3d d1 f1 64 3d bf 44 ea bd 34 f1 4c 3d
       0.079939924 0.055894677 -0.114388935 0.050034717
0003c0 be 40 ea bd 5c ec 94 bc 7a b2 e9 bb d1 db 52 bd
       -0.1143813 -0.018179111 -0.007131872 -0.051479165
0003d0 cb 60 3d bc 90 87 0c 3d b5 30 c2 3d b4 5e 20 3d
       -0.011558722 0.03430897 0.094819464 0.039152816
0003e0 9a 02 7b bd 68 d3 8d bc 6a ef b8 3d 1b a3 3e 3d
       -0.061281778 -0.01731272 0.090300396 0.04654227
0003f0 09 54 42 3d 98 be d8 3d 9a fb f3 bd 52 29 11 bd
       0.047443423 0.10583228 -0.119132236 -0.035439797

fc.bias f4 [128]
000000 fd 60 3c bd c1 21 82 bd f4 e0 f3 bb b5 77 72 bd
       -0.045990933 -0.06354094 -0.007442588 -0.059196193
000010 33 8b 71 bc 76 d5 ef bd 79 04 dc bd 78 48 a7 bd
       -0.01474266 -0.11710636 -0.107430406 -0.08168119
000020 5d f7 e5 bd e1 62 c3 bc 5c 23 51 bd 32 c2 b0 bd
       -0.112288214 -0.02385086 -0.051059112 -0.0863079
000030 ae 87 c8 3d 08 8b 9c 3d dd 20 a9 3d 4d b7 48 bd
       0.09791504 0.076437056 0.08258221 -0.049002934
000040 b5 f0 db bc 10 f4 08 bd e8 f2 a8 3d 28 e5 63 3b
       -0.026848176 -0.03343588 0.08249456 0.003477404
000050 78 3e 67 bc c6 6a f7 bd ec f5 bc 3d 05 39 1d 3d
       -0.014114015 -0.12080912 0.092265934 0.038384456
000060 f1 9d f5 3d e1 ae b9 3d 35 2c 74 bd d0 b9 ac 3d
       0.119930156 0.09066559 -0.05961247 0.084338784
000070 f1 48 8d 3d 0c e0 e0 bd 81 88 4d bd 40 9d 03 bd
       0.06898678 -0.109802336 -0.05017901 -0.032132387
000080 ef ca c6 3d 6f dd 90 bc 10 23 8f 3d 23 16 93 bd
       0.09706675 -0.017683713 0.069891095 -0.071819566
000090 aa 6c 39 bc 20 ca e0 bd e0 ee bd 3d 1b 6d 45 3d
       -0.011317411 -0.10976052 0.092740774 0.048199754
0000a0 94 a8 df 3c 32 62 e2 bd 83 33 91 3d 3a 10 d3 3d
       0.027302064 -0.110538855 0.07089903 0.10305829
0000b0 f0 4b b4 3d 62 98 7e 3d 4c b9 98 bd 70 c9 bd bb
       0.088035464 0.062157042 -0.074572176 -0.0057918355
0000c0 29 7a bb bd f1 40 87 3d 73 75 78 bd 8b eb 9a bd
       -0.091541596 0.066041835 -0.060658883 -0.075644575
0000d0 4b 04 14 bd a3 f1 dd 3d a8 70 a9 3c 62 05 e4 3d
       -0.036136907 0.10837104 0.020683601 0.11133839
0000e0 99 11 b8 bd 2c cb f3 3d 38 9e 0d bd 12 f8 c6 bd
       -0.089877315 0.11903986 -0.034574717 -0.097152844
0000f0 61 78 f0 3c 22 2a 0b 3d 84 6d ea bc 98 2c b5 3d
       0.029354276 0.033975728 -0.028616674 0.08846396
000100 58 5a 9a bd c1 d5 c4 bd d0 d2 9c bc 7b 21 d1 3b
       -0.07536763 -0.09611083 -0.019143492 0.006382165
000110 4b 64 92 bc c8 c7 c2 3d ff f0 f8 bc 28 36 94 3d
       -0.017870089 0.095107615 -0.030388353 0.07236892
000120 3e 19 ad 3b c4 00 72 bd 6e c4 2b bc 74 e2 55 bd
       0.00528255 -0.05908276 -0.010483844 -0.052217916
000130 95 13 7f 3c b2 3a 19 bd d7 a9 c8 bd 17 58 14 ba
       0.015568634 -0.03740949 -0.097980194 -0.00056588784
000140 7a f5 d8 bd bc 33 c9 3d b9 2f e9 3b 71 26 9c bd
       -0.10593696 0.09824321 0.0071162847 -0.076245196
000150 e2 89 d2 bd 3c bf e4 3d 38 2e 3b bd 4d 9e ad bd
       -0.10280205 0.111692876 -0.045698375 -0.08477459
000160 75 87 1a 3d 82 4d ef 3d 1c 2a ef 3d 4e 15 b0 3c
       0.03772684 0.11684705 0.116779536 0.021494534
000170 c5 d4 5a 3d 76 73 07 3c 5b 34 87 bd 8e 2f 85 bd
       0.05342557 0.008267274 -0.06601783 -0.06503211
000180 9e 6b 98 bd ab bc b9 bd 8d 9a cc 3d da 07 9a bd
       -0.07442401 -0.09069189 0.09990416 -0.07521029
000190 c4 ae 93 3d f8 1f 41 3d 1a 33 29 ba 24 dd e0 3c
       0.07211068 0.04714963 -0.0006454453 0.027449198
0001a0 2e 9c d0 bd 9a d0 b0 bd 26 e5 d9 3d f0 7b 8a bd
       -0.10186039 -0.086335376 0.1063941 -0.067619205
0001b0 59 2c e0 bd e5 34 30 3d bd bf e5 bc 09 ac d3 3d
       -0.10945959 0.043019194 -0.02804553 0.103355475
0001c0 2e 42 1c bc b0 06 f8 bd 38 cf e0 bd 28 c7 c4 bd
       -0.009537263 -0.121106505 -0.10977024 -0.096082985
0001d0 cb 62 d8 bd a4 43 72 3d c4 ba cf bd f0 41 0f 3d
       -0.10565718 0.05914654 -0.101430446 0.034974992
0001e0 4e 45 54 3d 8d 88 ce bd 2b 90 e9 bd d9 0c 83 bd
       0.051823907 -0.10084639 -0.11404451 -0.06398935
0001f0 4d da 87 3d e8 29 8e 3d ef df 42 3d 5f f4 d2 bd
       0.066334344 0.06941587 0.04757684 -0.10300516

actor.weight f4 [4, 128]
000000 bf fc f8 3c 8f 74 02 bb 2d c6 48 bd 16 0c 8e bd
       0.030393956 -0.00199059 -0.04901712 -0.06935899
000010 8a 14 3b 3d 6f 8b 3f 3c 37 a4 13 3d fb 0e 48 bc
       0.045673884 0.011690958 0.03604528 -0.012210603
000020 e8 4c 5a 3c 25 ce f7 bc 79 45 a6 bc 38 d9 ae 3d
       0.013324 -0.030249665 -0.020296799 0.08537525
000030 3b cf 10 bd a6 c1 14 3d d4 af 03 bd 5c c9 99 3d
       -0.03535388 0.03631749 -0.032150105 0.075091094
000040 fd a4 aa bd bc 3f 1f bd 82 2b 42 3d ec 00 96 3d
       -0.0833225 -0.03887914 0.047404774 0.073243946
000050 de 0a 9b 3b 39 fa 05 3d be 7d 7f 3d bf 9b 88 3d
       0.00473152 0.032709334 0.062375776 0.06670331
000060 39 69 c0 3c 4a 20 e4 bc e8 61 42 3d 21 fb 7a 3c
       0.023487674 -0.027847428 0.047456652 0.015318663
000070 f6 66 8c bd c6 b9 54 bd 65 fa 7e 3c c4 c3 52 3d
       -0.06855576 -0.05193498 0.015562628 0.051456228
000080 45 38 96 bb db 42 88 3d 60 2a 4d 3d dc ab 90 3b
       -0.0045843446 0.06653377 0.05008924 0.0044150185
000090 aa e8 8d 3d e3 98 82 bd 55 20 97 3d 39 51 fb bc
       0.06929143 -0.06376817 0.07379214 -0.030678378
0000a0 d3 99 64 bd b5 b6 31 bd cc bd 3e 3c 59 8c 01 bd
       -0.05581076 -0.043387134 0.011641931 -0.031627987
0000b0 64 ae 82 3d 54 0e 96 3d e7 b6 a6 3d a2 f1 1e bb
       0.063809186 0.073269516 0.081403546 -0.002425291
0000c0 48 ff ab 3d a1 17 1d 3d d7 ca a2 3d a9 a3 a2 bc
       0.083983004 0.038352612 0.07948845 -0.01985343
0000d0 f0 01 3a bd 8b 33 57 bd 5a 71 a1 3d 3c bd 34 3b
       -0.045412004 -0.05253939 0.07882948 0.0027578613
0000e0 31 2b be bb af c9 94 3c 39 b7 1a bd 90 39 4c 3d
       -0.0058034887 0.018162576 -0.03777239 0.049859583
0000f0 2d e1 12 bc fb 67 99 bc 01 2c f8 3c 14 5d 80 bd
       -0.008964819 -0.01872634 0.03029442 -0.06267753
000100 cb ef 8b 3d 19 1a 80 3d 64 37 3d bd 93 8b 41 bd
       0.06832846 0.06254978 -0.046195403 -0.04725225
000110 4a 4d 20 3d d5 f9 8e 3d de 26 93 3d 13 50 5a bd
       0.03913621 0.069812454 0.07185148 -0.05329902
000120 e6 4e 3b 3d d1 c0 2a bd e2 cc 7f 3d 4d 28 a6 bd
       0.04572954 -0.04168779 0.06245125 -0.081131555
000130 a2 38 6c bd 16 3d cb 3c 71 03 1e bd 52 e8 fc 3c
       -0.057671197 0.024809401 -0.0385775 0.030872498
000140 b3 c2 d9 3b 24 b0 96 bd 21 ad 41 3d 9b f2 6c 3d
       0.0066455244 -0.07357815 0.04728425 0.057848554
000150 f3 e0 89 3c 5f a9 88 bd f2 84 85 bc 47 75 83 ba
       0.016830897 -0.0667293 -0.016298745 -0.0010029458
000160 b9 97 9f bd 79 c9 68 bd a9 7e 49 3d ca b8 23 bd
       -0.07792611 -0.056832764 0.04919306 -0.03997115
000170 f7 1e 94 bc 60 a4 fb b9 1b 42 97 3b 52 9f 28 bd
       -0.018081171 -0.0004799692 0.0046160347 -0.041167565
000180 29 62 98 bd 46 6b ab 3d ac f6 2f bd 0a 6b 77 3d
       -0.074405976 0.0837007 -0.042959854 0.060404815
000190 1e 33 34 3d f2 eb 25 bc 8a 92 de bc d2 b8 9b 3c
       0.04399406 -0.0101270545 -0.027169485 0.019009028
0001a0 2f 32 41 3d e7 d7 97 3d 08 61 60 3d 26 f0 31 bd
       0.047167 0.07414227 0.054780036 -0.043441914
0001b0 98 64 55 bd 57 a0 81 bd 73 aa 84 bd 97 67 b6 bc
       -0.052097887 -0.063294105 -0.06477823 -0.022266192
0001c0 d5 0f 95 bd 6d f7 e2 bc c5 7c 5e 3d e4 92 90 bd
       -0.0727841 -0.027705872 0.05431821 -0.07059267
0001d0 d9 d1 b1 3d d5 dd ae bd 46 77 aa 3d 4c 2f 67 bd
       0.086826034 -0.08538405 0.08323531 -0.05644159
0001e0 13 e2 be bc 3d 53 88 3d a3 5e c4 3c e8 a9 8b bc
       -0.02330116 0.066565014 0.023970908 -0.017048791
0001f0 9c 7c 84 3d 5c e0 9d 3d 3b 8a c8 3b 98 40 fb bc
       0.0646908 0.07708809 0.006119994 -0.03067045
000200 91 3e 8f 3d 00 a5 12 bc 8e a5 a2 bd 11 19 05 bd
       0.069943555 -0.008950472 -0.07941733 -0.03249461
000210 2b f4 c9 bc 97 38 01 3d 98 6e 3d 3c 77 8b 0a bd
       -0.024652561 0.03154811 0.011562012 -0.03382441
000220 f8 8b 8f 3d c4 01 8a bb 1f fd e2 3c 3e 6a aa bd
       0.07009119 -0.0042116363 0.027708588 -0.08321045
000230 71 57 e4 bc f0 ae a6 3d 9d c3 c5 3b 77 d8 33 bd
       -0.027873727 0.081388354 0.006035282 -0.04390761
000240 f4 df c7 3c c0 03 a9 bd e2 17 12 3c f6 37 9c 3d
       0.024398781 -0.082526684 0.008916827 0.07627861
000250 78 00 36 3d 5d b4 de bc 84 99 7e bb ab 1e f2 3c
       0.04443404 -0.027185613 -0.0038848827 0.02955564
000260 34 1d 89 bd 77 64 aa bd 0f 45 af bd 67 4c 91 bd
       -0.06695023 -0.083199434 -0.08558094 -0.07094651
000270 73 9e a6 3c da 45 af bd 81 95 6a bd b0 15 a2 3d
       0.020339226 -0.08558245 -0.057271484 0.07914293
000280 7b 23 73 3d d1 b6 77 bd 9c 9d 72 3d a8 ae 56 3d
       0.05936001 -0.06047708 0.05923234 0.05241266
000290 87 36 b2 3d 9c 1d 61 bd 26 c6 4b bc 09 fc 98 bc
       0.087018065 -0.05495988 -0.012437379 -0.018674867
0002a0 b1 0d 34 bd 8f 57 10 3c d6 a3 57 bd 2b 23 ac 3d
       -0.04395837 0.008809938 -0.05264648 0.08405145
0002b0 7c 34 d9 bc d1 57 c0 bb 54 40 ac bc 36 7e 20 3d
       -0.026514284 -0.0058698435 -0.021026768 0.039182864
0002c0 0d 64 5b 3d 14 a3 16 bd 0b 31 82 bd e5 06 27 bd
       0.053562213 -0.036776617 -0.063570105 -0.04077806
0002d0 57 3f a8 3c 72 68 6c bd 9c 84 97 bc 24 d7 22 3d
       0.020538015 -0.057716794 -0.01849585 0.039755955
0002e0 36 06 5d 3d ef aa 6a bd f3 46 72 bd d1 1f d6 bc
       0.053961 -0.05729192 -0.059149694 -0.026138218
0002f0 9f ce 8c 3c 47 77 a6 38 7b ac 9d 3d ae 8b 5e 3d
       0.017188368 7.937714e-05 0.07698914 0.054332428
000300 e3 8b a2 bd 60 27 a1 bc 16 20 cc bc ea 0d 00 bc
       -0.079368375 -0.019672096 -0.024917644 -0.007815817
000310 f9 bb 55 bd db 19 aa bd c2 27 a3 3d 69 df 8c bd
       -0.052181218 -0.08305713 0.079665676 -0.068785496
000320 27 f9 9e 3d 17 b0 74 3d 3b f3 84 bc 5a d7 aa bd
       0.07762366 0.059738245 -0.016229263 -0.08341856
000330 dd 95 6a 3d 68 ba 56 3d ae 5c a7 3d 43 c9 ca bc
       0.057271827 0.052423865 0.08171974 -0.024754172
000340 7d 19 12 3d fd 93 fc ba 75 20 40 3d 54 d3 09 3c
       0.03566884 -0.0019270178 0.046905953 0.008412201
000350 5a e1 31 bd 9f d0 91 3d 2d bd 6b 3d 2b 6a 60 bd
       -0.043427803 0.071198694 0.05755346 -0.05478875
000360 64 49 d3 bc 64 ab da ba c6 6a 85 3d 5e f0 b2 3c
       -0.025791831 -0.0016683158 0.06514506 0.021843132
000370 c3 49 9f 3d f2 e9 c6 bc a3 cd 0e 3d 54 5e 33 bb
       0.07777741 -0.024281476 0.03486408 -0.0027369456
000380 16 ac 2f 3d af 79 58 3c 66 f1 31 3d 40 7c bd bc
       0.042888723 0.013212605 0.043443106 -0.023130536
000390 dd f7 82 bd 6f f9 1b 3b 07 37 8d bb 1b 60 59 3d
       -0.063949324 0.0023799797 -0.0043095383 0.05307017
0003a0 41 f3 22 bc 15 1b fa bc d2 8a 60 bd 90 62 90 bd
       -0.009945692 -0.030530492 -0.05481989 -0.07050049
0003b0 f0 9c 9b bd c4 71 50 3d 82 18 43 3d da 90 8f 3c
       -0.07598293 0.050889745 0.047630794 0.017525125
0003c0 57 16 60 bd d1 a1 d7 3c c4 c4 28 bd 9f 7d b2 bc
       -0.054708805 0.026322277 -0.041203275 -0.021788416
0003d0 d4 f8 0d 3d 54 5f c9 bb 1b af 71 bd 27 55 8b bc
       0.03466113 -0.006145397 -0.059004884 -0.017008377
0003e0 4f 78 09 3d 12 0d 75 3d 03 04 d6 3b 93 9e e8 3c
       0.033562 0.059826918 0.00653124 0.028395927
0003f0 20 aa 00 3d 22 09 5a 3d cb 7e 55 bd 3a aa ab bd
       0.031412244 0.053231366 -0.052122872 -0.083820775

actor.bias f4 [4]
000000 89 cd 32 bd c9 c1 1d bd dd 77 4b 3d e3 ff 4f 3d
       -0.043653045 -0.038514886 0.049674857 0.050781142

critic.weight f4 [1, 128]
000000 72 59 65 bd 57 0a 33 3b df 6a 9c bd 2c 5e b2 bb
       -0.055993505 0.0027319395 -0.076375715 -0.005443355
000010 8f 6c 5c bc 82 7c 50 bb ae 3b 94 3d 4f 7a 9e 3d
       -0.013453617 -0.0031812494 0.072379455 0.07738172
000020 6e 82 92 3d e3 28 42 bd 44 d6 3c bc ab e9 05 bc
       0.07153784 -0.047402274 -0.011525694 -0.008173387
000030 a2 05 84 bd be 07 26 bd cf 8c 5b 3d 68 78 3e bd
       -0.06446387 -0.040534727 0.053601082 -0.046501547
000040 45 d7 15 bd f5 55 1b 3d 18 6c 00 3d 04 ba c7 3c
       -0.03658225 0.037923772 0.031353086 0.024380691
000050 9b 10 8e bd 56 53 84 3d 07 83 2c 3d 9d e0 ab 3b
       -0.06936761 0.064612076 0.042117145 0.005245282
000060 f5 af b0 bd b5 c5 cb bc 0b be af 3d 58 fa 28 bd
       -0.08627311 -0.024874547 0.0858117 -0.04125437
000070 b9 26 a3 bd 4d 45 5d bb 3c 4d 3e 3d e3 c5 37 3b
       -0.0796637 -0.003376323 0.046460375 0.0028041534
000080 3c 53 b1 bd b3 b4 3d 3d 3c 1f 9e bd c2 33 93 3d
       -0.08658454 0.046314906 -0.07720801 0.071876064
000090 a1 2b a1 bd 66 8b 3e 3d 88 90 30 bd 68 67 0f bd
       -0.0786965 0.04651966 -0.043106586 -0.035010725
0000a0 25 b2 12 bc 1e e6 80 3d a0 74 83 3d 5a dc 24 3d
       -0.008953606 0.06293891 0.06418729 0.040249206
0000b0 49 96 21 bd 7d 7d 0d bc 4f f7 0a 3d 42 1f 4d bd
       -0.039449964 -0.008635876 0.033927258 -0.050078638
0000c0 0a 7a 32 bb 84 12 99 3d 2f e1 b4 bd 39 31 2e bd
       -0.0027233385 0.07474235 -0.08832013 -0.04252741
0000d0 56 3c 0c ba d7 d7 88 3d 83 60 e0 3b e3 45 05 3d
       -0.0005349567 0.06681793 0.0068474426 0.032537352
0000e0 d4 cb 57 3c f3 4b a1 bd eb d9 7a 3d 5f 15 7c bc
       0.013171155 -0.07875814 0.06124298 -0.015385955
0000f0 cb 5a 8f 3d c4 ce 89 bd 8e b7 97 bb 34 fe 91 bd
       0.06999739 -0.067288905 -0.0046300357 -0.071285635
000100 af 75 06 3d e3 08 9c bb d9 8c 12 3d 47 be e5 bc
       0.032827076 -0.0047618016 0.035778854 -0.028044833
000110 f1 fd ab 3d 19 87 69 bd 13 4e 1a 3d 52 d8 32 ba
       0.08398045 -0.057013605 0.037672114 -0.00068223954
000120 f7 a1 92 3d 12 f3 02 3d b3 6b 5c bc 44 51 23 bc
       0.071597986 0.03197009 -0.013453412 -0.009968106
000130 2c fc 35 3d 44 12 4c 3d 4e 26 05 3d a6 9c a6 3c
       0.044429943 0.049822107 0.032507233 0.020338368
000140 fb 00 06 bd 51 4b 95 bd 29 51 11 bd 39 49 3f 3d
       -0.03271578 -0.07289756 -0.03547779 0.04670069
000150 a1 40 ae bd 69 c1 18 bd 50 6e 35 bd c4 5b 62 3d
       -0.08508421 -0.037293825 -0.044294655 0.055263296
000160 62 d6 66 3d c8 ff 6b 3a b7 ed 3e 3d d6 d6 f2 3c
       0.056356795 0.0009002653 0.04661342 0.029643457
000170 13 53 d6 3c e9 44 25 bd 5f 10 4e 3c f0 7d 11 bd
       0.02616266 -0.04034892 0.012577145 -0.035520494
000180 c6 e0 51 3d 2b 45 ef bc 32 5d 40 bc 9d 4e 23 bd
       0.05123975 -0.029207787 -0.0117409695 -0.039869893
000190 5f 28 33 3c 63 a8 72 bd 09 85 a3 bd 4f 9e 5d 3d
       0.010934918 -0.059242617 -0.07984359 0.054106053
0001a0 c7 b8 9b 3d d1 ee b9 ba 83 30 c9 bc 45 2f 9e bc
       0.07603603 -0.0014185553 -0.024559265 -0.01930965
0001b0 f9 80 7c 3d 37 b8 97 bc fa f6 24 bd ff 2b b1 3d
       0.061646435 -0.018520458 -0.040274598 0.0865097
0001c0 b5 36 39 bd 22 7c ce bc 54 f6 3e 3d 79 72 ae 3d
       -0.04521819 -0.025205676 0.046621636 0.08517928
0001d0 73 43 8b bd c8 63 95 3d 7e 31 8e bd 4b 7b 1f bb
       -0.06799974 0.072944224 -0.06943034 -0.0024334963
0001e0 76 03 e6 bc 72 18 a7 bd 92 86 a8 bd da 25 4b b9
       -0.028077822 -0.081589594 -0.08228792 -0.0001937369
0001f0 3d e6 48 3b 98 14 89 3d 67 f0 12 bd 42 be f4 3c
       0.003065481 0.06693381 -0.035873797 0.029875878
