models/example/agent_2_.pth (torch, 40929 bytes, 5 tensors)

fc.weight f4 [128, 68]
0.108049445 -0.0023470744 0.116674855 0.047606714 -0.09981704 -0.09259488 0.07650182 -0.05048345
-0.0878914 -0.033719055 -0.060875006 0.0016231462 0.11882989 -0.037508428 0.005512655 -0.12040078
0.08891207 0.06644511 -0.06266021 -0.08546445 0.058763787 -0.07696759 0.025762573 0.10668695
-0.04941825 0.03337325 -0.110039644 -0.08198457 -0.10924086 0.04667598 -0.024946682 0.09408416
-0.0034832007 -0.03205786 -0.046437327 -0.02943895 -0.050697766 -0.06327106 -0.022811703 -0.051792588
0.0008036219 -0.093331404 -0.00026604463 0.0625647 0.0812795 -0.04314722 -0.018750533 -0.07491289
-0.00088329817 -0.03615707 -0.0521575 -0.102443255 -0.06407559 -0.051117443 0.07359634 -0.110922284
-0.07574347 0.048352823 -0.08744094 -0.06993027 0.0778943 -0.11932991 0.0014771968 0.054575488
-0.039773896 -0.043624163 0.02264218 0.007180184 0.0627107 -0.12068151 -0.07069802 0.114547886
-0.022934854 -0.099360496 -0.039246812 -0.03313563 -0.036472365 0.09222111 -0.0044821575 0.11989033
-0.024764277 -0.07949701 -0.016184278 0.07292627 0.061457485 -0.06186471 0.10801108 0.026081115
0.06130208 -0.0324609 -0.0019104928 0.1168631 0.009247976 0.05523114 -0.04304727 0.023471236
-0.11383393 -0.12092903 -0.08913817 -0.030636545 -0.032667007 0.04163189 0.024771726 0.0647791
0.07649687 0.027882151 0.0637113 -0.0025927466 0.01887474 0.11411262 0.022847952 0.047945634
-0.054864764 -0.04713268 0.04025121 -0.1108217 0.011936286 0.11808631 0.0035100356 -0.11548446
-0.111496456 0.045385092 0.09212369 0.025807068 -0.034222744 -0.062354963 0.08331801 0.07967733
-0.11858596 -0.05044277 0.103556246 0.013151646 -0.10322419 -0.092459224 0.0036330298 0.094583616
-0.043088283 0.1157466 0.01832699 -0.038580973 0.08833921 -0.105813734 0.07004817 -0.09986764
-0.019272335 -0.030448444 0.117090166 -0.07505222 0.050292447 0.012427211 -0.070145816 -0.016078949
0.11420263 2.1800399e-05 -0.12061475 -0.096736014 0.103119075 -0.0410577 0.023313895 0.09955488
0.017892743 -0.03963749 -0.04922036 -0.07924344 -0.064243644 -0.03291736 -0.0040594665 0.03784095
-0.0966647 -0.08455501 -0.043687504 -0.044757314 0.04527864 0.113373704 -0.10596055 -0.09184878
0.03609698 -0.10994139 -0.064494036 -0.014313452 0.090234295 -0.08292711 0.10392018 -0.1140245
0.099281475 -0.023272626 -0.021588758 0.014748067 0.07926914 -0.06693981 0.038768336 0.09547655
0.11131297 0.006198719 -0.015561603 -0.07047789 -0.038433008 -0.044232294 -0.0015398338 -0.10655716
0.080345824 -0.11253055 0.07859513 0.113426104 0.11957899 0.035393417 0.027186763 0.061601747
0.053066626 0.11169729 -0.082038835 0.11672072 0.09150772 -0.027505793 -0.090933956 -0.00042456388
0.10249387 -0.014681533 0.007971913 0.0022388697 -0.080808975 0.095918685 0.04124336 -0.0010028705
-0.06809299 -0.114038974 -0.03397636 0.058992904 0.031246377 -0.11342154 -0.088429414 0.07328667
0.08785193 0.019037588 0.11895552 0.02726663 -0.08986312 -0.048850812 -0.09652856 -0.012778141
0.10403441 0.00026453412 -0.053230494 0.046072956 0.0693193 -0.02877611 -0.034664255 -0.063957974
-0.07550906 -0.0020970553 0.019020498 -0.090538435 0.004131991 0.006902501 0.0702374 -0.061273437
00000000: 0749 dd3d 60d1 19bb 3af3 ee3d 42ff 423d
00000010: e06c ccbd 62a2 bdbd fcac 9c3d bcc7 4ebd
00000020: 6800 b4bd fe1c 0abd 1258 79bd c0bf d43a
00000030: 165d f33d 70a2 19bd 80a3 b43b af94 f6bd
00000040: 8817 b63d 6014 883d ff53 80bd fc07 afbd
00000050: 4cb2 703d 2fa1 9dbd 080c d33c b07e da3d
00000060: ca6a 4abd 64b2 083d 775c e1bd 87e7 a7bd
00000070: acb9 dfbd 502f 3f3d fc5c ccbc 32af c03d
00000080: 6946 64bb 1a4f 03bd 1135 3ebd f429 f1bc
00000090: 76a8 4fbd 4294 81bd 9cdf babc 7724 54bd
000000a0: 27aa 523a 8924 bfbd e87b 8bb9 ec21 803d
000000b0: de75 a63d 24bb 30bd b89a 99bc ee6b 99bd
000000c0: 238d 67ba 7019 14bd 1aa3 55bd c5cd d1bd
000000d0: 103a 83bd 8660 51bd aeb9 963d 392b e3bd
000000e0: 641f 9bbd 9c0d 463d 3c14 b3bd 9a37 8fbd
000000f0: 0c87 9f3d 3d63 f4bd 809e c13a 8c8a 5f3d
00000100: f4e9 22bd 40af 32bd 187c b93c c047 eb3b
00000110: 786e 803d de27 f7bd 20ca 90bd 1598 ea3d
00000120: e0e1 bbbc 847d cbbd 44c1 20bd 3ab9 07bd
00000130: 0c64 15bd 6cde bc3d 10df 92bb 1089 f53d
00000140: 74de cabc 54cf a2bd e494 84bc 5e5a 953d
00000150: d8ba 7b3d da65 7dbd ea34 dd3d 10a8 d53c
00000160: e417 7b3d b8f5 04bd 8069 faba ec55 ef3d
00000170: d384 173c 0c3a 623d 5652 30bd c046 c03c
00000180: c321 e9bd a4a9 f7bd 138e b6bd 7ef9 fabc
00000190: d7cd 05bd 3386 2a3d 13ee ca3c e8aa 843d
000001a0: 64aa 9c3d 1c69 e43c 127b 823d 12eb 29bb
000001b0: 339f 9a3c e1b3 e93d a12b bb3c a462 443d
000001c0: e0b9 60bd 320e 41bd 74de 243d 7df6 e2bd
000001d0: 6a90 433c 3cd7 f13d a008 663b 1e83 ecbd
000001e0: 4158 e4bd b8e5 393d 58ab bc3d 5869 d33c
000001f0: 262d 0cbd eb67 7fbd a2a2 aa3d de2d a33d
00000200: 32dd f2bd 149d 4ebd 4c15 d43d 007a 573c
00000210: 3467 d3bd 435b bdbd 2018 6e3b 0eb5 c13d
00000220: 577d 30bd 8e0c ed3d 7c22 963c 1507 1ebd
00000230: 30eb b43d dfb4 d8bd 6a75 8f3d 6887 ccbd
00000240: 04e1 9dbc 046f f9bc f8cc ef3d fab4 99bd
00000250: 74ff 4d3d 809b 4b3c 9ca8 8fbd 00b8 83bc
00000260: 12e3 e93d 00e0 b637 de04 f7bd 881d c6bd
00000270: 1830 d33d 1e2c 28bd c8fc be3c 6ee3 cb3d
00000280: cd93 923c ec5a 22bd 4a9b 49bd 624a a2bd
00000290: 2c92 83bd 5bd4 06bd 4605 85bb 1dff 1a3d
000002a0: 24f8 c5bd 2d2b adbd abf1 32bd 7253 37bd
000002b0: 1876 393d 7930 e83d d801 d9bd 371b bcbd
000002c0: 6dda 133d f428 e1bd 7315 84bd f882 6abc
000002d0: c2cc b83d b0d5 a9bd 1ad4 d43d ad85 e9bd
000002e0: 1654 cb3d 3ca6 bebc e8da b0bc e0a1 713c
000002f0: dc57 a23d bd17 89bd 8ccb 1e3d 3689 c33d
00000300: 0ef8 e33d a01e cb3b 18f6 7ebc b656 90bd
00000310: ee6b 1dbd ec2c 35bd 40d4 c9ba a43a dabd
00000320: 5a8c a43d 6b76 e6bd 7cf6 a03d f24b e83d
00000330: d4e5 f43d b0f8 103d c6b6 de3c 1d52 7c3d
00000340: 645c 593d 8cc1 e43d fa03 a8bd 460b ef3d
00000350: 6668 bb3d d453 e1bc 953b babd 0098 deb9
00000360: 4ee8 d13d d08a 70bc a09c 023c 00ba 123b
00000370: 2d7f a5bd 0471 c43d ccee 283d c072 83ba
00000380: 5674 8bbd 448d e9bd cc2a 0bbd 8ba2 713d
00000390: 67f8 ff3c 8d49 e8bd 7b1a b5bd 5217 963d
000003a0: b6eb b33d b7f4 9b3c f49e f33d 455e df3c
000003b0: 280a b8bd ca17 48bd c4b0 c5bd 685b 51bc
000003c0: fe0f d53d 2bb1 8a39 3808 5abd ffb6 3c3d
000003d0: 47f7 8d3d e0bb ebbc 1bfc 0dbd 66fc 82bd
000003e0: 7ea4 9abd c06e 09bb e0d0 9b3c 376c b9bd
000003f0: a765 873b 602e e23b a0d8 8f3d dbf9 7abd

fc.bias f4 [128]
0.025169598 0.01519529 -0.0139223 -0.060848255 0.09494258 -0.08802573 0.051146936 0.04425927
0.02339065 0.02361529 0.03772127 0.018093556 -0.060229007 0.07037243 0.07835105 0.0651744
-0.010429208 -0.078061216 -0.010643292 0.10818047 0.11213197 0.03196272 0.10008896 -0.08280029
-0.015695486 0.06885955 -0.01689734 -0.09045619 0.00777144 -0.0029336482 -0.10653397 0.10315784
0.060548916 -0.04294344 -0.10080935 -0.09378188 -0.031662732 0.09125213 -0.119757354 0.061178077
-0.041242406 0.005312462 0.07307831 0.089071706 0.0484779 -0.06943146 -0.033003423 0.07701909
-0.021498738 -0.109487176 0.013679153 0.062433563 -0.008093021 -0.10598103 -0.056183904 0.017409263
-0.024590626 0.112687014 -0.07938325 -0.029060347 0.05467907 -0.0016307662 -0.065989204 -0.06556343
-0.10662974 -0.053758845 -0.023609959 -0.057880998 0.06677621 0.11375481 0.063787945 -0.0872232
0.089460135 0.024928786 0.008023104 0.043179385 0.04482692 -0.08596763 0.069909066 0.052698243
0.0063178013 0.09323036 -0.008795508 0.07608127 0.11669152 0.050083186 -0.11091566 0.05930195
-0.059342537 -0.009131492 0.06460432 -0.007531962 0.063948855 0.045199715 0.07416082 0.04132915
0.11913435 -0.09719378 -0.09181747 0.020424709 0.103634305 -0.12104632 0.10719614 0.110355124
0.121165834 0.059797555 -0.08487162 -0.018874045 -0.043864273 0.0038299693 -0.0021397073 -0.03467761
-0.089766435 -0.0972566 -0.09457117 -0.05036886 0.04787618 -0.08623829 0.012294027 0.009614384
-0.09796489 0.10486442 0.015785562 -0.079081506 0.03051827 0.030389154 -0.020278342 -0.105931886
00000000: 7930 ce3c aaf5 783c 5c1a 64bc 053c 79bd
00000010: 4171 c23d d546 b4bd 737f 513d 3549 353d
00000020: c09d bf3c da74 c13c 9e81 1a3d f038 943c
00000030: b1b2 76bd 6c1f 903d 8476 a03d 287a 853d
00000040: 45df 2abc 8fde 9fbd 3461 2ebc b98d dd3d
00000050: 72a5 e53d 57eb 023d 71fb cc3d 3393 a9bd
00000060: d293 80bc 3c06 8d3d 4a6c 8abc 1841 b9bd
00000070: 90a7 fe3b 7342 40bb 7b2e dabd 6b44 d33d
00000080: 2402 783d 76e5 2fbd 2275 cebd b710 c0bd
00000090: c8b0 01bd 66e2 ba3d 5843 f5bd dd95 7a3d
000000a0: cced 28bd 2914 ae3b 15aa 953d 3a6b b63d
000000b0: c390 463d 1532 8ebd 992e 07bd 2fbc 9d3d
000000c0: 1f1e b0bc d03a e0bd 871e 603c 56ba 7f3d
000000d0: 9798 04bc 950c d9bd 1821 66bd df9d 8e3c
000000e0: 4872 c9bc 73c8 e63d af93 a2bd f70f eebc
000000f0: 29f7 5f3d 6fbf d5ba 5925 87bd 1f46 86bd
00000100: b160 dabd 3c32 5cbd ac69 c1bc a014 6dbd
00000110: f7c1 883d 48f8 e83d 41a3 823d 14a2 b2bd
00000120: e036 b73d 7437 cc3c 5673 033c dedc 303d
00000130: 6f9c 373d cc0f b0bd 7c2c 8f3d 1dda 573d
00000140: 8f05 cf3b 8fef be3d 091b 10bc 7fd0 9b3d
00000150: f7fb ee3d 0724 4d3d c027 e3bd 9ae6 723d
00000160: 2911 73bd 419c 15bc 454f 843d adce f6bb
00000170: 9ef7 823d 5623 393d a1e1 973d c148 293d
00000180: b6fc f33d 880d c7bd cc0a bcbd b851 a73c
00000190: 393e d43d 22e7 f7bd a689 db3d de01 e23d
000001a0: cb25 f83d 48ee 743d 2cd1 adbd be9d 9abc
000001b0: 06ab 33bd 3900 7b3b 553a 0cbb 1c0a 0ebd
000001c0: 77d7 b7bd 782e c7bd 88ae c1bd 944f 4ebd
000001d0: d019 443d b39d b0bd e36c 493c a685 1d3c
000001e0: d1a1 c8bd 28c3 d63d b950 813c 7cf5 a1bd
000001f0: 7301 fa3c adf2 f83c c41e a6bc d1f2 d8bd

actor.weight f4 [4, 128]
0.036925454 0.037362333 -0.02010835 0.0748561 -0.07383852 0.06142737 0.07966416 0.08386861
0.0152664855 0.027844792 0.046758186 -0.08792333 0.07939957 -0.04831238 0.008811347 -0.06423047
0.031089777 -0.018422378 0.0755677 -0.051375575 -0.052463576 -0.038234774 0.07418957 -0.0791945
0.07565202 -0.018499486 -0.07078837 0.0073366766 -0.064250946 0.029769443 0.065464295 -0.023571521
-0.043360706 0.005506223 -0.06512527 0.024798976 0.024669435 -0.023949245 0.07076129 -0.05244206
-0.050725352 -0.068979725 -0.047635693 -0.052801907 -0.03146138 0.028107878 0.012280438 -0.01674049
0.07143946 -0.055521958 0.057099607 -0.070346095 -0.08398341 -0.076327175 -0.066857755 -0.036147196
0.0071125785 -0.069158636 -0.0283879 -0.047728073 -0.07514837 0.058113765 -0.015430215 0.05307941
0.0479557 -0.011896997 -0.027962957 0.03532246 0.0046423445 -0.022475217 -0.04568232 0.03589564
-0.013327857 0.08243027 0.05790771 0.019532947 0.023799594 0.08780329 0.0005916311 0.008045639
-0.025048729 -0.06413521 0.084714904 0.024671834 0.057997223 -0.05677305 -0.053636752 0.050712503
-0.039827034 0.07622394 -0.027721394 0.066658124 0.04056623 0.008059618 0.026182054 0.011085827
0.05144287 0.011071499 0.010831496 -0.0018747066 -0.032710925 0.05882196 -0.016285319 -0.05824019
0.027944928 -0.053435624 -0.050837956 -0.051375736 -0.0139513165 -0.07496306 -0.010233189 0.033512674
-0.014078187 -0.0692309 -0.034772184 -0.015724016 0.05606468 0.05038727 0.061177462 0.07299246
-0.0033866586 -0.075173445 0.045613162 0.061789438 -0.045620713 0.058401473 0.035912175 0.08264225
-0.003086 -0.054096792 0.08050419 -0.027970543 0.017805343 0.04047587 0.028547276 -0.056490667
0.012809355 0.01726229 0.0007095318 0.036982693 0.021110117 0.044919476 0.06873947 -0.079387285
-0.01992064 0.030246582 0.04043134 -0.08082761 0.08768056 0.045511093 0.016180916 -0.04386848
0.06929758 0.08138495 -0.009308565 -0.0715379 -0.085603304 0.03745343 0.07689366 -0.018094879
-0.062137816 -0.054807853 -0.021711884 0.03122942 -0.055506207 -0.052678723 0.06246306 0.064196415
-0.005664078 0.042022802 0.04899281 0.015543152 -0.085842974 0.010228725 -0.008443388 -0.009995437
0.085442945 0.014213226 -0.018777095 -0.000675831 -0.051585943 -0.028437488 0.07700983 0.03499114
0.05456221 0.051188283 0.057705116 -0.031843193 0.033480987 0.008696699 -0.046039525 -0.020479057
0.05974356 0.07739096 -0.077143885 -0.039227143 -0.06600158 -0.06541506 -0.0053941146 -0.01583504
-0.0016859849 0.03519175 0.055206034 -0.03543843 -0.059642643 0.002652759 0.0354623 -0.0073535335
0.016098361 0.06191326 -0.0069667744 0.0431696 -0.0068586217 -0.02532466 -0.03080206 -0.050198607
-0.077709295 0.009594006 0.059520014 0.0011996615 0.08259236 -0.084631585 -0.04312366 0.024336493
0.061734546 -0.047870085 -0.049511608 0.08008768 0.004343014 0.03429368 0.045411415 0.051669564
0.0027193357 -0.0005183337 -0.06289271 -0.068614535 0.012515747 -0.021770358 -0.08316416 -0.023701932
-0.08556019 -0.044824433 -0.07182837 -0.040231984 -0.041719873 0.02855464 0.08252289 -0.05068784
-0.037513915 -0.04700972 0.019399663 0.066177286 -0.08634114 0.08656392 0.021342576 0.07996734
00000000: 253f 173d 3f09 193d 44ba a4bc 284e 993d
00000010: a638 97bd 449b 7b3d f726 a33d 4ec3 ab3d
00000020: 4820 7a3c c31a e43c 8385 3f3d 2611 b4bd
00000030: 3e9c a23d 34e3 45bd 785d 103c 448b 83bd
00000040: fdaf fe3c 87ea 96bc 3dc3 9a3d 326f 52bd
00000050: 0ce4 56bd 119c 1cbd b4f0 973d ba30 a2bd
00000060: 72ef 9a3d 3c8c 97bc 7ef9 90bd 8168 f03b
00000070: 0096 83bd 0cdf f33c 2512 863d 1019 c1bc
00000080: ff9a 31bd 8c6d b43b 6660 85bd 3927 cb3c
00000090: 8e17 ca3c 3531 c4bc 4ceb 903d 7ccd 56bd
000000a0: 63c5 4fbd 3e45 8dbd a51d 43bd d046 58bd
000000b0: a6dd 00bd 7e42 e63c e433 493c 5a23 89bc
000000c0: da4e 923d fe6a 63bd 47e1 693d 9d11 90bd
000000d0: 7eff abbd 6c51 9cbd b8ec 88bd 150f 14bd
000000e0: a210 e93b 0ba3 8dbd be8d e8bc 837e 43bd
000000f0: 63e7 99bd b308 6e3d 03cf 7cbc cc69 593d
00000100: 326d 443d 9feb 42bc 9212 e5bc 49ae 103d
00000110: cf1e 983b f21d b8bc 621d 3bbd 4e07 133d
00000120: 155d 5abc 34d1 a83d a330 6d3d 8f03 a03c
00000130: 5ef7 c23c 36d2 b33d b117 1b3a dbd1 033c
00000140: fe32 cdbc 5259 83bd 027f ad3d 961c ca3c
00000150: 7f8e 6d3d dc8a 68bd 36b2 5bbd eab7 4f3d
00000160: ac21 23bd 4c1b 9c3d fa17 e3bc 0e84 883d
00000170: c628 263d 7d0c 043c bf7b d63c 54a1 353c
00000180: c2b5 523d 3c65 353c 9676 313c b7b8 f5ba
00000190: e4fb 05bd 4cef 703d ca68 85bc 448d 6ebd
000001a0: c3ec e43c 50df 5abd 763b 50bd 5d6f 52bd
000001b0: 1094 64bc 3c86 99bd 1ba9 27bc 9644 093d
000001c0: 32a8 66bc eec8 8dbd 476d 0ebd a7cf 80bc
000001d0: 14a4 653d e262 4e3d 3895 7a3d 127d 953d
000001e0: b4f2 5dbb 89f4 99bd ded4 3a3d ec16 7d3d
000001f0: c9dc 3abd 6236 6f3d a518 133d 5740 a93d
00000200: 7d3e 4abb 9994 5dbd 61df a43d 7b22 e5bc
00000210: 83dc 913c 07ca 253d fadb e93c c262 67bd
00000220: 54de 513c a569 8d3c e0ff 393a 2a7b 173d
00000230: 20ef ac3c 7cfd 373d 47c7 8c3d cd95 a2bd
00000240: 9c30 a3bc aec7 f73c 559b 253d f288 a5bd
00000250: de91 b33d d769 3a3d d78d 843c 6faf 33bd
00000260: e4eb 8d3d 27ad a63d f482 18bc 7682 92bd
00000270: c950 afbd c568 193d 6c7a 9d3d b63b 94bc
00000280: 3984 7ebd 337e 60bd 1fdd b1bc d7d4 ff3c
00000290: 7a5a 63bd a5c5 57bd 44d9 7f3d 6979 833d
000002a0: bb99 b9bb 1a20 2c3d afac 483d b4a8 7e3c
000002b0: 71ce afbd 6296 273c 2356 0abc e7c3 23bc
000002c0: b6fc ae3d 97de 683c 6cd2 99bc 402a 31ba
000002d0: c84b 53bd bcf5 e8bc 54b7 9d3d df52 0f3d
000002e0: a07c 5f3d ceaa 513d 335c 6c3d 026e 02bd
000002f0: 5c23 093d 997c 0e3c f193 3cbd b2c3 a7bc
00000300: aab5 743d 277f 9e3d 9dfd 9dbd a4ac 20bd
00000310: d62b 87bd 55f8 85bd 1dc1 b0bb 7cb8 81bc
00000320: 44fc dcba 3925 103d b91f 623d e327 11bd
00000330: d84b 74bd e9d9 2d3b eb40 113d e9f5 f0bb
00000340: b6e0 833c c298 7d3d 8a49 e4bb 9bd2 303d
00000350: 4abe e0bb a975 cfbc 9a54 fcbc 0e9d 4dbd
00000360: 0d26 9fbd 2e30 1d3c 42cb 733d f63d 9d3a
00000370: 2f26 a93d 5353 adbd 6fa2 30bd 535d c73c
00000380: 5ddd 7c3d 6c13 44bd afcc 4abd 0205 a43d
00000390: d84f 8e3b 8877 0c3d 5201 3a3d 77a3 533d
000003a0: e236 323b c9e0 07ba e5cd 80bd c785 8cbd
000003b0: d90e 4d3c c057 b2bc f951 aabd 8e2a c2bc
000003c0: 2e3a afbd d399 37bd c11a 93bd 4bca 24bd
000003d0: 75e2 2abd 6ceb e93c c301 a93d 0d9e 4fbd
000003e0: 31a8 19bd 448d 40bd 0bec 9e3c f587 873d
000003f0: a0d3 b0bd 6d48 b13d a0d6 ae3c ebc5 a33d

actor.bias f4 [4]
-0.04379128 -0.047418628 0.04378882 -0.057568505
00000000: 7c5e 33bd 093a 42bd e85b 333d f4cc 6bbd

critic.weight f4 [1, 128]
0.043494083 0.04196858 -0.029606307 0.014386574 0.008240063 -0.07755701 -0.06632579 -0.0022852006
-0.04780017 -0.013040534 0.061254237 0.0667374 -0.043163836 0.043555528 -0.030367458 -0.05303169
0.0126409065 -0.07576983 -0.010946248 0.04425024 0.07854993 -0.046139143 0.06871978 0.06287209
-0.00059813325 0.043345846 -0.010701646 -0.02218483 -0.02640077 0.055747967 0.02908948 -0.081456356
0.051791295 0.00836409 -0.082089595 -0.043880522 0.0071930005 -0.05820172 -0.018557733 -0.06854418
-0.069448955 0.0004480428 -0.058455534 -0.025093451 0.042250212 0.0006898316 -0.04667247 0.0773813
0.06417786 0.04459546 0.052363914 -0.03870844 0.017658664 -0.060160775 -0.055464428 0.06332165
0.040726013 -0.07922811 -0.0032831149 -0.04959264 -0.04497957 0.03969604 0.01034198 0.009652993
0.06486727 0.05873348 0.057009052 0.018492129 -0.030078601 -0.06945262 -0.015268421 0.034246895
0.07082463 -0.00085570355 0.02449909 0.02683423 0.036320187 -0.07317967 -0.012458081 0.064993694
0.0139378775 0.029238537 -0.016497003 0.05811025 0.009389111 0.052587863 -0.077627376 -0.077791154
-0.06096064 0.021774134 0.046564177 0.021736268 0.08629943 -0.038785193 0.05259967 0.05662253
-0.062763825 0.07473059 -0.027438086 0.03996729 0.020325152 -0.036231026 0.05443409 -0.024393931
0.07501453 -0.051477123 -0.025779646 0.074369155 0.076107174 0.014170716 -0.010112519 0.07944831
0.025181845 -0.017388916 -0.034505796 0.00407353 -0.01774989 0.08275872 -0.061339308 0.05991342
-0.014138692 0.07514098 0.058683127 0.04738108 0.006239435 0.055389844 0.04745459 0.06514987
00000000: da26 323d 3fe7 2b3d ed88 f2bc aab5 6b3c
00000010: 5401 073c 36d6 9ebd d1d5 87bd 4ec3 15bb
00000020: 1cca 43bd f7a7 55bc b9e5 7a3d 9ead 883d
00000030: 90cc 30bd 4867 323d 2dc5 f8bc c237 59bd
00000040: ce1b 4f3c 362d 9bbd e457 33bc bd3f 353d
00000050: c9de a03d 66fc 3cbd f5bc 8c3d 15c3 803d
00000060: 0bcc 1cba 6a8b 313d f555 2fbc f6bc b5bc
00000070: 6d46 d8bc fb57 643d 104d ee3c 97d2 a6bd
00000080: 1c23 543d 8909 093c 971e a8bd 10bc 33bd
00000090: 43b3 eb3b ed64 6ebd 6306 98bc e460 8cbd
000000a0: 413b 8ebd 49e7 ea39 126f 6fbd c890 cdbc
000000b0: 8f0e 2d3d d1d5 343a a22b 3fbd 167a 9e3d
000000c0: af6f 833d bba9 363d 8b7b 563d be8c 1ebd
000000d0: e7a8 903c 256b 76bd ab2e 63bd c8ae 813d
000000e0: 52d0 263d 5942 a2bd 8729 57bb a721 4bbd
000000f0: 7f3c 38bd 5198 223d 6871 293c 9627 1e3c
00000100: 22d9 843d 8492 703d 5382 693d ce7c 973c
00000110: 6667 f6bc 2d3d 8ebd 6628 7abc 7946 0c3d
00000120: 810c 913d 4b51 60ba 51b2 c83c 76d3 db3c
00000130: 7ac4 143d 39df 95bd fb1c 4cbc 6a1b 853d
00000140: b25b 643c a885 ef3c b924 87bc 0305 6e3d
00000150: c9d4 193c 5f66 573d 1afb 9ebd f850 9fbd
00000160: ddb1 79bd ab5f b23c 14ba 3e3d 4210 b23c
00000170: c1bd b03d 39dd 1ebd c072 573d 07ed 673d
00000180: 528a 80bd 5a0c 993d d6c5 e0bc beb4 233d
00000190: ef80 a63c fc66 14bd 48f6 5e3d c8d5 c7bc
000001a0: 38a1 993d add9 52bd d62f d3bc db4e 983d
000001b0: 14de 9b3d 4a2c 683c fbae 25bc ccb5 a23d
000001c0: 284a ce3c 3373 8ebc f355 0dbd 3f7b 853b
000001d0: 3868 91bc 677d a93d ed3e 7bbd c667 753d
000001e0: f9a5 67bc 84e3 993d b85d 703d aa12 423d
000001f0: 2d74 cc3b 76e0 623d bf5f 423d 4c6d 853d
