models/hybrid/nn/MPL/agent1.pth (torch, 40600 bytes, 5 tensors)

fc.weight f4 [128, 68]
0.08426569 0.03700238 -0.055537835 -0.117843375 -0.0850627 0.049456563 -0.059709802 -0.0930972
0.038092867 -0.013179922 -0.10775733 -0.08652962 0.017090611 0.08036378 0.040738463 -0.031117091
0.026212564 -0.08748224 0.058902465 0.11627514 -0.06686173 -0.11204546 -0.07400233 -2.4866527e-05
-0.04298759 0.089942075 -0.021822952 -0.08027152 -0.059104174 -0.05240457 0.095347136 0.0013810826
0.059243105 -0.10687089 0.026507149 0.0376959 0.048747458 0.08572663 0.09114974 0.1069396
-0.050072055 0.1116877 0.115207404 -0.10913575 -0.092529744 -0.08367108 -0.07298622 -0.04796172
0.12047155 -0.09035094 -0.10216928 0.014595998 0.09353101 0.05107883 0.05990859 -0.028105985
0.02972056 0.10447134 -0.11223012 0.08165527 0.041402843 0.04059695 -0.0431467 -0.0015559406
-0.025905931 0.060292087 0.08429889 -0.02343689 0.07785436 0.094805166 0.033035804 -0.03366524
0.068389595 -0.03300554 -0.030800456 0.009986985 0.10966128 -0.10922853 0.0015989769 0.102157615
0.07272631 0.021530068 0.084286004 -0.039792188 0.005379098 0.022409804 -0.0467423 -0.098529704
-0.08333401 -0.03688009 -0.103771545 0.08306074 0.060381263 0.04124696 0.07922179 -0.068789646
0.051966704 -0.08110504 0.06471917 -0.120311275 0.033665214 -0.11248086 -0.012988412 -0.11832455
0.063590884 0.082584694 0.08383085 -0.06808354 0.1106001 0.03738802 -0.038431287 -0.01912092
0.11153463 -0.019417677 0.116887726 -0.035933156 0.059208672 0.031487793 -0.10315304 -0.07519758
-0.02756509 -0.060011275 0.038331673 -0.09413939 -0.032277595 0.07156001 0.11248233 -0.0555001
0.06897062 0.0034496514 -0.09116701 -0.052435808 -0.042807803 -0.06699494 -0.11768528 0.014447619
-0.07145768 0.028550325 -0.089939676 -0.076525755 -0.023667859 -0.08542553 -0.008121174 -0.06625994
0.027710173 -0.027261624 0.09022547 -0.0047658496 -0.012017957 -0.0231834 0.08657054 -0.037067357
-0.017071616 0.087271325 0.11826227 0.025284356 -0.071982555 0.113626726 0.011569105 -0.06324421
0.048435967 0.08087802 0.021072585 0.12097189 -0.052696124 -0.009983329 0.032219358 0.09775324
-0.09128482 0.06708644 0.06924668 0.05701435 -0.014114706 0.05019256 0.0048248842 -0.08105304
0.0878304 -0.09936336 0.038191706 -0.10408443 0.11591664 -0.10473681 -0.11566623 0.098467074
0.07601013 -0.021748705 0.04434135 -0.02094741 -0.050497428 -0.112733565 0.051895276 -0.006795623
-0.050392333 0.10787631 0.11757433 -0.11893142 0.0015143211 -0.09687306 -0.072180115 0.0757673
0.10169432 -0.10911716 0.0405598 -0.052975982 0.06573833 0.12105701 0.06155686 -0.028807268
-0.013470463 -0.11594883 -0.10674726 -0.035642475 -0.033479184 0.056757405 0.08086067 0.103627756
0.0857446 0.118112415 0.04514026 -0.026446046 0.020580929 0.10530726 -0.054117534 0.015098541
0.12056852 0.11562941 0.09251488 -0.09377398 -0.07648377 -0.043984037 0.1197353 0.05811739
-0.08761974 0.020896282 -0.04038105 0.068130165 -0.008526005 -0.08928794 -0.064831756 0.10807884
-0.088261835 0.041415453 -0.11562254 -0.051595226 0.11726502 -0.0080297375 0.034087483 0.00744546
0.10467021 0.07026517 0.0033273227 -0.09138757 -0.08612577 -0.09585293 0.027151959 0.003313271
00000000: 7d93 ac3d cf8f 173d a47b 63bd de57 f1bd
00000010: 5a35 aebd f792 4a3d 4492 74bd bfa9 bebd
00000020: 4407 1c3d 99f0 57bc e0af dcbd 7136 b1bd
00000030: 9c01 8c3c c495 a43d 60dd 263d 45e9 febc
00000040: bbbb d63c e329 b3bd b643 713d a921 ee3d
00000050: cdee 88bd 1778 e5bd 898e 97bd 7698 d0b7
00000060: c113 30bd 8d33 b83d 0cc6 b2bc 6565 a4bd
00000070: 3817 72bd 2da6 56bd 5c45 c33d 7105 b53a
00000080: e6a8 723d 20df dabd 8525 d93c 0467 1a3d
00000090: 6aab 473d 7291 af3d b7ac ba3d 2603 db3d
000000a0: 5b18 4dbd 85bc e43d dcf1 eb3d 9082 dfbd
000000b0: 3c80 bdbd be5b abbd cd79 95bd 8273 44bd
000000c0: cab9 f63d ea09 b9bd 213e d1bd 0e24 6f3c
000000d0: 308d bf3d 0938 513d b662 753d 863e e6bc
000000e0: 8878 f33c 12f5 d53d e8d8 e5bd e13a a73d
000000f0: 0796 293d fd48 263d 98ba 30bd b4f0 cbba
00000100: ad38 d4bc d6f4 763d e5a4 ac3d b9fe bfbc
00000110: 1b72 9f3d 3629 c23d 8d50 073d 90e4 09bd
00000120: d80f 8c3d d130 07bd 3d51 fcbc 73a0 233c
00000130: 1896 e03d 35b3 dfbd c394 d13a 0338 d13d
00000140: 88f1 943d d35f b03c 249e ac3d 22fd 22bd
00000150: 2543 b03b c494 b73c db74 3fbd f1c9 c9bd
00000160: 05ab aabd 940f 17bd 2d86 d4bd c01b aa3d
00000170: 5852 773d 93f2 283d 093f a23d 96e1 8cbd
00000180: 0adb 543d 661a a6bd 7c8b 843d c265 f6bd
00000190: 89e4 093d 5d5c e6bd 59cd 54bc 2454 f2bd
000001a0: f03b 823d 2a22 a93d 82af ab3d 626f 8bbd
000001b0: 4e82 e23d 2e24 193d 206a 1dbd 7aa3 9cbc
000001c0: 456c e43d d211 9fbc d562 ef3d a52e 13bd
000001d0: cb84 723d 58f9 003d e741 d3bd 3001 9abd
000001e0: 2fd0 e1bc 62ce 75bd ac01 1d3d 27cc c0bd
000001f0: 8335 04bd 0e8e 923d 235d e63d 1354 63bd
00000200: 7840 8d3d 8c13 623b c5b5 babd eec6 56bd
00000210: 3c57 2fbd a534 89bd fb04 f1bd b5b5 6c3c
00000220: 6758 92bd 5fe2 e93c 4b32 b8bd 89b9 9cbd
00000230: 19e3 c1bc 95f3 aebd ac0e 05bc 4bb3 87bd
00000240: 7200 e33c c553 dfbc 22c8 b83d d82a 9cbb
00000250: f7e6 44bc 1deb bdbc e54b b13d f1d3 17bd
00000260: c6d9 8bbc 4fbb b23d 7d33 f23d 2321 cf3c
00000270: 976b 93bd 21b5 e83d 588c 3d3c 2e86 81bd
00000280: cb64 463d 60a3 a53d 6aa0 ac3c 1cc0 f73d
00000290: e4d7 57bd 1e91 23bc 72f8 033d da32 c83d
000002a0: 89f3 babd 9e64 893d 34d1 8d3d e187 693d
000002b0: 5e41 67bc b796 4d3d 101a 9e3b 23ff a5bd
000002c0: 6de0 b33d 047f cbbd e86e 1c3d 382a d5bd
000002d0: b465 ed3d 4180 d6bd 6be2 ecbd 1ba9 c93d
000002e0: 33ab 9b3d 572a b2bc 479f 353d e799 abbc
000002f0: 64d6 4ebd dbe0 e6bd 2490 543d d1ad debb
00000300: 3168 4ebd 41ee dc3d cfca f03d 5192 f3bd
00000310: 2f7c c63a 6265 c6bd 2bd3 93bd e32b 9b3d
00000320: 1d45 d03d d178 dfbd 0822 263d 58fd 58bd
00000330: d1a1 863d bdec f73d 0c23 7c3d 38fd ebbc
00000340: 38b3 5cbc 9576 edbd 4f9e dabd d8fd 11bd
00000350: 7821 09bd 747a 683d 479a a53d ca3a d43d
00000360: dd9a af3d ece4 f13d fee4 383d 61a5 d8bc
00000370: 5699 a83c 55ab d73d 59aa 5dbd df5f 773c
00000380: a1ec f63d 1dcf ec3d 7178 bd3d 930c c0bd
00000390: 86a3 9cbd 9b28 34bd c837 f53d 800c 6e3d
000003a0: fa71 b3bd ae2e ab3c 9a66 25bd d487 8b3d
000003b0: a8b0 0bbc 98dc b6bd 83c6 84bd 7058 dd3d
000003c0: 9fc2 b4bd 40a3 293d 83cb ecbd 8455 53bd
000003d0: a528 f03d 298f 03bc 519f 0b3d 0cf9 f33b
000003e0: 565d d63d 2fe7 8f3d 360f 5a3b 6829 bbbd
000003f0: b562 b0bd 8a4e c4bd c96d de3c 7723 593b

fc.bias f4 [128]
-0.12109204 0.050841402 -0.047948394 -0.10948028 -0.07162083 0.022700228 -0.051562924 -0.11517367
-0.08991867 0.03493129 -0.09483731 -0.017386867 0.020946587 0.045449656 -0.06462756 0.09087064
-0.010935079 -0.11402151 -0.04988914 -0.07716819 0.03875162 -0.10290303 -0.019594101 0.050604105
-0.016103279 -0.05323784 -0.046079777 -0.09611665 0.058187384 0.091398634 -0.05312152 -0.10217869
-0.04112591 -0.071349494 0.05839116 0.11627405 0.05052319 0.04352413 -0.09026461 0.058270164
0.10337609 0.002653345 0.0518465 -0.11897628 0.09154082 -0.114307694 0.020018706 0.076724336
0.010933372 0.042803638 -0.113835216 -0.008530416 0.07722405 -0.07514494 -0.0116432095 -0.038548555
0.07777088 0.09403816 -0.08336967 -0.10005425 0.05806606 0.017415203 -0.099681385 0.076549396
-0.016912764 -0.038567957 0.047362298 -0.054742415 -0.07899877 -0.010360373 0.015116414 -0.014126146
-0.090042576 -0.01470191 -0.048216984 0.10969565 -0.10067833 0.0559551 -0.09842263 -0.07504005
-0.1150591 0.045277942 0.0627712 -0.08383401 0.022355018 -0.051557634 -0.062434573 0.109063156
-0.031241994 0.02918135 -0.05932362 -0.07266711 -0.04234523 0.024512518 0.09355032 -0.026783958
0.019918295 0.05154312 0.015608204 0.04121835 -0.02387545 -0.077510625 -0.009436405 -0.0042086025
0.08324493 -0.008999213 0.07299801 -0.08440639 -0.047549635 0.04412744 -0.055003453 0.0053712977
0.021045867 -0.11172092 0.102991365 0.07462941 -0.093791574 0.053785834 -0.06870152 0.044558547
-0.07838177 0.042160023 0.009235697 -0.012846494 0.09097987 0.052077018 0.09516429 -0.0246505
00000000: 1aff f7bd 133f 503d 8965 44bd 3237 e0bd
00000010: f1ad 92bd d4f5 b93c a533 53bd 2ce0 ebbd
00000020: 4827 b8bd 1d14 0f3d 103a c2bd e76e 8ebc
00000030: 2d98 ab3c 6b29 3a3d 745b 84bd 631a ba3d
00000040: 0c29 33bc 1c84 e9bd 8e58 4cbd 5b0a 9ebd
00000050: 05ba 1e3d d3be d2bd cf83 a0bc 4046 4f3d
00000060: 06eb 83bc ec0f 5abd 26be 3cbd ced8 c4bd
00000070: e555 6e3d 352f bb3d f395 59bd 1043 d1bd
00000080: a473 28bd af1f 92bd 922b 6f3d 1721 ee3d
00000090: 68f1 4e3d 5c46 323d a7dc b8bd b2ac 6e3d
000000a0: d8b6 d33d bee3 2d3b ff5c 543d d6a9 f3bd
000000b0: c179 bb3d 271a eabd 45fe a33c a621 9d3d
000000c0: e321 333c de52 2f3d 7022 e9bd 28c3 0bbc
000000d0: a527 9e3d 97e5 99bd 29c3 3ebc 17e5 1dbd
000000e0: 5746 9f3d 1497 c03d b8bd aabd 3ee9 ccbd
000000f0: add6 6d3d 54aa 8e3c c125 ccbd eec5 9c3d
00000100: a38c 8abc 6ff9 1dbd f8fe 413d 9539 60bd
00000110: 1bca a1bd 8ebe 29bc d6aa 773c 5a71 67bc
00000120: 3e68 b8bd 48e0 70bc 2c7f 45bd 1da8 e03d
00000130: 7130 cebd 2d31 653d ce91 c9bd 99ae 99bd
00000140: 1ba4 ebbd 5d75 393d 308e 803d 2ab1 abbd
00000150: df21 b73c 192e 53bd 65bb 7fbd 815c df3d
00000160: 36ef ffbc ba0d ef3c 53fd 72bd 7ed2 94bd
00000170: 3172 2dbd 7ace c83c 4f97 bf3d 086a dbbc
00000180: b12b a33c e11e 533d 8db9 7f3c 93d4 283d
00000190: 7396 c3bc e4bd 9ebd 279b 1abc 51e8 89bb
000001a0: 517c aa3d 6f71 13bc fb7f 953d 42dd acbd
000001b0: 68c3 42bd f9be 343d 4d4b 61bd b601 b03b
000001c0: 6268 ac3c f0cd e4bd 23ed d23d 4ed7 983d
000001d0: cc15 c0bd 894e 5c3d 62b3 8cbd 0683 363d
000001e0: 9f86 a0bd fdaf 2c3d 5251 173c 1a7a 52bc
000001f0: a753 ba3d b64e 553d 7fe5 c23d d8ef c9bc

actor.weight f4 [4, 128]
-0.04934177 -0.07657591 0.026469942 -0.03093415 -0.03832509 0.07330697 0.029832492 -0.025030961
-0.07934857 -0.0840892 0.050886326 0.033148635 -0.022121096 0.022904888 0.030706957 0.016177557
0.04568631 0.009990076 -0.065087125 0.060162313 0.025710331 0.085136145 -0.08675685 0.022315552
0.027329039 0.052851506 0.0058212695 0.004942713 0.01734653 -0.047640167 -0.054187313 0.039894115
-0.04567041 -0.027072811 0.0011295547 0.036832366 -0.023497725 -0.016426854 -0.00075522135 0.006849495
0.08545527 -0.049955353 -0.0628988 0.05457619 0.0011538159 0.053628333 -0.00087462476 -0.08476968
-0.06343892 0.055977385 0.058196235 0.06337824 0.033173416 0.08325651 -0.018919237 0.07297099
0.08213691 -0.08232578 0.07278243 0.001111277 0.04207169 0.078545876 -0.08074129 0.046461448
0.009342615 -0.024190933 -0.053422377 0.012481535 0.06839311 -0.08632624 -0.07031578 -0.033434425
0.038793605 0.06497471 0.02907854 -0.013973588 0.024187895 0.038132295 -0.04092059 -0.04154554
-0.088031195 -0.06472648 -0.0033105598 -0.0446331 0.058570337 0.032454792 0.0035866483 -0.051017374
0.033582635 0.08110916 0.07168919 0.028765792 0.07157875 -0.05950676 0.075880766 -0.06308777
-0.08100368 0.033719983 -0.06859856 0.073738866 -0.057887316 0.071859375 0.0719243 0.05255348
0.034558196 0.05204588 -0.074277 -0.025029743 -0.024359878 0.00836271 -0.045179207 -0.051281247
-0.08296835 0.04317287 -0.060991257 0.037757456 -0.07442803 -0.062160492 -0.06179007 -0.020181043
-0.019497195 -0.07940882 0.026685081 0.049435824 -0.0050782664 -0.009936134 0.077888265 -0.035077337
-0.0082240775 0.039860483 0.019600404 -0.0081361495 0.0617344 0.043355953 0.026146624 -0.023189558
0.06584886 0.0069614938 0.023307513 0.023395117 0.07090122 0.024671452 -0.0704778 0.00848157
0.05236043 0.036444053 0.0752989 0.010748052 -0.0005396191 0.034987167 0.02772465 -0.008359942
0.071721636 -0.028615305 -0.020816544 0.07996753 0.0224839 -0.033639558 0.07933421 -0.08455505
0.040777415 -0.040943366 0.027864628 0.043493077 0.06763261 0.055556223 -0.031868853 0.043217763
-0.08126552 0.078041 0.07389519 0.06857688 -0.056927834 -0.0073812455 0.027111797 0.044804025
0.009088427 -0.018915143 0.006028811 -0.019528877 0.078569464 -0.06446012 0.00560372 0.019297076
0.037384912 -0.019860081 0.076491214 -0.041314643 -0.046218634 -0.007250046 -0.058239624 -0.07399569
0.07234787 -0.012946914 0.08652934 0.08109683 -0.030035341 -0.074897364 0.059362493 0.03797435
0.032834284 -0.04683749 -0.08268308 -0.04478406 -0.063928016 -0.020472452 0.06940595 -0.036676686
0.05750483 0.04276191 -0.0013783735 -0.06119664 -0.041114267 0.06516124 -0.047257107 0.04563254
0.054763332 -0.007939458 -0.066448055 -0.010055217 0.028935118 0.031245502 -0.019394482 -0.029620582
0.025176564 0.022015039 0.013595737 -0.058142185 0.05208732 0.051072456 -0.045605484 -0.05972672
0.07507385 -0.047097124 0.056309186 -0.04816348 0.020338338 0.016770566 -0.017017823 -0.05321641
0.00045696337 -0.0701125 0.010556134 0.012336549 -0.012038136 -0.07733798 0.015682908 -0.0024957547
0.04980489 -0.07675527 0.023117756 0.007140722 -0.07953436 0.06660025 -0.062861815 -0.04073073
00000000: 991a 4abd d5d3 9cbd 7ed7 d83c 9d69 fdbc
00000010: c5fa 1cbd f721 963d 4563 f43c bb0d cdbc
00000020: 8181 a2bd f536 acbd 2e6e 503d ddc6 073d
00000030: 4d37 b5bc 08a3 bb3c 288d fb3c cc86 843c
00000040: 9121 3b3d 6aad 233c 664c 85bd c26c 763d
00000050: 799e d23c dc5b ae3d 93ad b1bd 1bcf b63c
00000060: 26e1 df3c d27a 583d 59c0 be3b 7bf6 a13b
00000070: 4f1a 8e3c 5622 43bd 84f3 5dbd 0368 233d
00000080: e510 3bbd cdc7 ddbc 910d 943a 89dd 163d
00000090: 4d7e c0bc 9c91 86bc 0cfa 45ba bb71 e03b
000000a0: 2c03 af3d fc9d 4cbd 16d1 80bd 488b 5f3d
000000b0: a33b 973a 62a9 5b3d 1347 65ba ba9b adbd
000000c0: 44ec 81bd 8b48 653d 2d5f 6e3d 73cc 813d
000000d0: d9e0 073d 6482 aa3d 84fc 9abc d071 953d
000000e0: 6537 a83d 6b9a a8bd f40e 953d 45a8 913a
000000f0: 5d53 2c3d a9dc a03d b05b a5bd 5c4e 3e3d
00000100: c411 193c 102c c6bc 6cd1 5abd 5a7f 4c3c
00000110: b011 8c3d d0cb b0bd b801 90bd 89f2 08bd
00000120: 0be6 1e3d 7611 853d 1e36 ee3c 7af1 64bc
00000130: b125 c63c 9c30 1c3d 599c 27bd a82b 2abd
00000140: b349 b4bd 518f 84bd faf5 58bb 33d1 36bd
00000150: 73e7 6f3d 51ef 043d f90d 6b3b 98f7 50bd
00000160: f28d 093d 8f1c a63d c8d1 923d 3da6 eb3c
00000170: e197 923d 5cbd 73bd 6067 9b3d 2934 81bd
00000180: 42e5 a5bd f71d 0a3d 677d 8cbd 6704 973d
00000190: 401b 6dbd 022b 933d 0c4d 933d 5142 573d
000001a0: e58c 0d3d 102e 553d 8a1e 98bd 2d0b cdbc
000001b0: 5e8e c7bc bf03 093c d50d 39bd 490c 52bd
000001c0: 4feb a9bd 09d6 303d f8d1 79bd 90a7 1a3d
000001d0: b96d 98bd 009c 7ebd 9617 7dbd b752 a5bc
000001e0: 95b8 9fbc 17a1 a2bd ac9a da3c 387d 4a3d
000001f0: 9667 a6bb 2bcb 22bc e283 9f3d 41ad 0fbd
00000200: 48be 06bc bf44 233d 0791 a03c 7c4d 05bc
00000210: 36dd 7c3d 0396 313d 7231 d63c 07f8 bdbc
00000220: c4db 863d 3e1d e43b 66ef be3c 1ea7 bf3c
00000230: a934 913d c91b ca3c aa56 90bd 48f6 0a3c
00000240: e477 563d 5c46 153d 4f36 9a3d 9918 303c
00000250: 3a75 0dba b44e 0f3d ce1e e33c 23f8 08bc
00000260: cbe2 923d a56a eabc 7587 aabc 04c6 a33d
00000270: 2830 b83c a2c9 09bd f979 a23d 332b adbd
00000280: 3806 273d 3bb4 27bd 5c44 e43c cc25 323d
00000290: f782 8a3d ec8e 633d ea88 02bd 1c05 313d
000002a0: 896e a6bd f6d3 9f3d 5d56 973d 0972 8c3d
000002b0: 292d 69bd 60de f1bb 8f19 de3c 6d84 373d
000002c0: a0e7 143c eef3 9abc 558d c53b 06fb 9fbc
000002d0: 07e9 a03d ab03 84bd 699f b73b e714 9e3c
000002e0: ec20 193d 9cb1 a2bc 6da7 9c3d 8b39 29bd
000002f0: c04f 3dbd cb91 edbb ac8c 6ebd 0d8b 97bd
00000300: 1f2b 943d 4b1f 54bc 4b36 b13d 1816 a63d
00000310: ad0c f6bc ca63 99bd 1626 733d fe8a 1b3d
00000320: 3e7d 063d abd8 3fbd bf55 a9bd 7e6f 37bd
00000330: b1ec 82bd d8b5 a7bc b524 8e3d 4b3a 16bd
00000340: 2f8a 6b3d 1d27 2f3d 8aaa b4ba 54a9 7abd
00000350: 6f67 28bd 4273 853d ab90 41bd 30e9 3a3d
00000360: 844f 603d 8014 02bc eb15 88bd a3be 24bc
00000370: 5709 ed3c 91f6 ff3c 2de1 9ebc dda6 f2bc
00000380: 153f ce3c e258 b43c a7c0 5e3c 8026 6ebd
00000390: 8359 553d 5a31 513d d1cc 3abd 01a4 74bd
000003a0: 52c0 993d eae8 40bd 76a4 663d 1247 45bd
000003b0: 969c a63c 6d62 893c f668 8bbc 73f9 59bd
000003c0: 9694 ef39 2497 8fbd a3f3 2c3c 3d1f 4a3c
000003d0: 9a3b 45bc 6063 9ebd 7179 803c d18f 23bb
000003e0: 3600 4c3d de31 9dbd 7361 bd3c b8fc e93b
000003f0: e9e2 a2bd b665 883d b2bd 80bd 44d5 26bd

actor.bias f4 [4]
0.004749428 0.023230664 -0.012762525 0.06654417
00000000: 17a1 9b3b 3c4e be3c e919 51bc 4f48 883d

critic.weight f4 [1, 128]
0.044299368 0.04326127 0.0652544 -0.06092351 0.028728217 -0.00044522193 0.022080222 0.035078537
-0.015776888 -0.061594214 0.06209742 0.048389338 0.017295728 0.044391584 -0.0118100485 -0.015516995
-0.07528529 -0.013114664 -0.05148 -0.0036953771 -0.059913587 -0.053666186 0.034089424 0.009159399
0.06574594 -0.052089248 0.0622617 0.007498277 0.08645184 0.04778368 0.007593919 0.00069907925
-0.03388144 0.07372802 0.06679943 -0.07383765 0.06594401 -0.012195214 -0.06345584 0.04092687
-0.01140139 -0.05450923 0.0625676 0.051258378 0.009586149 -0.06738263 0.052529875 0.084728174
0.08587449 0.042955007 -0.057211187 -0.033574186 -0.06081023 0.014021778 -0.03731114 0.08282451
0.010555489 0.07245077 -0.08728917 -0.023366006 -0.015740255 0.052160256 0.034784045 0.07754609
0.061755802 0.0077341935 -0.026049344 -0.017607441 -0.08171077 0.027781691 -0.0481462 0.017504485
-0.081120975 0.001235541 -0.02160819 0.0024012753 -0.04749942 0.08179458 -0.069326095 0.04480093
0.08212003 0.023982793 -0.04494919 -0.039957874 0.04656887 -0.037837368 -0.06425617 -0.033021398
0.013556323 0.032615207 -0.054391578 0.009798067 0.07283832 -0.04507636 -0.06581229 -0.080528796
0.02474073 0.054867625 -0.03352678 0.014068059 -0.043511767 0.016984062 -0.036787387 -0.060671754
0.01856663 -0.07817756 0.052967105 -0.06754418 0.046711236 0.03598236 0.06424244 -0.049064822
0.08386964 0.025887555 0.0094424095 0.047412284 0.07824461 -0.05817544 -0.038411006 0.021066833
0.018405609 -0.033684473 0.080723345 0.03139916 -0.062454924 0.026196469 0.050746176 -0.047022186
00000000: 4173 353d bb32 313d 19a4 853d ee8a 79bd
00000010: 7057 eb3c ad6c e9b9 95e1 b43c 83ae 0f3d
00000020: 883e 81bc 374a 7cbd dd59 7e3d e633 463d
00000030: c5af 8d3c f3d3 353d ef7e 41bc ff3a 7ebc
00000040: 2d2f 9abd e3de 56bc b1dc 52bd 242e 72bb
00000050: f367 75bd 13d1 5bbd 5aa1 0b3d 4e11 163c
00000060: cfa5 863d 895b 55bd 2006 7f3d 1bb4 f53b
00000070: aa0d b13d d2b8 433d 69d6 f83b 6a42 373a
00000080: 44c7 0abd b7fe 963d 24ce 883d 3238 97bd
00000090: a70d 873d 6fce 47bc 23f5 81bd efa2 273d
000000a0: e5cc 3abc 1245 5fbd 7123 803d 4ef4 513d
000000b0: 390f 1d3c e8ff 89bd 9129 573d f785 ad3d
000000c0: f7de af3d 97f1 2f3d 4756 6abd 1685 09bd
000000d0: 2614 79bd 99bb 653c 91d3 18bd e69f a93d
000000e0: eef0 2c3c 1261 943d aac4 b2bd 116a bfbc
000000f0: b5f1 80bc fea5 553d b779 0e3d 7cd0 9e3d
00000100: a7f3 7c3d 1e6f fd3b 6f65 d5bc 7b3d 90bc
00000110: fa57 a7bd 6e96 e33c f334 45bd 9165 8f3c
00000120: c122 a6bd e0f1 a13a a903 b1bc b75e 1d3b
00000130: c08e 42bd eb83 a73d d7fa 8dbd 2e81 373d
00000140: 8c2e a83d 9077 c43c a41c 38bd deaa 23bd
00000150: 00bf 3e3d 5bfb 1abd bd98 83bd 7241 07bd
00000160: 571b 5e3c 8697 053d b4c9 5ebd 1288 203c
00000170: 422c 953d fda1 38bd 98c8 86bd 48ec a4bd
00000180: 12ad ca3c e0bc 603d 6053 09bd b77d 663c
00000190: 6539 32bd 2922 8b3c 5fae 16bd f282 78bd
000001a0: 0c19 983c 8e1b a0bd 09f4 583d 9a54 8abd
000001b0: 4854 3f3d 3d62 133d 8a91 833d 32f8 48bd
000001c0: d9c3 ab3d 2312 d43c 56b4 1a3c 6233 423d
000001d0: b63e a03d 5f49 6ebd dc54 1dbd 5a94 ac3c
000001e0: 5cc7 963c bbf8 09bd 4852 a53d 689c 003d
000001f0: bcd0 7fbd fa99 d63c 39db 4f3d 569a 40bd
