models/hybrid/nn/MPL/agent2.pth (torch, 40600 bytes, 5 tensors)

fc.weight f4 [128, 68]
000000 1d da b3 3c 85 3a 1b bd ba 51 9c 3d ae 60 8b bd
       0.02195459 -0.037897605 0.076327756 -0.068055496
000010 55 b1 c1 3d 35 7d 54 bd 8f c8 d5 3c ea 43 29 3d
       0.094576515 -0.05187722 0.02609661 0.041324534
000020 c2 ef dd 3c d9 0d a2 bd 26 4e ca bc 9c 13 76 bd
       0.027091864 -0.079127975 -0.024695467 -0.060077295
000030 c2 02 3b 3d 66 a1 85 bd f9 eb d1 3d bb 4e b5 bd
       0.045656927 -0.06524925 0.10250086 -0.08852907
000040 84 c4 57 bd 61 ff 14 3d e3 60 55 3d 15 ae cf 3c
       -0.052677646 0.03637636 0.05209435 0.025351563
000050 e4 72 a7 3d f6 e3 e6 bd 0e bb 47 bd 0e ec 39 bc
       0.081762105 -0.11273949 -0.048762374 -0.011347784
000060 c7 2a b1 3d 72 e7 a7 bd 9f 5f 80 3d 70 ee d5 bd
       0.08650737 -0.081984416 0.06268238 -0.10445869
000070 6a 20 e7 bd 31 f8 13 bc 11 49 ef 3d f3 b0 05 3c
       -0.11285479 -0.009031341 0.11683858 0.008159864
000080 09 cd a2 3d f8 e7 ad bc ca 1c eb bd ec 21 af 3d
       0.079492636 -0.021228775 -0.114801005 0.08551392
000090 5a 11 f8 3d 45 9a 6a 3d f5 3c cc bc d4 0d c8 3d
       0.121126845 0.05727603 -0.02493141 0.097682625
0000a0 b3 77 61 bd 17 87 6a bd 10 c3 a5 3d 24 d8 ec bd
       -0.055045795 -0.057257738 0.08093846 -0.11564663
0000b0 e5 f7 c7 bd 62 81 85 bd c1 83 b1 3d fb 9b d7 3d
       -0.09764079 -0.065188184 0.08667708 0.10527798
0000c0 fb 14 d1 bc 95 3d 17 3d fa ad 9b 3d e7 16 2b bd
       -0.0255227 0.036923964 0.07601543 -0.04176989
0000d0 2c 02 4a bd 7f 79 b0 bd d5 31 90 bc 39 bf a6 3d
       -0.049318478 -0.086169235 -0.017601887 0.081419416
0000e0 28 c7 c6 3c 52 be 8c 3d 4e 51 49 bc 7b 9d 89 3d
       0.024264887 0.06872238 -0.012287451 0.0671949
0000f0 8f fc 88 bd fd 20 f0 3c 98 1b 83 3d 81 01 3a 3b
       -0.06688797 0.029312605 0.064017475 0.0028382244
000100 b5 d5 cb bd c6 b2 9b 3d c6 6d 4d bd 60 b4 eb bd
       -0.09952871 0.07602458 -0.050153516 -0.11509013
000110 33 7b 21 3d c0 23 d2 3d 51 b3 c9 3d 3e 1f b2 3d
       0.039424133 0.10260725 0.09848655 0.08697365
000120 32 ad bc 3d e1 b9 39 bd 47 ad 19 bd ef 46 14 3d
       0.09212722 -0.045343284 -0.037518766 0.03620046
000130 b0 38 cf 3d a4 9e c5 3d 12 54 c7 3c fa cb ad 3d
       0.10118234 0.09649399 0.02433208 0.08486171
000140 60 db a3 3d 40 65 eb bb 47 d5 48 3d b5 87 ae bd
       0.08000827 -0.007183701 0.049031522 -0.08521978
000150 b6 73 28 3d 2c 84 08 bd 95 83 56 bd 6f 46 5e bd
       0.041125976 -0.033329174 -0.05237158 -0.05426639
000160 d9 a0 ba bc 04 77 6b bc 8b d2 9c bd 7c 80 c1 3d
       -0.022781776 -0.014371637 -0.076573454 0.094483346
000170 28 4a 25 bc 8d 4e b1 3d f3 72 d9 3d f2 e4 de 3d
       -0.010088481 0.086575605 0.10617628 0.108835116
000180 9c 21 ec bc fa 0c b0 3d f4 1e c8 bd c5 70 34 bc
       -0.02882462 0.08596225 -0.09771529 -0.0110132145
000190 b8 4b 80 3d ac a2 71 bd 65 1e a0 3d e5 a2 3a 3d
       0.06264442 -0.058993027 0.07818297 0.045565505
0001a0 83 ee d1 bd 94 3e 21 bc c7 a7 26 bd 32 ec 56 bc
       -0.102505706 -0.00984158 -0.04068735 -0.013117837
0001b0 a3 06 0e bd b3 24 8f bd 43 4f 98 bc 1d 8b 80 3d
       -0.034674298 -0.06989422 -0.018592482 0.06276534
0001c0 6b ba 01 3d e8 75 b4 bd a9 3d 7e bd e9 01 0a 3d
       0.031671923 -0.08811551 -0.062070522 0.033693228
0001d0 bc 89 ce 3d b5 71 88 bd 6e 7d e4 bd 80 e8 e2 3d
       0.100848645 -0.06662313 -0.11156736 0.11079502
0001e0 31 79 eb 3d 6f f6 80 bd 0f 96 8c bd 60 5b 69 3c
       0.11497725 -0.062970035 -0.06864559 0.014242977
0001f0 76 e1 55 3d b4 52 d8 bc ad 57 26 bc 4c 39 27 3d
       0.05221697 -0.026406623 -0.0101527395 0.040826127
000200 b3 d5 c0 ba 62 df 0f 3d c4 ab d2 bd ea c0 ce 3d
       -0.0014712125 0.035125144 -0.10286668 0.10095389
000210 e3 f1 e3 3d cd a1 50 bc 08 8d 86 3b db 66 14 3d
       0.111301206 -0.012733889 0.0041061677 0.036230903
000220 c9 2d f8 3d 76 5e 68 bd 45 7c b0 bd e9 25 e0 bd
       0.12118108 -0.05673071 -0.086174525 -0.10944731
000230 e7 7d 27 3d 65 a8 9a bc f7 ce d0 bd bc 88 56 3d
       0.040891554 -0.018879125 -0.101957254 0.052376494
000240 ba d9 7c bd d7 91 5c bd 74 0d 62 3d ad 00 02 bc
       -0.061731078 -0.05385002 0.05518861 -0.007934731
000250 99 07 c0 bd 8b fe 6c 3d 71 2a f5 bd d7 54 cc 3d
       -0.09376449 0.05785994 -0.11970986 0.099771194
000260 ea 9e 81 bd 84 ea 69 3d fa 5c e0 3d fa 7e 76 bd
       -0.063291386 0.057108417 0.10955234 -0.060179688
000270 4b 5e b5 bc 31 6f f0 3d 70 f9 31 bd c6 6f 2c bd
       -0.022139689 0.11739958 -0.043450773 -0.042098783
000280 0e ca e5 3c 5d f1 bc bd 12 f3 a9 bd 07 a1 71 3d
       0.028050449 -0.09225724 -0.08298315 0.05899146
000290 60 56 ba 3d 79 b3 a6 bc 3e 1e 8c 3d 9b 90 7b 3d
       0.09098506 -0.020349251 0.06841706 0.061417203
0002a0 23 ad f5 bc ef 37 03 3d 58 34 98 3c 8b 9b 47 bd
       -0.029989785 0.032035764 0.018579647 -0.04873232
0002b0 01 5e 52 bc 50 c8 e3 bd a9 8b bc bc fb 62 d0 bd
       -0.012839795 -0.11122191 -0.023015814 -0.10175129
0002c0 d5 0f 89 bd ba 94 59 bb 03 88 14 bd a8 c9 d5 bd
       -0.06692473 -0.003320022 -0.036262523 -0.104388535
0002d0 b4 23 d9 bd 1d d0 47 3d 0d b1 9a bd 2f 1b 91 bd
       -0.10602513 0.048782457 -0.07553301 -0.07085263
0002e0 37 78 da 3d 59 ca c0 3d 4f 15 51 3d e0 60 3c bc
       0.106674604 0.09413595 0.051045712 -0.011497706
0002f0 3c eb bd bd 12 f8 ee bd 68 74 8a bd 2b 59 dc 3d
       -0.09273383 -0.116684094 -0.06760484 0.10759195
000300 62 18 41 bd 1a a3 f2 3c ef 63 89 3d 18 19 1c bd
       -0.047142394 0.029618789 0.06708514 -0.03810987
000310 d8 b9 19 bd fe 81 c9 3b 07 4b c7 bd 5e 8d 60 3c
       -0.03753075 0.0061495295 -0.09731107 0.01370558
000320 e8 24 a1 3d 51 6d 6e 3d b3 18 da bc fa 21 ce 3d
       0.078683674 0.05820972 -0.026623106 0.10065074
000330 1a 58 10 bb 14 d3 96 3d b9 b2 d8 bd ac f5 c1 3d
       -0.002202517 0.07364479 -0.10580964 0.09470686
000340 3b 6f e1 3b a5 90 25 3d f6 ec a1 bd 6c 60 aa bd
       0.006879715 0.040421147 -0.07906525 -0.08319172
000350 ad 50 95 3d 7a e4 dc bd 00 49 d7 3d 75 03 d6 3d
       0.07290778 -0.10785766 0.105119705 0.10449878
000360 a3 ca 9a bd 70 86 b3 bc 15 65 63 3d ca ac a9 3d
       -0.07558181 -0.02191469 0.05551632 0.0828491
000370 8a f1 a5 bd 89 a0 de bc d5 59 08 bd 1f e9 a2 3d
       -0.081027105 -0.027176159 -0.033288796 0.079546206
000380 b9 bf b5 bd 06 74 ae bc 92 18 54 bc 0f 16 f3 3d
       -0.08874459 -0.021295559 -0.012945311 0.11869442
000390 22 89 59 bd 77 38 85 3d ff dd cb bd 13 d9 be bc
       -0.053109296 0.065049104 -0.09954452 -0.023296868
0003a0 af 7c 21 bb 29 22 86 bc 01 9b b0 3d bd 87 8f 3b
       -0.0024640968 -0.01637371 0.08623315 0.004380195
0003b0 00 25 19 3d a0 7b 27 3d 4c fb dc bd 7d 97 97 bc
       0.0373888 0.040889382 -0.107901186 -0.018504852
0003c0 c7 46 91 3b b2 05 62 3d 50 87 95 bb 12 c8 22 3d
       0.004433486 0.055181213 -0.0045632496 0.039741583
0003d0 8c c7 71 3d 18 e8 81 3d 9b 93 07 3c e9 3a e3 bd
       0.059028193 0.063430965 0.008274938 -0.110952206
0003e0 96 b3 97 3d 64 5a c1 bd 28 15 34 bd 3b 33 c1 3d
       0.074073 -0.09441069 -0.04396549 0.094335996
0003f0 77 9b 62 3d d2 e1 c0 3d 6a 49 91 bc e4 d1 a2 3d
       0.055324044 0.09418072 -0.017735202 0.0795019

fc.bias f4 [128]
000000 e5 40 8e bd 9b f8 80 bc 8b 6a 1c bd 34 d9 df 3d
       -0.069459714 -0.015743544 -0.038187545 0.109301
000010 b6 ee a6 bd 05 58 a0 bd 4a a9 04 3d ef 59 20 bd
       -0.08150999 -0.078292884 0.03238801 -0.039148267
000020 b9 80 a7 3c 2b a0 e6 3d 2e e1 c6 bd f8 76 02 3d
       0.020447122 0.11261018 -0.09710918 0.03185174
000030 88 84 dc 3d ab 56 e9 bd 3e 24 dd 3d 8a 90 c3 bd
       0.10767466 -0.11393484 0.10797928 -0.09549053
000040 94 b7 93 bd af 30 05 3d 5d b1 b9 bd 1e cd 99 3d
       -0.07212749 0.03251713 -0.090670325 0.07509826
000050 80 67 88 3b 46 3d 00 bd 7a b5 1b bd 83 d8 cb 3d
       0.004162729 -0.031308435 -0.038014866 0.09953406
000060 c2 82 d0 bd f9 e2 8e bd ba e3 a8 3d d0 a2 92 3d
       -0.1018119 -0.06976885 0.082465604 0.0715996
000070 7e 78 e7 3c 21 c1 62 3d 54 af 3e bd 49 2f 70 3d
       0.028255697 0.055359963 -0.046553925 0.058638845
000080 13 9e 0d bd 6d 81 4e bb ce d2 9c bd f9 6f 50 3c
       -0.03457458 -0.003151025 -0.07657395 0.012722009
000090 0f e7 68 bd 38 be 37 bd e3 97 ae bd d8 13 f4 3c
       -0.05686098 -0.04485914 -0.08525064 0.029794618
0000a0 e1 64 63 bd 9d 61 b2 bd b3 0e 24 3d 81 6f 50 bc
       -0.055516127 -0.087100245 0.04005308 -0.012721897
0000b0 58 07 51 3d b4 e9 56 3b f0 94 c7 bb 9c 00 ae bd
       0.051032394 0.0032793107 -0.006090753 -0.0849621
0000c0 c0 d8 6f 39 e2 9e bf bc a4 74 d6 3d ef ea ac 3d
       0.00022873562 -0.02339119 0.10471466 0.084432475
0000d0 c2 af a5 bd db b2 81 3d 08 2e e4 3d ad 2b 3a bd
       -0.08090164 0.06332942 0.11141592 -0.04545181
0000e0 b9 88 84 3d f6 5e c7 3d 16 e1 c6 bd 1d eb 07 bd
       0.0647139 0.09734909 -0.097109005 -0.033183206
0000f0 d5 a4 af bd b2 e0 d4 3d 7f 59 c0 3d 6e 5a f1 bc
       -0.08576361 0.1039442 0.0939207 -0.029462066
000100 af 53 e9 3d 80 bb 5c 3d 6e 62 85 3c ad 58 b3 3d
       0.113929145 0.05388975 0.016282286 0.08757148
000110 80 14 62 3d d4 73 f7 bc 47 ee 80 bd 52 92 ad 3d
       0.05519533 -0.030206598 -0.06295448 0.08475174
000120 c6 b1 15 bc eb ad b3 3d 48 07 90 3d 1c b9 d7 3d
       -0.009136623 0.087734066 0.07032639 0.10533354
000130 70 59 81 3d d4 35 ea 3d bc 34 b7 3d 15 e8 a2 3d
       0.06315887 0.11436048 0.08945605 0.079544224
000140 01 71 b5 bc f0 dc d2 bd 21 0e aa 3d 4b 19 64 3d
       -0.022148611 -0.10296047 0.08303476 0.055688184
000150 b8 31 82 bd a9 25 e1 bd 90 41 a5 3d be 70 b7 bd
       -0.06357139 -0.10993511 0.08069146 -0.08957051
000160 a0 22 30 bd d8 d0 da bd b6 76 a0 3d d5 c0 0c bc
       -0.04300177 -0.10684365 0.07835142 -0.008590897
000170 79 76 aa bc 27 1d 08 3d 5b ee db bc 83 4f eb bd
       -0.020808445 0.033230927 -0.026847055 -0.11489775
000180 bf bc ba 3d 9a ce b4 bd ab 09 8e 3c 34 da 8e bd
       0.09118032 -0.088284686 0.017338594 -0.06975213
000190 81 8c bc bd d1 70 a1 3c 49 ce 4c bd a1 3f b5 bc
       -0.092064865 0.019707115 -0.050001416 -0.022125067
0001a0 48 d4 b5 3d f0 9e 8d bb e8 11 43 3d 50 3b 0c 3d
       0.0887838 -0.0043219253 0.0476245 0.034236252
0001b0 3f 64 2d 3d 52 0f 8a bd 7f 44 a7 bd c8 75 5d 3d
       0.04233193 -0.06741203 -0.081673615 0.054067403
0001c0 bf 68 ed 3d 36 31 db 3d 02 9f 4d bd 33 a8 f0 b9
       0.11592244 0.107027456 -0.05020047 -0.00045901685
0001d0 e5 f6 2c bc 2b b1 d1 3d 53 d4 eb bc aa dc 40 3d
       -0.010556911 0.1023887 -0.028787768 0.04708544
0001e0 7b 1b ea bd a1 3a c9 3d 8d 5b ee bd b6 07 80 3d
       -0.11431023 0.09825636 -0.11638556 0.06251471
0001f0 f6 b3 14 bd 15 c2 99 3c 6f 66 24 bd ca a7 c9 bc
       -0.036304437 0.018769303 -0.04013675 -0.02461614

actor.weight f4 [4, 128]
000000 74 fa 35 3c b8 1c 62 3d 63 77 2c 3b dc de 98 3d
       0.011107076 0.05520317 0.0026316277 0.07464382
000010 bf 82 ad 3d b2 ea 96 bd d3 15 63 3d 89 0b 04 3d
       0.084722035 -0.07368983 0.055440735 0.032237563
000020 43 2a 50 3d 7d 84 1c 3c 15 12 2b bd 50 90 85 bc
       0.050821554 0.009553072 -0.04176529 -0.016304165
000030 1f ad 54 3d b1 b9 a0 bd d5 75 8d bd f0 23 1a 3d
       0.051922914 -0.07847918 -0.0690724 0.03763193
000040 b2 4b 41 3d 83 75 99 bd cf 39 35 bd de 63 5b bc
       0.04719133 -0.07493117 -0.044244584 -0.013390509
000050 85 57 34 bd 84 dd 33 3b f2 6d 95 3d 65 d0 93 3c
       -0.044028778 0.0027445266 0.07296361 0.018043706
000060 91 4f f1 3b 99 e2 85 bc d5 3d 6c 3d b7 5b 96 3c
       0.0073642214 -0.016343402 0.057676155 0.01835428
000070 20 eb 8d bd 29 44 08 3c fb 93 98 bd b1 d0 04 bd
       -0.06929612 0.008317032 -0.074501 -0.032425586
000080 76 b6 2d 3b 64 17 27 bd dd 17 af 3d f6 6d 61 3d
       0.002650646 -0.04079379 0.085494734 0.055036508
000090 04 9d 61 3b f7 0a 29 3d b2 66 aa bd 3f 49 21 bc
       0.0034425864 0.041270223 -0.08320369 -0.009844123
0000a0 03 b8 91 bb 5f 24 a7 3c a8 f9 99 bd c1 d6 b0 3d
       -0.0044469847 0.020403085 -0.07518321 0.08634711
0000b0 49 ec 0a bd c4 b2 15 bd 13 99 3b 3d 53 69 93 3b
       -0.033916745 -0.036547437 0.04580028 0.0044986396
0000c0 81 61 c0 ba 31 6f ad bd c6 4b cb 3c a7 fe 39 bd
       -0.0014677496 -0.08468474 0.024816405 -0.04540887
0000d0 42 99 04 3b 7c 93 42 bd af ac a3 bc 2d 1e 89 bd
       0.002023295 -0.047503933 -0.019979803 -0.06695209
0000e0 ac 52 06 bd a9 fc 63 bd f3 59 8a 3c 2f 17 c9 bc
       -0.032793686 -0.055660877 0.016888594 -0.024547188
0000f0 75 61 ea 3c be d4 aa bc f4 82 45 ba 2c 0f b3 bd
       0.028610924 -0.020853397 -0.0007534467 -0.08743128
000100 2f 58 87 bd 78 71 79 bd f6 c5 54 3d a2 e9 c5 3b
       -0.066086166 -0.060899228 0.051946603 0.006039814
000110 e0 70 c0 bb b6 75 8c 3d 20 0b 48 3d b2 29 a6 3d
       -0.0058728307 0.06858389 0.048838735 0.081134215
000120 e7 4e e0 bc 37 d2 11 bd 81 31 92 3d 02 4d 8d 3d
       -0.027381374 -0.035600867 0.07138348 0.06899454
000130 24 c2 83 bc 1c c9 8c 3d 02 27 63 bc 0f b2 70 bd
       -0.016083784 0.06874296 -0.013864281 -0.05876356
000140 be f6 3b 3d cd 6a 91 3c 8b ac c6 bb 24 63 20 bd
       0.04588961 0.017751122 -0.006063049 -0.039157048
000150 72 57 92 bc 35 9c 4f bc 18 0d 91 bd a6 8d 8f bd
       -0.017863963 -0.01267152 -0.070825756 -0.07009439
000160 3d d8 8f bc 5d b7 ab 3c be f1 6a 3d 8a 76 4a 3d
       -0.017559165 0.020961458 0.05735945 0.049429454
000170 32 fc 0d 3c 63 cc af 3c 1e 0a 3a 3d da 91 2e bd
       0.008666085 0.021459764 0.045419805 -0.042619564
000180 b3 c5 bf bc 73 5b 89 bd 3b 72 a8 bd 0a cf 8d bc
       -0.0234097 -0.06706896 -0.08224913 -0.017310638
000190 b9 6b 51 3d 74 07 38 bd b6 2b 09 3c 01 05 60 3d
       0.051128123 -0.044928983 0.008372238 0.054692272
0001a0 7d 34 2f bd 0b 47 89 3c f4 8a 92 3d f9 be 2f bd
       -0.042774666 0.016757509 0.071554095 -0.042906735
0001b0 95 ec 7b bd bd e4 f9 bb 29 7c 06 3d 0f 16 f6 3c
       -0.06150492 -0.0076261447 0.032833252 0.030039815
0001c0 7e 96 84 3d 78 ab 8b 3b 78 d5 1e bd f8 6a d2 3c
       0.064740166 0.004262384 -0.0387778 0.025685772
0001d0 5f 52 f0 bc 1d bd 5b bd 23 03 4f bb 1d 62 91 3d
       -0.029336153 -0.05364715 -0.0031587563 0.07098792
0001e0 61 b6 33 3d 64 84 15 3c 20 6a 96 bc 35 e9 93 bb
       0.043875102 0.009125803 -0.018361151 -0.0045138844
0001f0 80 2d 8d 3d 68 84 c6 3c 52 ae 8f bb df d5 f0 bc
       0.06893444 0.024233058 -0.0043847943 -0.029398857
000200 e4 d8 57 3d 27 8d 23 bd 53 c8 2a 3d 64 9f 3b 3d
       0.052697077 -0.039929535 0.04169495 0.045806304
000210 e8 6c a0 bd 7e a8 8a 3d f8 9d 41 3d f2 95 8c 3d
       -0.07833272 0.067704186 0.04726979 0.06864537
000220 d3 21 63 3d 0e 6f b0 3c b1 7d 93 bd 30 d2 dd 3b
       0.05545218 0.02153733 -0.07201708 0.006769441
000230 f4 ce 0a bd 94 72 ae bd e0 61 41 3c 5f e8 b4 3d
       -0.033888772 -0.08517948 0.01180312 0.08833384
000240 1a 48 85 3d 45 10 99 bd 5b d3 90 3d 73 86 11 bd
       0.06507893 -0.07473806 0.07071563 -0.03552861
000250 b6 42 ca bc e9 87 9f 3a bf 9e b1 bc e9 d0 e8 bc
       -0.024690013 0.0012171242 -0.021682141 -0.028419929
000260 04 9f db bc 85 da be 3c 41 c6 1b 3d ad 1e 4e bd
       -0.026809223 0.023297558 0.038030867 -0.050322223
000270 15 6d 2f 3d 7c d6 72 3d bc 5d 5e 3d 46 74 01 bd
       0.042828638 0.05928658 0.05428861 -0.031605028
000280 b6 a5 8f 3d 8f a1 d7 3b 19 40 96 bd 11 55 60 3d
       0.07014029 0.0065805386 -0.073364444 0.054768626
000290 4c 5a 9a bc 74 42 1a bd a9 43 63 3d e2 cf 9e 3d
       -0.018841885 -0.03766103 0.055484448 0.07754494
0002a0 63 75 b2 3c a3 56 6d 3d 77 46 36 3b f4 52 3b bc
       0.02178449 0.05794395 0.0027812996 -0.011433352
0002b0 5b e7 c3 ba 5f 8e 87 b9 dd b4 aa bb 65 f1 80 bc
       -0.0014946269 -0.0002585528 -0.005209549 -0.015740106
0002c0 68 c5 95 bd 5c 57 19 bd 86 42 71 3c cf 04 af ba
       -0.07313043 -0.037436828 0.014725333 -0.0013352874
0002d0 2b 82 4c 3d 7b fe a4 3b 6a 90 c8 bb 79 be 9e bd
       0.049928825 0.0050352192 -0.006120731 -0.077511735
0002e0 db 2d ae 3d cc 75 c4 ba 49 5b f8 3c fa 40 80 bd
       0.0850484 -0.001498872 0.030316966 -0.06262393
0002f0 95 09 1f bc c7 b4 2c bd fe cc 93 3d fc 01 8b bc
       -0.009706874 -0.04216459 0.072168335 -0.01696872
000300 1e b6 2e bd 78 72 77 bd 20 16 7a bd 3c 62 1e 3d
       -0.04265415 -0.0604119 -0.061056256 0.038667902
000310 3e 1b 05 bd 94 dc 2b bb 1b f5 43 bc be 67 42 3d
       -0.032496683 -0.0026224004 -0.011960293 0.047462218
000320 c1 60 87 bd 64 35 b1 3d 7e cf 4e 3b dd a8 5a 3d
       -0.06610251 0.086527616 0.003155678 0.053383697
000330 85 6f a5 b9 cc a4 b3 3d 7d 72 a6 bd 97 dd de 3c
       -0.0003155434 0.08771667 -0.08127306 0.027205272
000340 71 46 57 3d ea e7 f1 3c 25 69 2b 3c d4 3e 2e 3d
       0.052557413 0.02952953 0.01046208 0.042540386
000350 15 28 7f bc ba e3 59 bd 0a c9 b0 3d c5 64 82 bd
       -0.015573521 -0.053195693 0.08632095 -0.063668765
000360 0c c8 55 bd 54 83 20 bc ee c6 80 3d c4 65 77 bd
       -0.052192733 -0.009796936 0.06287943 -0.060399786
000370 b6 c6 e4 3a f9 cf b3 3d 02 a4 97 3c 4f 8f a6 bb
       0.001745424 0.08779902 0.018510822 -0.0050830017
000380 5a 0e b4 bd 04 64 66 3d 71 70 74 3b 15 81 8e 3d
       -0.087918 0.056247726 0.0037298466 0.06958214
000390 f1 18 2b bd 1e 0f 35 3d 5c 6e ee 3b fd 7c ac 3d
       -0.041771833 0.04420387 0.0072763395 0.08422277
0003a0 6e 23 5c 3c 3e f5 b0 3d 7a 92 e7 bb b4 8b 70 3d
       0.0134361815 0.08640526 -0.007067022 0.05872698
0003b0 cc 81 43 3d a9 e5 a9 bd 5e ef 75 bd 67 12 93 bc
       0.047731206 -0.08295757 -0.06004273 -0.01795311
0003c0 e9 a7 ae bd 5b 30 9c 3d 89 0e 89 3d be 0b 05 3c
       -0.0852812 0.076264106 0.066922255 0.008120475
0003d0 2a bf b5 bc 8a 16 86 bd 5f f5 2e 3d e2 b4 20 3d
       -0.02218588 -0.06547268 0.042714473 0.039235003
0003e0 49 c0 96 bd e0 37 47 3d dc 30 5c bd f5 1d b1 3d
       -0.07360894 0.04863727 -0.053757533 0.08648292
0003f0 92 b0 b6 bc 91 ad 91 bd 9e 3a 16 3c 48 3e 32 3c
       -0.022300992 -0.07113183 0.009169249 0.010879107

actor.bias f4 [4]
000000 a7 ff a4 3d 63 4a e3 3c c6 ed a6 bd 49 b9 11 3d
       0.08056574 0.027745431 -0.081508204 0.035577092

critic.weight f4 [1, 128]
000000 bd a7 f0 3c b8 82 4d 3c f0 d0 a1 3d 40 80 46 3d
       0.029376859 0.012543373 0.0790118 0.048462152
000010 f5 78 aa bd 59 df a9 3d 94 1e 8a bd 94 91 6b bd
       -0.08323852 0.08294553 -0.067441136 -0.05751188
000020 77 10 17 bb 50 1b 9f bd 10 a6 b4 3d d2 e4 10 bd
       -0.0023050585 -0.07768881 0.088207364 -0.03537447
000030 8b d9 5c bd 7f 07 80 3d 50 a6 fe bc 0a ed a5 bc
       -0.053918403 0.0625143 -0.031085163 -0.02025463
000040 06 94 10 bd 7c e6 1f 3d bb ea 46 3d 2a 88 21 bd
       -0.035297416 0.039038166 0.0485637 -0.039436497
000050 9f 8e 81 bd bf 25 08 3c 47 50 dc bc d3 b9 74 bc
       -0.06326031 0.008309781 -0.026893748 -0.014936882
000060 b7 b9 a8 3d ef c4 10 3d 32 b4 d6 3c 06 7b 94 bc
       0.08238547 0.03534406 0.02620897 -0.018125068
000070 c0 a1 5e 3d ae f5 b4 bd 57 50 3f bd 58 ee fd bc
       0.054353476 -0.08835922 -0.046707477 -0.03099744
000080 22 3b 92 bd eb 7c 09 bc d3 b7 a8 3b e2 52 2d 3b
       -0.07140185 -0.008391599 0.0051488667 0.0026447107
000090 35 7b ae bd 25 0e 57 bd 4f 17 14 3d 9a 63 a2 bb
       -0.085195936 -0.052503724 0.03615504 -0.004955721
0000a0 8d 20 94 bd 06 9f f5 3c 1d d1 68 3d 11 ea 41 3d
       -0.07232771 0.029983055 0.05684005 0.047342364
0000b0 d8 cd 06 bd 29 4a f9 bc b6 7a 29 bd bb 45 ed 3c
       -0.03291115 -0.03043087 -0.041376792 0.028963914
0000c0 fe 63 73 3c 30 e7 87 3d f0 74 f3 3c 38 61 a1 3d
       0.014855383 0.066358924 0.029718846 0.07879871
0000d0 3e f6 72 3d 59 52 3c 3b b7 ee 9c 3d e2 78 43 3c
       0.059316866 0.0028735606 0.07662719 0.011930676
0000e0 da 27 3a bd dd 48 9b bd 2c 8b 6a 3b 1e 09 73 3c
       -0.04544816 -0.07582257 0.003578852 0.014833717
0000f0 55 fd da 3b 22 63 33 3d 68 cf ae 3a 19 5e b0 3d
       0.0066830316 0.043795712 0.0013336958 0.08611698
000100 1c 4f 31 bd 85 67 53 bd c1 45 91 3d 26 63 60 3d
       -0.043288335 -0.051612396 0.070933826 0.054782055
000110 89 cc d4 3c 26 20 80 3a 23 a0 aa bd 05 30 24 3d
       0.025976436 0.0009775206 -0.08331325 0.040084857
000120 a1 42 72 bd b7 48 b1 bd f7 ea 81 bd f9 87 dd b8
       -0.059145574 -0.086564474 -0.06343644 -0.00010563428
000130 df 9d 8b 3d 3b 78 33 3d 44 85 af bd 7d 83 80 bd
       0.06817221 0.043815833 -0.0857034 -0.062750794
000140 f7 4d 72 3d 58 c0 37 3d e9 6b 39 bd a9 fe 76 bd
       0.059156384 0.044861168 -0.045268927 -0.060301457
000150 53 84 cf bc 61 f0 44 3c 4b 3a b3 3d 4d 5b 79 bd
       -0.025331652 0.012020201 0.08751353 -0.060878087
000160 c7 56 f0 3c f5 c1 7d 3d f3 6d 81 bd 1f 63 92 3d
       0.029338254 0.06195255 -0.06319799 0.07147812
000170 bb 02 ef 3c b5 d2 98 3c 7f 71 88 bd 3e f9 f1 bc
       0.029176107 0.01865516 -0.06662273 -0.029537793
000180 69 ff 11 3d c9 66 81 3d 59 fd 80 3c 9a 0f d3 3c
       0.03564397 0.06318433 0.015745806 0.025764275
000190 a8 a9 03 bc 09 a6 72 bd b1 21 ac bd 17 53 90 3d
       -0.008036055 -0.059240375 -0.084048636 0.07047098
0001a0 ee 2c 15 3d ed 9e 5e 3d 38 3e 21 3b f6 d3 9f bd
       0.0364198 0.054350782 0.0024603736 -0.078041
0001b0 1b 00 dc bb 7b ad 19 3d f3 8f 48 39 e5 11 06 3b
       -0.0067138798 0.03751896 0.00019127112 0.0020457443
0001c0 4a f7 1e 3c dc fd 90 bd 00 bd 36 bd 98 06 a0 3d
       0.009702513 -0.0707967 -0.04461384 0.07813758
0001d0 b1 f0 ea bc c0 8f 2f 3c 6f 03 7f 3d 2c 50 85 3d
       -0.028679224 0.010715425 0.062259134 0.06509432
0001e0 82 7d e4 3c 18 69 20 3d a5 a3 8c 3d 8b bf e3 bb
       0.027891878 0.039162725 0.0686715 -0.006950324
0001f0 25 18 45 3d 1e 36 21 ba 72 34 a2 3d 2f 99 d0 3c
       0.04811873 -0.00061497267 0.079201594 0.025463669
