models/resilience/nn/MPL/agent2.pth (torch, 40590 bytes, 5 tensors)

fc.weight f4 [128, 68]
00000000: 3e09 92bd 8604 d3bd caf3 d73d cd37 ec3c
00000010: c4d2 0d3d 7498 b3bd b1e8 de3c 4f7c 7fbd
00000020: 0f10 87bc d9fb a53d b97e 69bd a257 913d
00000030: 94fe de3a 5e4f 1ebd 4b3c e43d fe32 923d
00000040: e22a c5bd eafa a3bc 3707 b7bd 00c1 573d
00000050: 2393 493d 6b86 a23d 3f3b 6fbd 0007 db3d
00000060: ea31 36bd b8b9 86bd 67dc 8e3c e784 20bd
00000070: f2dc df3d 2488 623c 95c4 99bd c3e2 f33d
00000080: 8d13 51bd 6ce4 2b3d fb26 65bd 9075 453d
00000090: 8b13 cebd 9cb0 8b3c 0fcc af3d c9e9 c3bd
000000a0: 32d7 133c f01a e03d 3e9a 5a3d 99a0 893d
000000b0: efea 5ebd c1f9 6c3d 2c43 babc 6633 993d
000000c0: 00b5 bd3d 3455 9e3d b9fc 05bd 8752 be3d
000000d0: 7abd f03d d3c4 0f3d abdd b1bc 8343 af3d
000000e0: 16d3 743b c554 c63d c430 e4bb 4124 c03d
000000f0: 4aba d4bd 37e4 a9bc 03a4 e1bc 5eff 073d
00000100: abe1 f23d 4239 cc3d 906e 553d 3d83 d3bd
00000110: f7bd be3d 755b c43d 2efe 0fbd 40cc 85bc
00000120: 631a e13d db51 5c3d 5c4e cabc e9d8 f33d
00000130: bbac a2bc c222 b3bb d8bb 26bb 338c 44bb
00000140: 9b78 843c 5224 8bbd dadf 983c 3ba7 683b
00000150: 4c6b c8bd 7125 873d dc83 c83d da8b 2fbc
00000160: 8007 1abd 1e62 34bd 7d3d f83c da60 d23d
00000170: ef47 ea3d 84ad c8bd b720 32bd 4a60 c0bd
00000180: 4bce babc 06ba 80bd 823e e7bd 9d9a e73d
00000190: e349 283d b8ea bfbd f317 843d 9067 9ebc
000001a0: 89b7 02bd 0918 4a3d 8ae6 2e3c 9dea b7bd
000001b0: a5fb 77bd 5db9 82bd 5c4c e0bd 9f5c 743d
000001c0: 3dc2 c0bc bf7a ae3d 7119 a53c 00d1 eb3b
000001d0: 3ac5 5bbc 4ddb ea3d e98f b23d 22bc b2bd
000001e0: fd1b a63d eac4 c23d 6bfc a23d 0135 eebc
000001f0: 8b4e 35bd 1157 823d 3ac8 dcbd ff3d 223d
00000200: acde 063d d9ca fabc 1b5d cf3d fd2f c83c
00000210: 0081 b4bd d5e5 223d ae03 973d 06fc 37bd
00000220: 7cdf adbd 606a 38bd 3dc6 04bc 4d1e f73c
00000230: 2f12 8f3c b8b1 f0bc c392 a73d 7594 d1bd
00000240: c43a f03d 5567 653d d4be 853d 66c6 e7bc
00000250: 831d bdbd c48f bebd f83a 703d 6b16 3b3c
00000260: 961a 983d 56c1 ccbd 784b 9b3c 9d53 7938
00000270: 8fd0 38bd 1e5d cc3d ec28 b0bc 5f80 bc3c
00000280: 9217 f1bd 3134 6cbc 0342 a3bd 3c56 f6bc
00000290: b217 80bc 213e 8cbd 9e03 3ebc 002b a9bd
000002a0: 6c7b b53d a140 ee3d a990 83bd 1fc8 543d
000002b0: f9eb 093d b83b bc3d a510 853d df5b 1c3d
000002c0: 7950 1e3d afbd b63d 0823 a43d e647 b83d
000002d0: 6b8b 873c 33a8 ae3d 0431 efbd 75b3 e3bc
000002e0: 4519 d13c 7635 69bd f2b3 bf3d fa0b 53bd
000002f0: f834 7c3d c304 9b3d e78b 1c3d 041c 46bd
00000300: d7b0 0d3c 7959 ae3d dc04 553c 8510 8c3d
00000310: e4a0 43bd 6996 203d f9eb 7dbd cc6f 4abc
00000320: 0351 abbd bc7e 133c 84ee a7bd 1563 d4bd
00000330: 34c9 653d 2b63 033d e576 26bd 2463 373d
00000340: 8723 84bd 5357 38bd 9da2 c93c 2bf9 aebd
00000350: 9276 9ebd 5c1d 8a3d eb1d 723d ad62 7f3d
00000360: 8654 963c a239 2abd 4671 063d a8fe e23d
00000370: 8455 9c3d 7c84 a83d 7e31 26bd a964 5e3d
00000380: 89f7 afbd 8fbe ba3b 2810 a1bd e0d8 503d
00000390: 7b37 87bd 948e 1ebd f54d 123d 8c94 bd3d
000003a0: a5d8 a63c a447 9d3d e680 8f3d 2e73 393d
000003b0: 2b21 25bd bf30 d53d 786b 8e3d f5e9 0dbd
000003c0: e0c9 d13b f576 8e3d 53b9 82bd 8cd5 47bd
000003d0: 186c 01bd 8293 bcbd ce31 473c 0b22 ddbd
000003e0: 3878 c63d bd7d f5bd 855e 393c a48b 92bd
000003f0: f992 3f3d f95d 78bd f615 dfbd a254 46bd
-0.07130669 -0.10303597 0.10544546 0.028835202 0.03462483 -0.087693125 0.027210565 -0.06237441
-0.01648715 0.08104677 -0.057005618 0.07096793 0.0017013126 -0.03864991 0.111443125 0.07138632
-0.0962732 -0.020017106 -0.08936923 0.052674294 0.049212586 0.079357944 -0.05840611 0.106946945
-0.044481196 -0.06578392 0.01743908 -0.039189246 0.10930814 0.013826404 -0.07508198 0.11908486
-0.051044036 0.041965887 -0.055945378 0.04820782 -0.10062321 0.017051987 0.08583843 -0.09566075
0.0090234745 0.10942638 0.053369753 0.06720085 -0.05442327 0.05785537 -0.022737108 0.074805066
0.09263039 0.07731095 -0.03271172 0.092930846 0.1175489 0.035099816 -0.021712145 0.08557799
0.0037357262 0.09684137 -0.006963821 0.09381915 -0.10387094 -0.020738704 -0.027544027 0.03320252
0.11859449 0.099718586 0.052107394 -0.10327766 0.09313577 0.095877565 -0.035154514 -0.016332746
0.10991361 0.053789 -0.024695568 0.11906607 -0.019857755 -0.00546679 -0.0025441553 -0.0029990792
0.01617079 -0.06794037 0.018661428 0.0035500068 -0.0978609 0.06598938 0.09790775 -0.010714496
-0.03760481 -0.044038884 0.030302757 0.10272379 0.114395015 -0.097987205 -0.04348823 -0.09393366
-0.022803446 -0.06285481 -0.11291219 0.11308787 0.04108609 -0.09370941 0.064498805 -0.019336492
-0.031913314 0.049339328 0.010675082 -0.08980296 -0.06054272 -0.063830115 -0.109520644 0.059658643
-0.02353012 0.08519506 0.020153733 0.0071965456 -0.013413722 0.114676096 0.08718855 -0.0872729
0.08110807 0.095102146 0.07958301 -0.029078009 -0.044264358 0.06364263 -0.10780378 0.039609905
0.0329272 -0.030614303 0.1012518 0.024436945 -0.08813667 0.039769966 0.07373749 -0.044918083
-0.08489892 -0.045023322 -0.008103904 0.030165816 0.017464725 -0.029381618 0.081822895 -0.10233394
0.11729959 0.05600675 0.06530538 -0.028292846 -0.092341445 -0.09304765 0.058649987 0.011418919
0.07426946 -0.099978134 0.018956885 5.9444097e-05 -0.045120772 0.09978698 -0.021503888 0.02301043
-0.11772074 -0.01441674 -0.07971575 -0.030070417 -0.015636299 -0.06847788 -0.011597542 -0.08260155
0.088614315 0.11633421 -0.06424076 0.051948663 0.033672307 0.09191078 0.06497315 0.038173553
0.038650963 0.08922898 0.08014494 0.089980885 0.016545972 0.08528175 -0.11679271 -0.027795533
0.025524745 -0.05693575 0.09360494 -0.051525094 0.061573952 0.075692676 0.03821936 -0.04836656
0.008648119 0.08513159 0.013001647 0.06839088 -0.04776086 0.039205942 -0.06199262 -0.012355756
-0.08365061 0.009002384 -0.0819979 -0.10370461 0.056100085 0.032076996 -0.04064073 0.044772282
-0.06452089 -0.045005154 0.024613673 -0.08543619 -0.07737459 0.06743881 0.059110563 0.062349964
0.01835085 -0.04155887 0.03282287 0.11083728 0.07633498 0.082283944 -0.040574543 0.054295216
-0.085921355 0.005698986 -0.0786441 0.050988078 -0.06602379 -0.03871019 0.035718877 0.09256849
0.020366976 0.0767968 0.07007007 0.04527586 -0.040314835 0.10409688 0.06954092 -0.034646947
0.006402239 0.06956283 -0.06383004 -0.04878764 -0.031597227 -0.092078224 0.01215787 -0.10797509
0.09690899 -0.11986873 0.011314039 -0.071555406 0.046771023 -0.060636494 -0.108928606 -0.048420556

fc.bias f4 [128]
00000000: ef81 bf3d 1852 203d 777f 533c a9d2 8bbd
00000010: d4ad 9ebd 61aa 89bd cab2 d83d 5cdd b0bd
00000020: 59e5 03bd ba0e 833c 0e5b 8dbb 39f9 89bd
00000030: 9418 92bd e94d b8bd b88c da3d 9a9b 9ebd
00000040: 54ef 19bd 890b 3f3d 68f9 d9bb 3557 d23d
00000050: cbad 34bd a8df c33b 2af0 43bd 3255 11bd
00000060: 88fe f3bd dfff c93b 7063 99bd f073 9f3c
00000070: 2887 c6bd 56a4 a5bd dde7 643d 5632 a83d
00000080: 0b21 8abd ae85 de3d 03f9 d5bd dff6 f6bd
00000090: f3cd 8abd 5e12 a4bd 302a 85bd 605e c4ba
000000a0: 4d6c 863d ce05 8c3d 8d7d db3d f158 de3c
000000b0: b2bf 68bd 773e c03d d53a 23bd 2684 65bc
000000c0: ee00 b33d 9f0e 793d 5b40 c63d 0c57 253d
000000d0: 6507 cf3d 792e 78bd f5e6 89bd a9ae 843d
000000e0: 0725 93bc 3f76 263d 3669 923d 2d26 b1bd
000000f0: 1160 de3d 512a 913c 9b57 c63d a42d 863b
00000100: 315e bf3d 39d4 e4bd b16e fbbc 379b 8fbd
00000110: 14d6 3cbd 36d6 293d 03de 923d df8c b9bd
00000120: 442c a13d a270 9cbd 63b1 51ba f09f 983d
00000130: e4f1 69bd 9f28 053c d5d3 de3d ac30 0bbd
00000140: 9e5e e93d 8887 933d 77aa 593d 9447 dcbd
00000150: b00c cbbd 6c22 d73d dd78 8f3d ee61 87bd
00000160: aa6b 02bd a532 0f3c f0f3 58bc 5e43 a0bd
00000170: 79a5 423c 7023 32bd c06d 06bd 8a4d 4cbc
00000180: 6080 ea3d 285a b43b 73a5 cb3c 074f ac3d
00000190: 1e1b 1ebd f7f9 be3c 787a 733d ae65 443d
000001a0: 58ad 26bd 2f40 c2bc cc53 9abd fa47 bfbd
000001b0: 44dc a23d e3f0 0abd 1036 303d 9c3d a43d
000001c0: aa09 9e3d 2bb1 c63d 3bce 1abc c44f ad3a
000001d0: 8f6b b53d 39f9 07bc deb8 043c c051 793d
000001e0: e67c 9fbc 5614 f33a 6b78 ad3d a208 b53d
000001f0: 54b0 90bd 3c9b 1b3d 8fc6 bbbb 4ca5 e83d
0.09350955 0.03914079 0.012908808 -0.068272896 -0.07747999 -0.0672195 0.10580976 -0.08635971
-0.032201145 0.015998233 -0.004313833 -0.067369886 -0.07133594 -0.08999235 0.10671371 -0.077445224
-0.037581757 0.04664186 -0.006652046 0.1027054 -0.044111054 0.0059775896 -0.04783646 -0.03548164
-0.11913782 0.0061645354 -0.07489669 0.019464463 -0.09693748 -0.08087985 0.055885185 0.08212726
-0.06744584 0.10865341 -0.10447886 -0.12058806 -0.06777563 -0.08011316 -0.06502187 -0.0014981739
0.065636255 0.06837045 0.10717306 0.02714202 -0.05682344 0.09386914 -0.03985103 -0.014008557
0.08740412 0.06080496 0.096802436 0.040366217 0.10108832 -0.060591195 -0.06733505 0.06478626
-0.017961992 0.040640112 0.07148974 -0.086498596 0.10858167 0.017720373 0.09684678 0.0040947963
0.093441375 -0.11173291 -0.03069243 -0.07012027 -0.0461026 0.041464053 0.071712516 -0.09060072
0.07869771 -0.076386705 -0.000799915 0.07452381 -0.05711545 0.008127361 0.108802475 -0.033981964
0.11395 0.07203585 0.053141084 -0.1075584 -0.09914529 0.10504612 0.07005475 -0.066104755
-0.031840958 0.008740102 -0.013241753 -0.07825349 0.011880272 -0.043490827 -0.03281951 -0.012469659
0.11450267 0.0055039115 0.024859166 0.08413511 -0.03860008 0.023312552 0.059442967 0.04794853
-0.040692657 -0.023712246 -0.07535514 -0.093399 0.079521686 -0.033921134 0.043020308 0.080195636
0.07716687 0.09701761 -0.009448583 0.0013222625 0.08858406 -0.008299165 0.008100716 0.06086898
-0.019468736 0.0018545489 0.084702335 0.08839537 -0.07064882 0.03798984 -0.005730457 0.11359653

actor.weight f4 [4, 128]
00000000: 2638 803d 8c94 0dbd a49b 453c ee1d 243d
00000010: 2cf1 6cbd bb7c ecbb 14e4 393d 6f5f 893d
00000020: efc7 7dbd 205c aebd ba17 2dbd 9364 873d
00000030: 734f ad3d 9324 163d 5d22 343d b53a b1bd
00000040: d4a3 1c3b 60a5 a23c 1c35 953d caed 2abd
00000050: 3447 67bc c156 16bc 4e6d 88bc ba97 473c
00000060: f8ea de3c e0ce 103c 2db1 203a bebe adbb
00000070: 069c 3d3c 6c70 81bc 010f 463d 5552 b13d
00000080: a51e 12bd 4d84 33bd e568 a6bd 2728 9cbd
00000090: 87a5 9b3d 41a8 853d d0e7 483d b46c 32bd
000000a0: 7ee4 52bd 00bf 20bb be82 943c 532c 153b
000000b0: 90b2 a0bc 84f4 fbbc 9abe a73c bfc2 87bd
000000c0: ac0b 65bc 75eb 6ebd 1a0e 7c3d a14e a9bd
000000d0: 10ac b1bd 1d8e fabb 57a6 3dbd cfcc 193b
000000e0: 0e1f 153d bb59 653d 0e7d 22bd cb6d 05bc
000000f0: 2d2c a8bc 79ec 843d 7f12 32bd 9594 7b3d
00000100: f3ed e93c 8b7b 24bc 0c80 133d ae9d 223b
00000110: 9e70 fb3b 8e25 6fbc 0e96 d6bc 9c95 12bd
00000120: fc49 7fbc 79df 923d 0ef3 603c 4d88 3c3c
00000130: 5699 be3b e5e6 67bd f958 86bd 50eb a0bb
00000140: cd3b bf3c 9a0d 6b3d f021 71bc 08ff 3cbd
00000150: b097 a03c 67c8 f33c e02b 07bd b235 a9bb
00000160: 94f1 fa3b 043a 5fbd dd37 163d 4304 8a3d
00000170: 215d b0bd 6714 58bd f9af 4c3b 2365 25bc
00000180: d6e9 913d 31a7 b53c a6ba 6e3d dfb0 513c
00000190: 61e1 81bd 6a89 8e3d e024 523d 7e21 32bc
000001a0: ae8c 513d a4f9 593d 8f64 2bbd 51e0 fbbc
000001b0: 79b0 aabd c942 ac3d 58de d23c 3241 9a3d
000001c0: 79a6 723d 346c 82bc dc52 4a3c a0c9 9b3c
000001d0: 81f4 b03c 05fc a93d 034a 533b edd7 bcbb
000001e0: 3283 c2bc bc35 92bd bca5 b23d 49bc f23c
000001f0: 0079 5fbb 735e 3cbd ecc3 bfbc 5583 81bd
00000200: f88b d2bb 565d a93d 66be 0b3d 8269 aa3d
00000210: 46e5 fbbc a828 13bd dfcd 703d 2371 903d
00000220: 8bf5 7ebd b094 46bd d488 3e3c febb 5d3c
00000230: 674b 0cbd fe9b b2bc e6c6 81bd 797c 26bd
00000240: bd28 80bc cd6c 41bd bc48 913c 45c7 a83d
00000250: 996a b03d c7af 4f3d a410 22bd 109c eabc
00000260: 7460 a73c 3157 d53c dfe4 86bd 00de 9c3d
00000270: 6a09 b0bc 9431 01bd 4d0e 4f3d 7ae7 1dbc
00000280: 5d0f c23b 1ce0 993d 3622 1e3d 5426 af3d
00000290: 4fbb 69bd 7f5a cbbc a377 8d3c 5ac7 923d
000002a0: fd4a 9fbb f8c0 e43c 961a 5c3d 4329 a6bd
000002b0: 054e 133d 2a34 9bbd 12f1 633d 526d 403d
000002c0: 5d8f 9d3d c057 a8bd 3835 a53d 8e60 56bd
000002d0: 6fc1 07bc e88c 34bb 6b9b 31bd 4095 bbbc
000002e0: 6e3d 163d dfc5 b1bd 1779 63bd 7c53 5fbd
000002f0: b55f 033d fb02 4dbd 04b0 7dbd 2ab8 11bd
00000300: 3dc1 9cbc a6bc ab3d b37a 53bd d5b6 9c3c
00000310: e3a7 993d 4457 87bd 6375 633d b071 b23d
00000320: 343f 093d 2559 5dbd cfdf e83c 02f9 9fbc
00000330: d859 713d 4cc4 7ebd 6937 493d 0ff8 78bd
00000340: 75d3 163d 5f21 acbc 1afc b9bc f1c7 8dbd
00000350: 3a17 3f3d 8dfa 69bd d783 9ebd 4130 2ebc
00000360: 279b 313d 0f57 9fbc bca4 adbd 2b0f 72bd
00000370: 0402 da3a e780 963c 1fc7 033d e6b7 3e3d
00000380: b82e 1ebd 7ec7 90bd 1010 1cbc 3295 2c3d
00000390: 92ee 9b3d 7e9b c4bc 5e2d ac3c 0277 10bd
000003a0: aa53 afbd 7f05 3c3d 3d32 eabc 3592 8c3d
000003b0: cd46 6c3d 1ac8 9ebd b341 ce3c 2e4d 9c3d
000003c0: 5da1 c23c 29db 8e3d d73b 8bbd 979a 55bd
000003d0: 004a 8f3d 11b9 173d e598 41bd 8ed9 543b
000003e0: 68c0 063d 14fa 8fbd 1718 a6bd b486 5bbc
000003f0: 421b 42bc 627a b0bc 91c5 b0bd 0111 a5bc
0.062607095 -0.034565493 0.012061033 0.040067606 -0.057847187 -0.0072170175 0.045383528 0.06707656
-0.06195825 -0.08513665 -0.042258956 0.0661098 0.08462419 0.036655974 0.043978084 -0.086537756
0.002390136 0.019854248 0.072855204 -0.04173068 -0.014116097 -0.009175957 -0.016653683 0.0121821705
0.027211651 0.008838385 0.0006129917 -0.0053022793 0.011572843 -0.015800677 0.048354153 0.08658282
-0.035673756 -0.043827344 -0.08125476 -0.07624846 0.07599931 0.065262325 0.0490492 -0.0435607
-0.05148744 -0.0024527907 0.018128749 0.0022762015 -0.019616395 -0.030756243 0.020476628 -0.06628942
-0.013979834 -0.058330018 0.061536886 -0.082669504 -0.086753964 -0.0076463358 -0.046301212 0.0023468023
0.03640657 0.055993777 -0.039670043 -0.008143852 -0.020528877 0.06490416 -0.04347467 0.061420996
0.028555846 -0.010039221 0.036010787 0.0024813223 0.007673337 -0.014596356 -0.026194599 -0.03578721
-0.015581604 0.0717153 0.013729824 0.011507106 0.005816619 -0.056616683 -0.06559939 -0.004910864
0.023343945 0.05738602 -0.014717564 -0.046141654 0.01960358 0.029758645 -0.033000827 -0.0051638717
0.007658193 -0.054498687 0.03667437 0.06739094 -0.08611513 -0.052753832 0.0031232818 -0.010094914
0.07124679 0.02217445 0.05828347 0.012798517 -0.06341816 0.069598034 0.051304698 -0.010872243
0.051159553 0.05321659 -0.041843947 -0.03074661 -0.08334441 0.08411176 0.025740787 0.07531966
0.059240792 -0.015920736 0.012348857 0.01901704 0.021600964 0.08300022 0.003224016 -0.005763045
-0.0237442 -0.07139155 0.087230176 0.029630797 -0.0034099221 -0.04598851 -0.023408853 -0.06323878
-0.006425377 0.082697555 0.034117125 0.08320905 -0.030748975 -0.035927445 0.058790084 0.07052829
-0.062245887 -0.048481643 0.011629302 0.01353359 -0.034251597 -0.021802898 -0.06336765 -0.04064605
-0.015644426 -0.0472229 0.017734878 0.08241133 0.08614082 0.050704744 -0.03956665 -0.02863887
0.020431735 0.026042553 -0.065866224 0.07659531 -0.021488864 -0.031541422 0.050550748 -0.009637708
0.0059222416 0.075134486 0.038606845 0.085522324 -0.057063397 -0.024823425 0.017268961 0.071669295
-0.004861234 0.027924046 0.05373629 -0.08113339 0.035963077 -0.07578309 0.055649824 0.046979256
0.0769336 -0.08219862 0.08066791 -0.052338175 -0.008285864 -0.0027549807 -0.04336111 -0.022898316
0.036679678 -0.08680319 -0.055535402 -0.054522976 0.032073695 -0.05005167 -0.06193544 -0.035576023
-0.019135112 0.08385591 -0.051630687 0.01913015 0.07502725 -0.066084415 0.05553187 0.087130904
0.03350754 -0.054040093 0.028427033 -0.019527916 0.058923572 -0.062198922 0.04912511 -0.060783442
0.036822755 -0.021012006 -0.02270322 -0.069229014 0.04665301 -0.05712371 -0.0773999 -0.010631622
0.043360855 -0.019450692 -0.08478686 -0.059096497 0.0016632681 0.018372012 0.03217232 0.046562098
-0.038618773 -0.070693 -0.009525314 0.04213447 0.07613863 -0.023999926 0.021017727 -0.035269745
-0.085608795 0.04590368 -0.028588409 0.06863824 0.05768471 -0.0775301 0.025177812 0.07631908
0.023758585 0.06975395 -0.06798523 -0.05214938 0.06996536 0.037041727 -0.047264952 0.0032478306
0.032898337 -0.070301205 -0.081100635 -0.013398815 -0.011847319 -0.021542732 -0.08631433 -0.02014971

actor.bias f4 [4]
00000000: f011 b83c 3e8e 303d 3701 9abd 3d16 3f3d
0.02246949 0.043104403 -0.07519763 0.046652067

critic.weight f4 [1, 128]
00000000: 5dd0 8ebd c4ed 4fbd 203d 0dbd 957e b33d
00000010: 6268 9ebd c756 e1bc 27e9 a5bd 26d9 49bc
00000020: 5a58 a73d 8705 9b3d 4ed3 afbd 5013 9cbd
00000030: 9134 9f3d 8249 aa3b ee90 8b3c 68cd eb3c
00000040: dc14 773d 0511 863d 1cb9 aebc 63e9 a3bd
00000050: 0205 8b3d 5289 74bd 2b99 43bd b08b 143c
00000060: 74d1 193d a850 a13d 0712 53bd 9344 aebd
00000070: 5c38 c33b ed85 87bb bc50 7f3d 2689 7f3d
00000080: f602 a03d b5f8 9abd 156a b1bd d007 263d
00000090: 9cf5 aa3d 1ee3 7e3d 1c16 23bb eea9 8c3d
000000a0: b36c 7ebd c19f 5fbd f2f9 8dbd e92c 963c
000000b0: 4504 a53d f47c 23bd e5d9 c2b9 da38 83bc
000000c0: ee80 a33d b08a 96bd a041 aa3d 4f24 5abd
000000d0: 97a0 063d 0825 62bd 2cda 4fbd 9dc3 62bd
000000e0: 68e9 35bd e209 d63c fcca 6b3c 8dc0 773d
000000f0: a366 54bd 080b 09bc 7ae5 5cbd 0d00 453d
00000100: 946c 83bd 189d 7cbd 44a0 9abd 3c74 393c
00000110: 9f1c 02bd 6b94 f63c 0dc2 b13d 9aaf 463c
00000120: f7a7 b33d 22aa 62bd d1c3 a0bd 9646 223d
00000130: 0d96 ae3b 5488 293d d5ae 0c3c 0035 6abc
00000140: 76fa c7bc b566 0abd 6208 343d d365 5a3b
00000150: d3cd 8aba 76b8 5a3d e705 5a3d f573 593d
00000160: 4a10 8f3a 8d63 9ebd 2299 bbbc 73e5 6d3d
00000170: 0557 623d 11c9 e9bc faad 2d3c 02e4 8dbd
00000180: f2f8 f33c 50ae 333c 036e 22bd 1fea ad3d
00000190: 4eb6 383d 3986 6bbd dbf3 21bc 90d5 28bd
000001a0: 19bb 3c3d 5346 0cbd 96bd 80bd 01c7 95bd
000001b0: 854a 873b 5482 b13d dd8b b3bd 228f b03d
000001c0: 7c57 273d f41c ab3d dc66 363d cb33 1e3d
000001d0: dca1 68bd 5511 423d a599 b33d 39b0 5e3d
000001e0: 8d4a 8b3d 149e 6a3d c87b a73d a9f7 03bd
000001f0: 1eba b73c 82c3 93bc 7bc0 8c3d ff83 24bd
-0.06973336 -0.05076386 -0.03448212 0.08764378 -0.07734753 -0.027507199 -0.08101111 -0.012319839
0.081711486 0.07569414 -0.08585225 -0.07620871 0.07773698 0.005196751 0.017036881 0.028784469
0.060322627 0.06546215 -0.021328501 -0.08003499 0.067880645 -0.05970127 -0.047753494 0.009066507
0.037553266 0.07876712 -0.051530864 -0.08509173 0.0059576463 -0.0041358382 0.062332854 0.062386654
0.07813065 -0.07566968 -0.08662812 0.040534794 0.083476275 0.062228315 -0.0024885004 0.06868349
-0.062115382 -0.054595713 -0.06932439 0.018331962 0.08057455 -0.039914086 -0.00037164908 -0.01601832
0.07983576 -0.07350671 0.08313298 -0.053257283 0.032867994 -0.055211097 -0.050745174 -0.055362333
-0.044412047 0.02612776 0.014391657 0.060486365 -0.051855695 -0.008364446 -0.053929783 0.04809575
-0.06417194 -0.061673254 -0.075500995 0.011319216 -0.031765576 0.030100068 0.086795904 0.012126828
0.08772271 -0.055338033 -0.07849849 0.039618097 0.005327946 0.04138978 0.008586605 -0.014294863
-0.024411421 -0.033789355 0.043953307 0.0033324852 -0.0010589905 0.053398572 0.053228285 0.0530891
0.0010914889 -0.077338316 -0.022900168 0.058080148 0.05525877 -0.028538259 0.010600561 -0.06928255
0.029781792 0.010966852 -0.039655697 0.08491921 0.045095734 -0.05750105 -0.0098848 -0.041219294
0.046076868 -0.034246754 -0.06286161 -0.073133476 0.0041287565 0.08667436 -0.08766911 0.086210504
0.040854916 0.08355132 0.044531688 0.038623612 -0.056794986 0.04737981 0.0876954 0.054367278
0.06801329 0.05727966 0.08177906 -0.03221861 0.022427615 -0.018037561 0.0687265 -0.040164944
