models/resilience/nn/MPL/agent1.pth (torch, 40590 bytes, 5 tensors)

fc.weight f4 [128, 68]
000000 77 29 3c bc dc 1b cd 3c df 68 91 3d e2 d9 60 3d
       -0.011484495 0.025037698 0.07100081 0.05489529
000010 71 69 f3 bd eb c5 f4 3d a2 32 df bd f8 1a b8 bd
       -0.11885346 0.11951812 -0.10898329 -0.08989519
000020 33 47 60 3d fd 5e 67 3d da 12 cf bd a0 24 ba bd
       0.0547554 0.056487072 -0.101110175 -0.09089017
000030 9e 59 c9 bd 14 e2 3e 3a 06 12 09 3d 90 d2 9f 3d
       -0.09831546 0.0007281613 0.033464454 0.078038335
000040 de 2f 7a 3d 4a b5 de 3d d7 91 b5 3d 7f c2 16 3d
       0.061080806 0.10874422 0.08865707 0.03680658
000050 3b 5b 6f bc e2 74 ab 3c 96 b8 09 3d fa 6a 80 bd
       -0.014609153 0.020929758 0.0336233 -0.06270404
000060 66 05 87 bd e9 b1 8e bd 7a 10 b3 3d f8 21 d0 bd
       -0.065928265 -0.069675274 0.08743377 -0.10162729
000070 24 11 f6 3d b0 c0 09 3c 44 d0 e8 3d ca 93 24 3d
       0.12014988 0.008407757 0.113678485 0.040180005
000080 cd 71 ba bc d0 00 25 bc 50 49 95 bd b1 86 0f 3c
       -0.022759343 -0.0100709945 -0.07289374 0.00876014
000090 ba 38 cc 3d 34 f7 56 bd 6b f0 b2 3d 6f db d3 3d
       0.09971757 -0.052481845 0.08737262 0.10344588
0000a0 4a d1 f0 3d 4d 0d 89 3d c2 60 7d 3d d4 79 1a bd
       0.11758669 0.0669199 0.061859854 -0.03771384
0000b0 8b b5 46 bd f9 6f b7 bd e0 18 09 bd 90 e9 e9 3d
       -0.048512977 -0.08956904 -0.03347099 0.11421502
0000c0 01 8a 7c bd eb 6f b0 bd e2 2b bb 3d 54 e7 84 3d
       -0.06165505 -0.08615097 0.09139229 0.06489435
0000d0 ff 5f c0 bd 19 a2 c9 3d ec 90 4e 3d 2b b0 cc 3d
       -0.0939331 0.09845371 0.050431177 0.09994539
0000e0 09 35 fe 3b ae 19 36 bd 78 b6 c1 bd 46 f2 13 bd
       0.007757787 -0.044458084 -0.09458631 -0.03611972
0000f0 84 2a d7 3d 7d aa 95 3d 61 b6 eb ba 56 72 bc bc
       0.10506156 0.07307909 -0.001798343 -0.023003738
000100 48 55 1e bb 7e 02 52 3d 89 42 d0 bd 05 a7 b1 3d
       -0.0024159718 0.051271908 -0.101689406 0.086744346
000110 e1 74 ec bd 84 26 a4 3d 7b 3b b1 3b 5b 2b eb bc
       -0.115457304 0.08015159 0.005408702 -0.028707197
000120 84 43 a6 3c e4 94 ce 3c 9b a3 81 3a 35 99 c5 3d
       0.020295866 0.025217481 0.0009890677 0.096483625
000130 e2 32 d1 bd 3d 9f 33 bd b1 d7 f2 3d d4 2a b5 bd
       -0.10214783 -0.043853033 0.11857546 -0.088460594
000140 78 08 a3 bd 20 49 b6 bd bc 11 bf bb aa a4 0a 3a
       -0.079606 -0.08900666 -0.0058309715 0.0005288819
000150 a0 bd eb 3d 0f e9 37 3d 1d 6c c2 3d 73 20 55 bd
       0.115107775 0.044899996 0.09493277 -0.0520329
000160 eb 3c bc 39 8c da 03 3d cd e2 a6 3d b4 45 2a bb
       0.00035903542 0.032190844 0.081487276 -0.0025981488
000170 b2 26 8c bd 6d d1 a7 bd f2 75 0e bd e7 9e f6 bd
       -0.06843318 -0.08194242 -0.03478045 -0.12042027
000180 41 71 03 bd df 4c cc bd 86 54 49 bd bc de e4 bd
       -0.03209043 -0.099755995 -0.049152873 -0.11175296
000190 57 0a b8 bd c3 c3 94 bc 0d 07 86 bd 34 56 01 3d
       -0.08986347 -0.018159753 -0.065443136 0.03157635
0001a0 54 49 87 3d bd 24 76 bd 43 c8 cf 3d 9e 57 57 3c
       0.06605783 -0.06009363 0.10145619 0.013143448
0001b0 7f 32 43 bc c7 d1 a8 bc 80 98 d0 3d 01 b3 01 bc
       -0.011913895 -0.020607842 0.10185337 -0.007916213
0001c0 b8 77 69 3d ae c7 ed 3d b3 0f c7 3d 3d 68 c0 3d
       0.05699894 0.116103515 0.09719791 0.09394882
0001d0 51 c5 92 bc f4 b7 a9 bc 00 2d a3 3b 07 4b 24 bd
       -0.017916353 -0.020717598 0.0049797297 -0.040110614
0001e0 b2 95 d0 bd be ab 61 bc e1 02 f3 3d 38 8f 4b bd
       -0.10184802 -0.013773857 0.118657835 -0.04969713
0001f0 17 a9 7e bb 54 91 b8 3d ca 6c c6 bd 81 97 ee bd
       -0.003885811 0.09012094 -0.096887186 -0.11649991
000200 43 bb e2 3c fb 73 3a bd e1 4d 86 bd 37 4f ad 3d
       0.027677184 -0.045520764 -0.06557823 0.08462375
000210 c3 b3 ed bc 82 65 e7 bc c0 59 8c bd 1a 4f dd 3d
       -0.029016381 -0.028246645 -0.06853056 0.10806103
000220 bd 5a f5 3d d9 c4 3a 3d 2b c9 8b bd de 97 63 3d
       0.119801976 0.045597885 -0.06825479 0.055564754
000230 85 1c 73 3d e1 c8 3f bd b3 9b a2 3d a4 d1 e0 bc
       0.05935337 -0.046822432 0.079398535 -0.027443714
000240 f5 af ce 3d f4 19 db bd 43 6a 60 3d 8b 7d ef 3d
       0.10092155 -0.106983095 0.05478884 0.11693867
000250 0b be 64 3d 87 16 86 3d 2f c4 ba 3d 88 9b b9 3d
       0.0558453 0.065472655 0.0911945 0.09062868
000260 5b e9 35 3d 7a 89 a3 3d 9d 30 aa bd 25 25 c6 bd
       0.044412 0.07985206 -0.083100535 -0.096750535
000270 c9 c2 f1 3c 23 c2 f4 bc b9 5a dc bc 55 c5 3b 3d
       0.029511826 -0.029877728 -0.026898729 0.045842487
000280 fd f0 7c 3d 44 9f a3 bc 2e d9 80 3d 6f 4b f4 bd
       0.06175326 -0.019973405 0.06291424 -0.1192845
000290 b0 71 e9 3c 18 c7 1b 3d 4e b3 36 3c 18 41 6c 3d
       0.028496593 0.038031667 0.011151148 0.057679266
0002a0 17 01 8e 3b 28 f5 9a 3d 75 13 b9 bd ed f3 fa bc
       0.004333626 0.07566291 -0.09036914 -0.030633891
0002b0 6d 3c f2 3d 74 ec bc bc da 56 07 bd d5 98 70 3d
       0.118279316 -0.023061968 -0.033041812 0.058739502
0002c0 4b b9 a5 3d 13 f8 f2 bd 99 c8 a6 bc 97 48 d5 bc
       0.080919825 -0.11863723 -0.020359324 -0.02603559
0002d0 46 ab 5d 3d 2a c4 5c 3d a1 00 62 bb 97 c0 16 3d
       0.054118417 0.053898014 -0.0034485238 0.03680476
0002e0 dc dc 49 bd 11 1a e8 bd a5 c0 97 bd e3 56 a0 3d
       -0.049282894 -0.11333097 -0.07409791 0.07829072
0002f0 cd 78 63 3c 55 96 67 bd 2a 9e e6 bd 91 a5 e7 3d
       0.013883782 -0.056539852 -0.11260636 0.11310876
000300 e3 93 8d bc 04 88 98 3d cb 02 f0 3c d8 bf 3f 3d
       -0.017282432 0.07447818 0.029298207 0.046813816
000310 c2 c6 bd 3d 65 65 f1 bd 7d 37 b0 bd e8 70 c8 3d
       0.09266426 -0.117869176 -0.086043335 0.0978716
000320 1a 10 ea bd ef dc eb bd 93 fc 63 bd 49 0b d2 3d
       -0.114288524 -0.11516749 -0.055660795 0.10256059
000330 5a c5 e5 3d f1 29 84 bd a6 f1 91 3d 66 f1 30 3b
       0.112192824 -0.06453312 0.07126169 0.0026999353
000340 95 6a c4 3d ae 26 a7 bb 1d 27 53 3d c9 6e 45 bc
       0.095906414 -0.0051010465 0.051550973 -0.012050339
000350 bc 89 ad bd 41 a5 b8 3d 51 e7 58 3b ca d2 49 3d
       -0.08473536 0.09015895 0.003309686 0.04927329
000360 80 e6 ae 3b b1 43 ae bd 47 9c a0 bd c0 d0 d3 bc
       0.0053375363 -0.08509005 -0.078423075 -0.025856376
000370 36 5c a1 bd 2d 03 98 3c 1a 6f 86 3d 49 b7 00 3d
       -0.07878916 0.018556202 0.0656416 0.031424794
000380 d7 59 d5 3d 42 3d a9 3d 17 39 d3 3d 8e 98 4c 3d
       0.10417526 0.08263637 0.103136234 0.049950175
000390 cb 88 94 3d b5 a0 d0 3d a4 8b 75 3d 85 bc 97 bd
       0.07252654 0.101869024 0.059947625 -0.07409004
0003a0 13 4b ac bc 43 72 7d 3d d9 65 b0 3d e4 a7 e5 bd
       -0.021031892 0.061876547 0.08613176 -0.11213663
0003b0 b1 08 b9 bc 7c 02 14 bc 75 6a 81 3d dd fa a0 bc
       -0.022587152 -0.009033795 0.06319133 -0.019650871
0003c0 8b 86 c6 3d d8 c6 46 bc 4a 2d cf 3d d8 15 de bc
       0.09693631 -0.012132369 0.1011606 -0.027110025
0003d0 b4 47 7e bd 10 f7 7a bc 01 6d 27 3d a2 dd 2a 3d
       -0.0620801 -0.015317693 0.04087544 0.04171527
0003e0 ce 78 f3 bc 9a e3 e5 3d 5c 2d 90 bd 88 7f c7 3d
       -0.02972069 0.11225052 -0.070399016 0.097411215
0003f0 b9 2e 5e 3a 18 07 ce 3d fd 1b d0 3d ca 00 ec 3d
       0.000847559 0.10059947 0.10161588 0.11523588

fc.bias f4 [128]
000000 95 ad 8a 3d bd 74 cc bc dd 64 b8 3d 71 de e5 bd
       0.067713894 -0.024958009 0.09003613 -0.11224068
000010 69 b3 b4 bd fb db 4d 3a 5a 96 e6 3d 82 16 3a bd
       -0.08823282 0.0007852909 0.11259146 -0.04543162
000020 35 74 43 3d 29 8f b5 bd cf 48 a1 bc 88 99 34 3c
       0.047718246 -0.08865196 -0.019688038 0.011022933
000030 e2 bb 1b bd 4f 6f 71 3d e3 36 a2 bc ba c4 c9 bd
       -0.038020976 0.058944043 -0.019801563 -0.09851976
000040 b4 a4 39 3d 9c 27 f6 bd 01 37 94 3d 26 c2 68 bc
       0.04532309 -0.12019274 0.07237054 -0.014206445
000050 20 0c d2 bc cf 9e 06 3d 82 31 a8 3d 1d d4 3a 3a
       -0.025640547 0.032866295 0.08212568 0.0007126944
000060 5b 4d 66 bd bd b4 42 3d 31 17 17 bd bb de d8 3c
       -0.056226116 0.047535647 -0.03688735 0.026473394
000070 c1 c4 aa 3a 22 6b 90 3d a6 47 20 bd 29 0e 68 3d
       0.0013028608 0.07051684 -0.03913083 0.05665413
000080 f5 40 04 3d 26 e6 e5 3d 7e dc 58 3d d7 2b 91 bc
       0.03228851 0.11225538 0.052944653 -0.0177211
000090 ee 5b e1 3d 8d 37 fc 3c 50 ba fa 3c f2 39 f2 3c
       0.11003862 0.030788207 0.030606419 0.029568646
0000a0 92 01 27 bd 17 af e9 3d 58 f5 f7 bd 6e 70 11 3c
       -0.040772982 0.11410349 -0.121073425 0.008876903
0000b0 3c ef ab 3d 15 bf 53 bd 32 6e c3 bd 73 bf a3 3d
       0.0839524 -0.051695902 -0.095425025 0.079955004
0000c0 4f cc 76 bd d5 46 6d bd 70 fc 15 3b fb f3 b9 3c
       -0.060253438 -0.05792888 0.002288606 0.022699347
0000d0 05 da c0 bb 2c 38 c8 bd 10 04 ca bc 9d 34 c8 3d
       -0.005885365 -0.09776339 -0.02466014 0.0977566
0000e0 f3 9e 90 bc ef 62 53 3c 9a c5 21 bd d1 d2 12 3d
       -0.017653918 0.012902006 -0.03949509 0.03584558
0000f0 f2 ea 5c 3c 22 a1 a0 bd 6a bc a8 bc 52 58 b4 3d
       0.01348375 -0.07843234 -0.020597655 0.08805908
000100 1b 32 f2 bd 11 5c 4d 3c 73 e0 97 3d a2 c0 b1 bd
       -0.11825963 0.012534157 0.07415857 -0.0867932
000110 e9 a8 d5 3d ae 22 ca bd 74 d5 b8 3d fe b4 91 3d
       0.10432608 -0.09869896 0.09025088 0.071146
000120 b0 6d db 3d 69 b2 4d bd 87 7a e3 3c 2e ae 71 3d
       0.107142806 -0.050218973 0.027768387 0.059004
000130 90 e5 07 3d ee 64 ae bc 8a a1 3e 3a f9 9c 91 3d
       0.033177912 -0.021288361 0.0007271996 0.07110018
000140 f5 b3 a5 3d a2 7e a6 bc fb 68 d5 3d 4b a8 33 3d
       0.08090965 -0.020324055 0.10420414 0.04386167
000150 b4 29 1f bd 0b 1f a5 bd 7d d3 ba bd 5f e0 25 bd
       -0.03885813 -0.080625616 -0.091223694 -0.04049718
000160 91 d5 ac 3d b3 f1 f1 bd 6f 9d c2 3d 8b a0 e1 3d
       0.08439172 -0.118136786 0.09502684 0.11016949
000170 e0 9a 42 bc b3 4d a4 3d 9e 67 db bd 05 9d 94 3d
       -0.011877745 0.080226324 -0.10713123 0.072565116
000180 db 36 c0 bd d1 6a 46 bd f1 c6 a9 3c 04 c5 b3 38
       -0.09385463 -0.04844171 0.020724745 8.572082e-05
000190 59 0e 04 3d 00 f0 3b bd 45 ef aa 3d 37 70 de 3c
       0.032240245 -0.04588318 0.08346418 0.027153118
0001a0 ed ed d9 bd d8 30 b1 bd bc 9d 32 bd ce c9 15 bd
       -0.10641084 -0.08651894 -0.04360746 -0.03656941
0001b0 2a 8c 2c 3d 90 43 f8 bd 64 b4 ae 3d 56 5c a5 3d
       0.04212586 -0.121222615 0.085305005 0.08074252
0001c0 6c a9 45 3c 78 be 61 3c 1e 2d 55 3c 46 b4 ba bd
       0.012064319 0.013778321 0.013011245 -0.09116416
0001d0 9e bc de 3d 71 5b 91 bd 24 c9 eb 3d 61 5a 83 3d
       0.108758196 -0.07097519 0.11512974 0.06413723
0001e0 24 63 d4 3d 24 32 4c 3d f9 e4 88 bc d9 ea cd 3c
       0.10370472 0.049852505 -0.016710745 0.025136398
0001f0 a3 ce 8c bd 6f b9 5c 3d 02 7a c5 3d b2 88 69 bc
       -0.0687535 0.05388778 0.09642412 -0.014253782

actor.weight f4 [4, 128]
000000 5c 69 67 3d 2e 69 16 bc 8c 9e 72 3d 96 8b b4 3d
       0.056496963 -0.00918035 0.059233233 0.088156864
000010 76 e4 98 3d c1 12 39 3d 83 c9 b3 bd cf 42 19 3d
       0.074654505 0.0451839 -0.0877867 0.03741723
000020 47 67 4d bd 89 4d ad 3d a3 82 91 bd 0b 5d b1 3d
       -0.05014732 0.08462054 -0.07104995 0.08660325
000030 ee 8b 3b 3c 36 5a 9e 3d cc 45 77 3d 1a 25 c6 3c
       0.011446936 0.0773205 0.060369298 0.024187613
000040 bb 13 99 b9 e0 17 24 bd 32 09 9b 3d b4 1c 63 3d
       -0.00029197134 -0.04006183 0.07570113 0.055447295
000050 63 f3 0f 3d 70 fe 95 3d 78 df a2 3d 26 2c 86 bd
       0.03514422 0.07323921 0.079527795 -0.065513894
000060 85 79 d7 3c 91 49 85 bc b5 3d 2c 3d be 77 7e bd
       0.026303062 -0.01627043 0.042051036 -0.062125914
000070 3c 6a 9d 3d 94 7d 68 3d 26 c0 56 3d 97 24 d2 3c
       0.07686278 0.056760386 0.05242934 0.025652213
000080 e6 0a 35 bd 8c eb 28 3d 7a cc 10 bd 49 00 f6 3c
       -0.044199847 0.04124026 -0.035351254 0.030029433
000090 32 c9 8d bc fa ca 03 bd 3e 8b 76 bd 9d a3 85 3d
       -0.017307851 -0.032175995 -0.060191385 0.065253474
0000a0 1f be bb 3c f7 d0 b5 bc 51 c7 51 bd 82 1a 36 3d
       0.022917805 -0.022194369 -0.051215474 0.044458874
0000b0 b2 36 b8 bc 1b fe 92 3a f2 3c 4f 3d ae a0 1e 3d
       -0.022487018 0.0011214645 0.05059523 0.038727455
0000c0 fb fe 6f 3c 06 8c 52 bc 2c 56 a8 3c 57 58 6c bd
       0.014648194 -0.012850767 0.020548902 -0.057701435
0000d0 4f 92 61 bd 91 0b bb 3c 08 ec 62 3d 10 39 68 bd
       -0.05507117 0.022832664 0.05540088 -0.056695044
0000e0 95 d4 35 bd 9b e6 58 bc de 9e a8 3a 8b b9 7b 3d
       -0.044392187 -0.013238574 0.0012864729 0.061456244
0000f0 a0 4d 79 bd 38 4f 64 bd 92 77 47 3d e5 e5 b6 3c
       -0.060865045 -0.05573961 0.048698016 0.02232642
000100 15 cd 85 bd 96 af a8 3d b0 76 8b 3c 04 e8 b6 bc
       -0.06533257 0.08236615 0.017024368 -0.02232743
000110 cd 7b c7 bc e8 a0 99 3d 86 e8 57 bd 17 a4 4b 3a
       -0.024351025 0.075013936 -0.052711986 0.0007768287
000120 fd 13 6a 3d f3 89 b3 3d d2 0a 05 3d 31 39 f5 3c
       0.05714797 0.08766546 0.032481022 0.029934498
000130 02 29 12 3d df f8 93 bc 8b 6f e1 38 b5 44 57 bd
       0.03568364 -0.018063007 0.000107496126 -0.05255576
000140 ad 90 d0 3c 8c 22 62 3d a4 3c 7f bc 94 35 50 bd
       0.025459612 0.055208728 -0.015578423 -0.050832346
000150 8e 2f 7f 3d 1c 8e a7 bd b1 e7 15 bd 69 e2 a4 bd
       0.06230121 -0.08181402 -0.03659791 -0.08050997
000160 67 af 24 3d 3c 05 73 bd 67 6b 37 3d a5 b0 8e bd
       0.04020634 -0.059331164 0.04478016 -0.06967286
000170 cd b9 8b bd fa 68 ac bc 0f 7d 5b bd 90 61 a7 3d
       -0.06822548 -0.02104615 -0.053586062 0.081729054
000180 7e c6 40 3d 07 57 2b bb 01 2a 42 bc 88 9a 1e bd
       0.047064297 -0.0026144402 -0.011850835 -0.03872159
000190 97 14 ad bd a4 67 7e bd 89 cc bc bc b8 00 b5 3d
       -0.08451193 -0.06211056 -0.023046749 0.08838028
0001a0 d6 6f 23 3d 8f cc 2f 3c 3a 72 1e bd 27 b1 45 3c
       0.039901577 0.010729923 -0.038683154 0.012066162
0001b0 df 24 b2 bb 6d 40 58 bc 53 49 96 bd 6e 5f 43 3c
       -0.0054365243 -0.013198954 -0.07338204 0.011924608
0001c0 bb 60 ae 3d 48 9a 6c bc 31 92 89 3d c7 34 5a bd
       0.085145436 -0.01444108 0.06717337 -0.05327299
0001d0 ed 7c af 3d 88 9a 26 3d 3f 2d c5 3c 35 fb 81 3c
       0.085687496 0.040674716 0.024069427 0.015866855
0001e0 20 32 8b bd 45 f0 63 3d e4 75 ce 3c 22 de 3c bd
       -0.0679667 0.05564906 0.025202699 -0.04611028
0001f0 7c de 91 bd c8 52 6b bc b5 f8 a0 3d 2c e5 b0 3d
       -0.07122514 -0.014362998 0.07859937 0.08637461
000200 0d b8 af bd 2b bf a5 bd 06 e4 20 3d 85 ce 0f 3c
       -0.08580027 -0.08093103 0.03927996 0.008777265
000210 d6 3d 7f bd 41 13 23 bd 16 92 a7 bd 81 7b 0d bd
       -0.06231483 -0.039813284 -0.081821606 -0.03454161
000220 8d 2f 3f 3d 2f 22 ad 3c fe a6 6c bb 15 8e ad 3d
       0.046676207 0.021134464 -0.0036110277 0.084743656
000230 80 b9 a4 bc b2 aa b0 3c c2 67 3e bb 6a 96 af bd
       -0.020107985 0.021565769 -0.0029053544 -0.08573611
000240 79 9b 88 bc 86 70 ac 3d 0b 51 2f bd 1b 84 74 bd
       -0.016675698 0.084199 -0.042801898 -0.059696298
000250 83 76 9d 3d 0d be 3b bd 94 47 78 bd 5b 98 ad bc
       0.0768862 -0.045835543 -0.060615137 -0.021190813
000260 7a 0e eb 3c 9d 68 44 bd 2c 9a 63 3d a4 d5 56 bd
       0.028693426 -0.04795133 0.05556695 -0.052449837
000270 92 27 67 bc 01 3b 46 bd cc d9 aa bd cb a0 5b bd
       -0.014108555 -0.048396114 -0.08342323 -0.05362014
000280 1c f7 28 3d 15 af 85 bd de 59 a3 bb a4 93 8d 3d
       0.041251287 -0.06527535 -0.0049850782 0.06912926
000290 aa 53 45 bd f5 05 9a 3d a3 ac d1 3c f9 c3 8a bd
       -0.04817549 0.075206675 0.025595015 -0.0677566
0002a0 e3 4b a5 3c c5 e5 47 bd b5 79 10 bd d3 62 3c 3d
       0.020177787 -0.04880311 -0.03527232 0.045992684
0002b0 1d 06 98 3d d2 25 28 bd 47 57 09 3d fd 2f b1 bd
       0.07423041 -0.041051693 0.0335305 -0.08651731
0002c0 8b 88 8d bd 34 a6 d7 bc 69 1e f3 3c e3 48 73 bd
       -0.06910809 -0.026324369 0.029677587 -0.059395682
0002d0 25 a2 06 bd bd e3 57 bd 9f 1b 48 bc 08 cc 45 bd
       -0.032869477 -0.052707423 -0.012213617 -0.048290282
0002e0 0f d7 1c 3d 09 0d ad 3d fd 77 87 bc 73 47 93 3d
       0.038291033 0.08449752 -0.016536707 0.07191362
0002f0 f2 b0 a5 3d 39 42 7b bd b4 d8 a9 3c 2e 87 4e bd
       0.0809039 -0.06134245 0.020733215 -0.050421886
000300 f8 fa 9a 3c ec b7 6f 3d 04 c0 63 3d 7f a2 88 bd
       0.0189185 0.05852501 0.055603042 -0.06671619
000310 f1 3e 46 bd 47 a1 4a 3d 59 0d 0c bd 46 48 00 bd
       -0.04839987 0.049470212 -0.034192417 -0.031318925
000320 11 46 ab bd f4 45 a1 3c 68 6f 4c bd e4 1d 9f 3d
       -0.083629735 0.019686677 -0.049910933 0.07769373
000330 97 be 1f bd 97 5f a1 bc 8d 4a a1 bd 3a ae e5 39
       -0.03900012 -0.019698901 -0.078755476 0.00043808093
000340 c9 5a a1 bc aa 37 95 bd d5 d8 32 bd 5a f0 99 3c
       -0.01969661 -0.07286008 -0.04366382 0.018791366
000350 28 f4 04 3d 9f aa 99 3d d4 23 32 bd de f0 f7 3a
       0.032459408 0.075032465 -0.0434912 0.0018916389
000360 bb 94 18 bd 5a 6e 43 bd 39 de f9 3c 01 68 84 bd
       -0.037251215 -0.04771266 0.030501472 -0.0646515
000370 cb ef 76 bd 60 9e 72 bc 99 68 99 3d 2e d9 70 bd
       -0.06028728 -0.014808267 0.074906535 -0.05880087
000380 c0 4b 7d bd e5 3c ce 3c cc 8c a7 3d 0e ed ad bd
       -0.06183982 0.025175521 0.08181152 -0.0849248
000390 aa 36 07 bd 9a 76 ad 3b c5 b4 38 bd f6 d6 5c 3c
       -0.033011116 0.0052936794 -0.04509427 0.013478985
0003a0 7c a6 dd 3c e7 5f 8a 3d 65 60 47 bd 04 7a 37 bc
       0.027056925 0.06756573 -0.048675913 -0.011198524
0003b0 42 b2 ec 3b 90 f9 a6 bd 03 71 6c bd d2 11 cf 3a
       0.0072233984 -0.08153069 -0.057724964 0.0015798158
0003c0 fe 95 18 3c 88 4d b9 3a f2 76 e2 bc c1 2d 0c bc
       0.009313105 0.0014137486 -0.027644608 -0.00855583
0003d0 c4 9c a8 3d a5 12 59 3d de cd e1 bb 2b 2f a9 3c
       0.08233026 0.052996296 -0.0068909964 0.020652374
0003e0 7d 25 9f bd 91 af 16 3d 8b b4 cb 3c 46 41 a3 bd
       -0.07770822 0.036788527 0.024866363 -0.07971434
0003f0 10 e1 6b 3d 6b ff 44 bd a0 5a 6c 3d e5 f4 95 bd
       0.057587683 -0.048095148 0.057703614 -0.073221005

actor.bias f4 [4]
000000 ff 8b 98 bd 57 b4 7e 3d ac fd 50 bb c4 59 57 3c
       -0.07448577 0.062183704 -0.0031889481 0.01314396

critic.weight f4 [1, 128]
000000 5a 79 89 bd b5 30 c4 bc ed 3c 9a 3c 76 61 25 3c
       -0.06712599 -0.023949007 0.01882788 0.010094037
000010 ad e3 dd 3c cd cd ac 3c df b8 9b bd e9 8c 3b bb
       0.027086103 0.021094227 -0.07603621 -0.0028617925
000020 a5 d6 61 3d 37 5a 7d bd b2 bf d1 3c b7 10 91 bd
       0.05513634 -0.061853614 0.025604103 -0.07083266
000030 9a 8c 1b bd 6f cd ea bb 17 4e 6f 39 b7 9a e0 3c
       -0.037975885 -0.007165603 0.00022821907 0.027417524
000040 b6 52 ad 3c 46 6d b1 bb 43 f2 50 3d cd 3b 78 3d
       0.021157604 -0.0054146377 0.05101229 0.060603905
000050 ea a1 b4 bd b8 4f b3 3b c2 14 6f bd 2a 12 12 bc
       -0.08819945 0.0054721497 -0.058369406 -0.008915463
000060 95 f5 24 3d 3a 70 fd bc 3a c4 6d bd 2b 44 0c bd
       0.040273268 -0.030937303 -0.058048464 -0.034244698
000070 c7 1c 24 3c 29 36 82 bd 1d 90 c8 3c 23 92 ae bd
       0.010016627 -0.063579865 0.024482781 -0.08523967
000080 73 2a 29 bd 13 ce 28 3d 72 b5 8c 3d e8 de 7c 3d
       -0.04130025 0.041212153 0.068705454 0.061736017
000090 61 a0 81 36 0e a5 20 bd 42 10 e1 3b 00 c7 f3 3c
       3.86317e-06 -0.03921991 0.006868393 0.029757977
0000a0 e0 10 44 3d 70 2a 36 3d 9b a4 41 bd 71 80 fb bb
       0.047867656 0.044474065 -0.04727612 -0.0076752235
0000b0 c4 3d 90 3d fa b1 2c b9 3c be 95 bd 1c 27 73 bb
       0.07043031 -0.000164695 -0.07311675 -0.0037102168
0000c0 47 f8 1f bd d0 e6 56 3c 42 31 59 bd 54 dc 8d bd
       -0.039055135 0.013116553 -0.05302549 -0.0692679
0000d0 32 d6 a6 3d b0 d3 a0 3d ee 3d 9a bd 92 24 b5 bc
       0.08146323 0.07852876 -0.075313434 -0.022112165
0000e0 ff 7a 15 bd 18 89 d3 bc db da 33 3d fa bc 5c bc
       -0.03649425 -0.025822207 0.04390989 -0.01347279
0000f0 e3 4d 9f 3d 6e 62 c6 3c b9 37 23 3d c7 9d f3 bc
       0.077785276 0.024216857 0.039848063 -0.02973832
000100 83 20 66 bd fd 8a b6 bb bc 53 a3 3d 7b cb ca bc
       -0.05618335 -0.005570768 0.079749554 -0.02475523
000110 1a 01 53 3c aa ef 01 3c 7b fa 90 3d 7f 9f a7 3c
       0.012878681 0.0079306755 0.07079025 0.020461796
000120 db dd 7c 3d 0b 33 4d 3c f9 3d 52 3d 61 6a 86 3d
       0.061735015 0.012524377 0.051328633 0.06563259
000130 40 e2 aa 3d 44 12 a9 3d 31 86 39 bd 98 9f 76 bd
       0.08343935 0.08255437 -0.04529399 -0.060210794
000140 fe e8 33 3c 85 8b 28 3c 8d c1 6e bd 8b b2 1e 3b
       0.010980843 0.01028717 -0.058290053 0.0024215307
000150 0c 0e 53 3d eb 93 4e 3c a5 a9 ad bd 39 cf 66 3d
       0.051527068 0.012608509 -0.08479623 0.056349967
000160 9b d5 13 bd 1b 23 2d 3d 7e 8b 5d 3d 8f 04 a6 3d
       -0.036092382 0.042269807 0.05408811 0.08106338
000170 db 21 b2 bd 9f 6b b8 bc f7 5c ad bc 0e 1d 82 bd
       -0.08697864 -0.022512255 -0.021162493 -0.06353198
000180 ca 55 4f 3d 9b 10 1e bb 30 65 c4 3b 15 98 a9 bd
       0.050618924 -0.0024118784 0.005993508 -0.082809605
000190 e1 22 74 3d ec 38 65 3d 67 c2 2e 3d bb 39 8e bd
       0.059603576 0.055962488 0.042665865 -0.06944605
0001a0 12 7e 48 bd a8 b6 32 3d 0a 57 3a bc dd 79 ba 3c
       -0.048948355 0.043631226 -0.011373291 0.022763187
0001b0 20 69 80 bb f4 e5 7b 3d 73 2e 07 bd b1 1c 3a bd
       -0.003918782 0.061498597 -0.03300328 -0.04543752
0001c0 fa 9b 0c bd 4a 46 76 bd fd 3b 37 3d f6 f2 b9 bc
       -0.03432844 -0.060125627 0.044734944 -0.02269886
0001d0 28 aa 2e bd c5 69 62 3d 64 2f 74 bd f1 b7 f7 3c
       -0.042642742 0.05527665 -0.059615508 0.030239077
0001e0 58 45 6f 3c 3c db 9a 3c 27 60 80 bb 53 dd 7b 3c
       0.014603935 0.018903367 -0.0039177123 0.015372592
0001f0 0c 12 8f bd 34 1a 40 bd bc 59 6f bd 42 95 1b 3d
       -0.06985864 -0.04689999 -0.058435187 0.03798414
