models/hybrid/handcrafted/PPL/agent1.pth (torch, 40580 bytes, 5 tensors)

fc.weight f4 [128, 68]
0	0xbd984340	-0.07434702
1	0x3d664208	0.056215316
2	0x3d982780	0.07429409
3	0x3c4e58e0	0.012594432
4	0x3cabab0f	0.02095559
5	0x3cc428c2	0.023945216
6	0xbddc2f8f	-0.107512586
7	0x3d37aadd	0.044840682
8	0x3dae82fa	0.085210755
9	0xbc0d58ec	-0.008627158
10	0x3dbd1992	0.09233393
11	0x3d0596fa	0.032614686
12	0xbd9de871	-0.0771035
13	0x3d59f694	0.05321367
14	0xbdc5f994	-0.09666744
15	0xbda73fb7	-0.081664495
16	0x3d9059f1	0.07048405
17	0x3cb76251	0.022385748
18	0xbd98aad7	-0.0745446
19	0xbcc3b6cc	-0.023890875
20	0x3ddd28e9	0.107988186
21	0xbd193ea7	-0.037413266
22	0x3db41381	0.087927826
23	0x3db18ea3	0.08669784
24	0x3dc42d09	0.09578902
25	0x3d91fba9	0.071280785
26	0xbd84b9e0	-0.06480765
27	0x3cdaca25	0.026707718
28	0x3d9c1c7f	0.07622623
29	0xbd804c21	-0.062645204
30	0x3d38940d	0.045063067
31	0x3dacf063	0.08444288
32	0x3d06c92d	0.0329067
33	0x3de53a71	0.111927874
34	0x3dda35cd	0.10654793
35	0x3dd73ce7	0.10509663
36	0x3d226be6	0.03965368
37	0xbdb81a6a	-0.08989413
38	0xbd925a5f	-0.07146143
39	0xbc1a2c6a	-0.009410003
40	0xbddadc20	-0.10686517
41	0x3dc0ca0f	0.094135396
42	0x3d69299d	0.05692445
43	0xbdd0743c	-0.1017842
44	0xbda95d23	-0.082697175
45	0xbde97cf7	-0.11400788
46	0x3d25d5e0	0.04048717
47	0x3d8da554	0.069162995
48	0xbdced028	-0.100982964
49	0xbde14207	-0.10998922
50	0x3b676753	0.0035309389
51	0xbdf021fd	-0.11725233
52	0x3ddba7f6	0.107253954
53	0x3d8905e9	0.066905804
54	0x3d64fc6c	0.05590479
55	0x3cad7455	0.021173635
56	0xbdaef17a	-0.08542152
57	0x3d36620c	0.0445271
58	0xbddeed50	-0.108851075
59	0xbd61e8a2	-0.055153497
60	0xbde2f166	-0.11081199
61	0x3dd1d5eb	0.1024588
62	0xbc987852	-0.01861206
63	0x3d0cd14c	0.03437929
64	0xbd6bb2d5	-0.057543594
65	0xbcaae3c2	-0.020860557
66	0x3ddc92ae	0.107701644
67	0x3dbd1cb2	0.09233989
68	0x3defcd38	0.11709064
69	0xbc84de05	-0.016219148
70	0x3db3c91a	0.087785915
71	0xbd256cc1	-0.04038692
72	0x3d34e46b	0.04416315
73	0xbd2a6b20	-0.04160607
74	0xbb83e64b	-0.004025256
75	0x3c170554	0.009217579
76	0x3d267b1e	0.040644757
77	0xbd5e1f67	-0.054229166
78	0x3d369340	0.044574022
79	0xbdf2ce00	-0.11855698
80	0xbd2a82ca	-0.041628636
81	0xbcf4d0b8	-0.029884681
82	0xbda6ec6f	-0.08150565
83	0x3dec327d	0.115330674
84	0x3d92b57a	0.0716352
85	0x3dbae9bd	0.09126613
86	0x3dbebd57	0.093134575
87	0x3d7cad50	0.06168872
88	0x3d8fee56	0.07027881
89	0xbb7a9bc4	-0.0038239816
90	0x3dd11daf	0.1021074
91	0xbd49f209	-0.04930309
92	0xbdde7e2a	-0.10863908
93	0xbdeabcee	-0.11461817
94	0x3c336755	0.010949929
95	0x3d8bffc3	0.06835892
96	0x3d99e3d6	0.075141594
97	0x3d7c99f4	0.06167026
98	0xbd4ddce4	-0.050259486
99	0x3d1aba6b	0.03777544
100	0xbd8b91b6	-0.068149015
101	0x3d904845	0.07045034
102	0x3ddd76ff	0.10813712
103	0xbd8412ff	-0.06448936
104	0x3dde8a01	0.10866166
105	0xbcbfa479	-0.023393856
106	0x3afbd0c8	0.0019212002
107	0xbc9f788a	-0.019466657
108	0x3dd107c4	0.10206559
109	0x3db8c3cb	0.090217195
110	0xbd8b72fd	-0.06809042
111	0xbd9bfdcf	-0.076167695
112	0x3db3c089	0.087769575
113	0x3cba741a	0.02276044
114	0xbd8acfa5	-0.06777886
115	0xbda853cd	-0.08219109
116	0x3d9696ca	0.073529795
117	0xbc9c7274	-0.019097544
118	0x3d5da33d	0.054110754
119	0x3db82062	0.089905515
120	0x3c9b1ed8	0.018935606
121	0xbd8bad72	-0.068201914
122	0xbd7d9440	-0.06190896
123	0x3ca371e2	0.019951764
124	0x3defb938	0.117052495
125	0x3d03eaeb	0.032206457
126	0x3db133c6	0.08652453
127	0xbc8151a8	-0.015786007
128	0x3d0b6ee0	0.034041286
129	0x3cafc8d1	0.021458061
130	0x3dd8c817	0.10585039
131	0x3d13c6df	0.03607833
132	0xbcf72f4d	-0.030173922
133	0x3dad448b	0.08460339
134	0x3d7a747d	0.061146248
135	0xbda580bd	-0.080811955
136	0xbdced7a1	-0.10099722
137	0xbd5109a4	-0.051034585
138	0x3d0ff088	0.035141498
139	0xbde83ee9	-0.11340124
140	0x3df108f9	0.117692895
141	0xbd780381	-0.060550217
142	0xbb344477	-0.0027506629
143	0xbdb0c9b9	-0.086322255
144	0x3c2a185c	0.010381784
145	0x3df50b22	0.11965014
146	0x3c747c61	0.014922232
147	0xbdc8203f	-0.097717755
148	0xbccaa6fa	-0.024737824
149	0xbd9bc1db	-0.07605334
150	0xbd3ddace	-0.046351247
151	0xbce344f6	-0.027742844
152	0xbd50fddf	-0.05102336
153	0xbd41ee92	-0.04734666
154	0x3c6330b5	0.013866593
155	0x3d8a06f8	0.067396104
156	0x3b18a9f3	0.0023294657
157	0xbda967d5	-0.082717575
158	0x3d1487b0	0.036262214
159	0x3de93b6b	0.11388286
160	0x3df68a08	0.12038046
161	0xbcbc57ee	-0.022991147
162	0xbc1dc127	-0.009628571
163	0x3d8ee8bf	0.069779865
164	0x3cecc14a	0.028900761
165	0x3db0b478	0.08628172
166	0xbd1198a6	-0.035545968
167	0x3c75e289	0.0150076235
168	0x3d8c577f	0.06852626
169	0x3d8a88a4	0.067643434
170	0xbdda2de0	-0.10653281
171	0xbd6230b6	-0.055222236
172	0x3d0a7d67	0.033811
173	0x3da17ab8	0.07884735
174	0xbdbb4f48	-0.09145981
175	0xbdbf0f0b	-0.09329041
176	0x3c6bc36f	0.014389857
177	0x3d694cdc	0.056958064
178	0x3dee4ca5	0.116357125
179	0x3dd35f27	0.10320883
180	0x3de59c7e	0.11211489
181	0x3d49398d	0.04912715
182	0x3d80fce8	0.06298238
183	0x3d286bc8	0.041118413
184	0x3db6e8c0	0.08931112
185	0x3d974f1b	0.07388135
186	0x3d628211	0.055299822
187	0xbddd6001	-0.10809327
188	0xbc1766b5	-0.009240796
189	0xbcddf327	-0.027093483
190	0x3da924bc	0.0825896
191	0x3c8a3a7e	0.016873594
192	0x3b06cd6c	0.0020569218
193	0x3df4de30	0.119564414
194	0xbdd65eea	-0.10467322
195	0x3d93852f	0.07203137
196	0x3ded9f1a	0.11602612
197	0x3c5bf76f	0.013425692
198	0x3dbe61ed	0.092960216
199	0xbb24baa3	-0.0025135658
200	0xbd75a9f5	-0.059976537
201	0x3d9854d9	0.074380584
202	0xbda3a581	-0.07990552
203	0x3d56ac9a	0.0524107
204	0xbd18170a	-0.037131347
205	0x3b4ddaa2	0.0031410833
206	0xbdaa3bf7	-0.08312219
207	0x3d2fe62d	0.042944122
208	0x3cd632d1	0.026147278
209	0xbde2242b	-0.11042055
210	0x3cb38aa7	0.0219167
211	0x3ddb152e	0.10697399
212	0xbdecd6f1	-0.11564434
213	0x3d4996fd	0.04921626
214	0x3d8dce07	0.06924062
215	0xbcb2d1b0	-0.021828502
216	0xbdc3fbb1	-0.09569491
217	0xbd3dd751	-0.04634792
218	0xbd818946	-0.06325011
219	0xbdbedadb	-0.09319087
220	0xbdbc6ab2	-0.09200038
221	0xbdbf1a4b	-0.09331187
222	0xbce350a2	-0.02774841
223	0x3cbde472	0.02318022
224	0x3d94bda1	0.07262731
225	0x3d49e3ad	0.049289394
226	0xbd1be954	-0.038064316
227	0xbc8f36b2	-0.017482135
228	0xbdebeef1	-0.11520184
229	0xbdae32ed	-0.08505807
230	0xbcf3cce7	-0.029760791
231	0x3cf4935c	0.029855423
232	0xbd5beca1	-0.053692464
233	0xbaf67b76	-0.0018805105
234	0xbcd31447	-0.025766505
235	0x3c11cbfb	0.00889873
236	0x3d8399dd	0.064258315
237	0xbd353f1d	-0.044249643
238	0xbd4e0625	-0.05029883
239	0xbc8de297	-0.01731996
240	0xbd086e9a	-0.033308603
241	0xbd8a20a3	-0.06744506
242	0x3c0d9d80	0.008643508
243	0x3d9eb1d3	0.07748761
244	0xbc98467e	-0.0185883
245	0xbdaa11d8	-0.08304185
246	0xbcc5a76a	-0.02412768
247	0x3df2afd0	0.1184994
248	0x3d869333	0.06571045
249	0xbda3632a	-0.079778984
250	0xbb49a395	-0.0030767669
251	0xbd3d579b	-0.046226125
252	0x3def70ad	0.11691413
253	0xbdc5a032	-0.096496955
254	0xbcb3af01	-0.021934034
255	0x3d643173	0.05571122

fc.bias f4 [128]
0	0x3ba4aada	0.00502525
1	0xbd9dd89d	-0.07707331
2	0x3ddff663	0.109356664
3	0x3d3eb8fe	0.04656314
4	0x3d83d197	0.064364605
5	0xbda2dab7	-0.07951873
6	0xbd8ad8de	-0.067796454
7	0x3d5f5a06	0.054529212
8	0x3d538562	0.051640876
9	0x3da8e266	0.08246307
10	0xbdc420aa	-0.09576543
11	0xbd847d7d	-0.064692475
12	0x3da32561	0.07966114
13	0x3d43178b	0.047629874
14	0xbdbac16b	-0.09118923
15	0x3ddaa1c3	0.10675385
16	0x3dc528f9	0.096269555
17	0xbdcc1fde	-0.09967016
18	0x3d7ccd79	0.06171939
19	0xbd215e18	-0.039396375
20	0x3decc7d9	0.115615554
21	0x3d3a3bf0	0.045467317
22	0xbd78ab6c	-0.060710356
23	0xbd0902b8	-0.03344986
24	0xbd9996d0	-0.07499468
25	0x3d7ea615	0.062170107
26	0xbc640892	-0.013918059
27	0x3d0e5dd4	0.03475745
28	0xbc229267	-0.0099226
29	0x3dc633f1	0.09677876
30	0x3dbc1329	0.09183342
31	0xbdd1cd31	-0.10244215
32	0xbc04542e	-0.008076711
33	0x3cc32e73	0.02382586
34	0xbd9fbc72	-0.07799615
35	0xbd817b9f	-0.06322407
36	0x3cd2bc1a	0.02572446
37	0xbd8f0767	-0.06983834
38	0xbdb96e23	-0.0905421
39	0x3cca0800	0.024662018
40	0xbbe80c41	-0.007081539
41	0x3b46edb7	0.0030354091
42	0x3d11608f	0.035492476
43	0xbd2c1272	-0.04200978
44	0x3ce3ccc6	0.027807605
45	0x3c7f5d99	0.01558628
46	0xbdadb212	-0.0848123
47	0x3d72160a	0.05910305
48	0xbd9f0fc6	-0.077666804
49	0x3df74f90	0.12075722
50	0xbb8b79a3	-0.0042564436
51	0xbcc3fd79	-0.023924576
52	0xbd804995	-0.06264035
53	0x3d94e9cf	0.07271158
54	0xbdc4b7a0	-0.09605336
55	0xbc0f5592	-0.008748429
56	0x3c2a34fc	0.010388609
57	0x3c74f3bf	0.014950692
58	0x3d619a54	0.05507882
59	0x3d8cff15	0.068845905
60	0xbcb38c86	-0.021917593
61	0xbdb2fdd1	-0.08739818
62	0xbc1e7bfc	-0.009673115
63	0xbd81d41b	-0.06339284
64	0x3d49b97c	0.049249157
65	0xbd14dc3c	-0.036342844
66	0x3ce63977	0.028103573
67	0x3d2cb964	0.04216899
68	0xbdbb70d2	-0.09152378
69	0xbcdbf4b1	-0.026850076
70	0xbb68b0cc	-0.003550577
71	0x3d703609	0.058645282
72	0xbc1bc7c5	-0.009508078
73	0x3cea7080	0.028618097
74	0xbd131ff0	-0.03591913
75	0x3de13849	0.10997064
76	0x3daea277	0.085270815
77	0xbd335067	-0.04377785
78	0xbd86e4b6	-0.06586592
79	0xbc91bf8e	-0.017791536
80	0x3d8debfd	0.06929777
81	0x3df5788b	0.11985882
82	0xbd44fa5d	-0.048090328
83	0xbc081337	-0.008305362
84	0xbd1dfafa	-0.038569428
85	0xbc1723bb	-0.009224827
86	0x3da68d59	0.08132429
87	0xbd9a1396	-0.07523267
88	0x3c2bdb6b	0.010489325
89	0x3d65651c	0.05600463
90	0x3de123a8	0.10993129
91	0xbd896d19	-0.06710262
92	0xbd0e0d1a	-0.034680463
93	0x3de2c8e3	0.11073472
94	0x3dceee90	0.10104096
95	0x3cc76c48	0.024343625
96	0xbc177986	-0.009245282
97	0xbda3d1d1	-0.07999004
98	0xbc4b6b74	-0.012415756
99	0xbda1b66a	-0.07896121
100	0xbbcbd1aa	-0.0062200623
101	0x3d8c6cdc	0.06856701
102	0x3dbcfa6e	0.09227453
103	0x3d9bc080	0.07605076
104	0x3d896261	0.067082174
105	0x3de977c5	0.11399797
106	0x3da48a04	0.08034137
107	0x3d2d3d10	0.042294562
108	0xbdd3ceae	-0.103421554
109	0xbdc445ad	-0.09583602
110	0x3d966400	0.07343292
111	0x3dd9b539	0.106302686
112	0x3dc56b3d	0.09639595
113	0x3dd3bfb9	0.103393026
114	0xbdbd445b	-0.092415534
115	0x3d190189	0.03735498
116	0x3d8013c9	0.06253774
117	0x3df79d6d	0.120905735
118	0x3c5026b2	0.012704538
119	0x3ce86d33	0.028372383
120	0x3c2f3532	0.010693835
121	0xbd3b81d9	-0.04577813
122	0x3cc84dd9	0.024451183
123	0xbc3ec64f	-0.01164396
124	0xbd18619f	-0.037202474
125	0xbc3dde64	-0.011588667
126	0xbd88e825	-0.06684903
127	0xbd08a4a6	-0.033360146

actor.weight f4 [4, 128]
0	0xbd04c27e	-0.032412045
1	0x3d448c39	0.04798529
2	0x3da9118b	0.08255299
3	0x3d9c9661	0.0764587
4	0x3b80e3a7	0.0039333883
5	0xbd968777	-0.073500566
6	0xbdae4d75	-0.085108675
7	0xbd9b4f7c	-0.0758352
8	0xbc1fa7af	-0.009744569
9	0xba24a62d	-0.00062808656
10	0x3b2873a2	0.0025703688
11	0x3d21c852	0.03949768
12	0xbda80df1	-0.08205784
13	0xbc1e5080	-0.009662747
14	0xbd99e455	-0.07514254
15	0x3d886255	0.0665938
16	0xbd4a94bc	-0.04945825
17	0xbad6fbe3	-0.0016401972
18	0x3d47fc2f	0.048824485
19	0xbc0f9815	-0.0087642865
20	0xbcd7655e	-0.026293453
21	0x3ba5f90a	0.005065088
22	0xbda4ef81	-0.08053494
23	0xbbedbcbf	-0.0072551663
24	0xbd7447a7	-0.059638645
25	0xbdacd587	-0.084391646
26	0xbd93b950	-0.0721308
27	0x3d17846b	0.036991518
28	0x3d16038d	0.03662448
29	0x3db25130	0.087068915
30	0xbce8c0f0	-0.028412312
31	0xbd564202	-0.052309044
32	0xbd0a0a8e	-0.033701472
33	0xbd200385	-0.039065856
34	0xbc72a85b	-0.014810647
35	0xbd18a710	-0.0372687
36	0x3d9334df	0.07187819
37	0x3b923b96	0.0044626696
38	0xb933fcc3	-0.00017164931
39	0xbc8d4d84	-0.017248876
40	0xbd29c2b9	-0.041445468
41	0xbbf5632f	-0.0074886302
42	0xba4fd033	-0.00079274474
43	0xbdae6f97	-0.08517378
44	0xbda735f6	-0.08164589
45	0xbba88db0	-0.0051438436
46	0xbd73257f	-0.05936193
47	0xbc116f3f	-0.008876621
48	0xbd4ba2ad	-0.049715687
49	0xbb090d9d	-0.0020912655
50	0xbd8761df	-0.06610464
51	0x3dae61ac	0.08514723
52	0x3cbc5669	0.022990422
53	0x3c8a150f	0.016855745
54	0xbd96e1e9	-0.07367308
55	0x3d4fb4f5	0.050709683
56	0xbca97aa2	-0.020688359
57	0x3d9ce25b	0.076603614
58	0x3da2dca8	0.07952243
59	0x3d96e908	0.07368666
60	0x3ce88d47	0.028387679
61	0xbd11b300	-0.0355711
62	0xbd6f7254	-0.05845864
63	0x3c72166d	0.014775855
64	0xbcb22e8e	-0.021750715
65	0xbd10464e	-0.035223298
66	0xbd9165a8	-0.070994675
67	0x3d2f2914	0.042763785
68	0xbcd4f662	-0.02599639
69	0xbd8110b7	-0.06302016
70	0xbc1a502e	-0.00941853
71	0xbd66226e	-0.05618518
72	0x3daf668e	0.08564483
73	0xbd3d45d4	-0.04620917
74	0xbd5ff7fc	-0.054679856
75	0xbb5f2fc8	-0.003405558
76	0x3d95d01c	0.07315084
77	0xbc7d387e	-0.015455363
78	0xbd32c6ec	-0.043646738
79	0xbcd768c9	-0.026295083
80	0xbd670bbd	-0.05640768
81	0x3da7ae4d	0.08187542
82	0x3d667fde	0.056274287
83	0xbd8e31b3	-0.06943073
84	0xbb7f0163	-0.0038910739
85	0x3d80f766	0.062971875
86	0xbdaf9be4	-0.08574656
87	0x3d3d0373	0.046145868
88	0xbd908fde	-0.070586905
89	0xbd27a8a5	-0.040932316
90	0xbb7c20f8	-0.00384718
91	0x3d8b097f	0.067889206
92	0xbb013b5c	-0.0019719219
93	0x3c60ba88	0.0137163475
94	0xbd6e6e4b	-0.058210652
95	0xbd8774a4	-0.06614044
96	0x3d907ff4	0.07055655
97	0xbce8125b	-0.028329065
98	0x3d61c416	0.055118643
99	0x3d1badd1	0.03800756
100	0x3d923257	0.07138508
101	0xbda55904	-0.08073619
102	0x3d33e35e	0.043918006
103	0xbd7384aa	-0.05945269
104	0xbd185560	-0.037190795
105	0xbd0a20ea	-0.033722796
106	0xbd6b562a	-0.05745522
107	0x3d93f07d	0.07223604
108	0xbda81dc9	-0.08208806
109	0x3be8fb9d	0.0071100728
110	0xbc5bc79b	-0.013414289
111	0xbce468c0	-0.02788198
112	0xbd8591ad	-0.06521926
113	0xbd47a9c7	-0.048745897
114	0x3d85cb1c	0.06532881
115	0xbd8c85b8	-0.06861442
116	0xbd43b813	-0.04778297
117	0xbca54343	-0.020173674
118	0x3d45e875	0.04831739
119	0x3c6167b5	0.013757636
120	0xbdaa5049	-0.083160944
121	0x3da8c57e	0.08240794
122	0xbdabcd0a	-0.083887175
123	0x3cefaa96	0.029256146
124	0x3d856f21	0.06515337
125	0x3c131099	0.008976125
126	0xbd2c28b2	-0.042030998
127	0x3d7e70ad	0.062119175
128	0x3d765816	0.0601426
129	0xbd45596d	-0.048180986
130	0xbd8447eb	-0.0645903
131	0x3d17d83a	0.037071444
132	0x3d1168ad	0.035500217
133	0xbdaf13ef	-0.08548724
134	0xbd9ce7cf	-0.076614015
135	0x3c9c62f3	0.019090151
136	0x3d72ef09	0.059309993
137	0xbd05e3f4	-0.032688096
138	0xbd858a77	-0.06520551
139	0x3cea1e24	0.028578825
140	0xbd6796c5	-0.05654027
141	0x3d326322	0.04355157
142	0x3d4e055a	0.050298072
143	0x3d9b3ee1	0.075803526
144	0x3c841b00	0.016126156
145	0x3c99fca1	0.01879722
146	0x3d1d529a	0.038408853
147	0xbd23a6f8	-0.039954156
148	0xbc8fde28	-0.017561987
149	0x3cd8f9c4	0.026486285
150	0x3c583d02	0.013198139
151	0xbdb190c3	-0.08670189
152	0xbd3b1634	-0.04567547
153	0x37df4aea	2.6618556e-05
154	0x3c57d3ef	0.0131730875
155	0x3d794638	0.06085798
156	0xbcf1dad1	-0.029523285
157	0x3d9e0e5d	0.07717583
158	0x3c006804	0.007837299
159	0x3d2e1f58	0.04251036
160	0x3ca6b442	0.020349625
161	0x3d86c211	0.06579984
162	0x3d8da861	0.06916881
163	0x3d095f53	0.033538174
164	0xbbdd17e6	-0.0067472337
165	0x3d9e03db	0.07715579
166	0x3d5022bd	0.05081438
167	0xb92bd457	-0.00016386934
168	0xbce9806c	-0.02850362
169	0x3cf7c5a7	0.030245615
170	0xbd74ee7d	-0.059797753
171	0x3cf64e24	0.030066557
172	0x3d007170	0.031358182
173	0x3be1a965	0.0068866485
174	0xbcbaace8	-0.022787526
175	0x3d3ca3a0	0.046054482
176	0xbd3b4528	-0.04572025
177	0x3d90ab65	0.07063941
178	0xbd13b157	-0.036057796
179	0xbc26d527	-0.010182655
180	0x3ceb3c0f	0.028715162
181	0xbda628f4	-0.0811328
182	0xbd8f62b1	-0.07001246
183	0x3d8af28b	0.06784543
184	0xbd45ddc6	-0.048307203
185	0xbd96d573	-0.07364931
186	0x3da9dd5f	0.08294176
187	0xbd9e7899	-0.07737846
188	0xbda11f14	-0.07867256
189	0xbc63d564	-0.013905857
190	0xbda55f44	-0.08074811
191	0x3d88177e	0.06645106
192	0x3b46eecc	0.0030354736
193	0x3d06c2de	0.032900684
194	0xbd19c4b9	-0.037541125
195	0x3c8d0cc8	0.017218009
196	0x3d8d1c5e	0.06890176
197	0x3d99c0f6	0.075075075
198	0xbd091fe7	-0.03347769
199	0x3d29087e	0.041267864
200	0xbd2d3809	-0.042289767
201	0xbc76631e	-0.01503828
202	0x3d964e12	0.073391095
203	0xbd379651	-0.044821087
204	0x3d8e45d0	0.069469094
205	0xbd555922	-0.052086957
206	0xbcc7fec2	-0.02441347
207	0xbd0dcd8b	-0.03461985
208	0xbd6455c5	-0.05574586
209	0x3cde0893	0.027103698
210	0xbd54b9ed	-0.051935125
211	0x3cbf9de7	0.023390723
212	0xbc3868d6	-0.011255464
213	0xbb878b9f	-0.004136517
214	0xb9829378	-0.00024905405
215	0x3da74897	0.08168142
216	0xbd0761ea	-0.033052363
217	0xbdb1fd20	-0.08690858
218	0xba470b6a	-0.00075929484
219	0x3d8a44e9	0.06751425
220	0x3cb236b6	0.021754604
221	0x3cf3d137	0.029762847
222	0xbd2464ce	-0.040135197
223	0xbd37e25b	-0.044893604
224	0x3da6399b	0.08116456
225	0xbd752a7c	-0.05985497
226	0x3c01589d	0.007894662
227	0x3d852031	0.06500281
228	0xbcb2db76	-0.021833163
229	0x3c3af293	0.011410373
230	0x3d8d7da3	0.06908729
231	0xbd30b845	-0.043144483
232	0xbd22375e	-0.039603584
233	0xba656e4e	-0.00087520934
234	0x3ca1cd15	0.019751111
235	0xbd419b01	-0.047266964
236	0x3d010894	0.03150232
237	0xbd85db7e	-0.065360054
238	0x3ac32081	0.0014887006
239	0x3d7c5dc0	0.061612844
240	0x3c48b5ee	0.012250407
241	0xbd9e2d39	-0.07723469
242	0xbb84d87e	-0.004054128
243	0xbccda22b	-0.025101742
244	0x3d116dab	0.03550498
245	0xbc252a65	-0.010080908
246	0x3d717eff	0.058959004
247	0xbd9e093a	-0.077166036
248	0xbd5013d7	-0.05080017
249	0x3cf51e2a	0.02992161
250	0xbd05620f	-0.03256422
251	0xbd36c988	-0.04462579
252	0xbcd25be3	-0.02567858
253	0x3d0c68ec	0.03427975
254	0xbd1dd8e8	-0.038536936
255	0x3d1f1023	0.03883375

actor.bias f4 [4]
0	0xbc59c56c	-0.013291698
1	0xbd042d05	-0.032269496
2	0xbd8b06c5	-0.067884006
3	0x3d822c33	0.063560866

critic.weight f4 [1, 128]
0	0xbd12bd03	-0.035824787
1	0xbd931852	-0.07182373
2	0x3d9deaba	0.07710786
3	0xbd9a52ae	-0.07535301
4	0x3c8c9487	0.017160667
5	0xbdab2e47	-0.08358436
6	0xbd744af6	-0.0596418
7	0xbca5ceb1	-0.02024016
8	0xbcfe3a04	-0.031033523
9	0x3d53dddd	0.051725257
10	0xbcd36571	-0.025805207
11	0xbd5510b4	-0.052017882
12	0xbcc35a4d	-0.02384677
13	0xbcb17143	-0.021660453
14	0xbce6f572	-0.02819321
15	0xbad4d79b	-0.0016238572
16	0x3c1c3eaf	0.009536429
17	0x39b30d7d	0.0003415159
18	0xbd54966f	-0.051901277
19	0x3d85a6b1	0.065259345
20	0x3d828ee1	0.06374908
21	0x3d12f89e	0.03588163
22	0x3cc995e9	0.024607616
23	0x3db3c1e7	0.08777218
24	0xbdb2c829	-0.08729584
25	0xbcaf6c78	-0.021414027
26	0xbc37f916	-0.01122882
27	0x3daba7a8	0.08381587
28	0xbd9e4c44	-0.0772939
29	0xbd2fa8f2	-0.04288573
30	0xbbcda91f	-0.0062762643
31	0xbc6ab41e	-0.01432517
32	0x3da0aca3	0.07845428
33	0x3d7eb23f	0.062181707
34	0xbd2f6a22	-0.042825826
35	0x3c82228c	0.015885614
36	0xbcb9ff17	-0.022704644
37	0xbda66361	-0.08124424
38	0x3d94d822	0.072677866
39	0x3c3fe3ba	0.011712009
40	0x3cb335b3	0.021876192
41	0xbd984baa	-0.07436307
42	0xbd924486	-0.07141976
43	0x3d5f49c5	0.05451371
44	0xbd4458e2	-0.047936328
45	0xbd5edb4e	-0.054408364
46	0xbd95cb4a	-0.07314165
47	0x3b36d1fc	0.0027896157
48	0x3d5b5bb2	0.053554244
49	0xbd7380c4	-0.059448972
50	0xbc889a0f	-0.016675023
51	0x3a77853c	0.0009442156
52	0x3daca12f	0.08429181
53	0xbc5bc29c	-0.013413098
54	0x3da6ea2d	0.08150134
55	0xbc0abaed	-0.008467418
56	0x3ce6fdab	0.02819713
57	0xbc7d4122	-0.015457423
58	0x3d48478d	0.04889636
59	0x3b44e0b0	0.003004115
60	0xbc04d9d3	-0.008108574
61	0xbd319b2a	-0.043360867
62	0x3d16cada	0.036814548
63	0x3d3ba645	0.045812864
64	0x3d5b403b	0.05352805
65	0x3c97c439	0.018526183
66	0x3d1f6925	0.038918633
67	0xbda8a723	-0.08235004
68	0x3da67f6a	0.08129771
69	0xbda72813	-0.081619404
70	0x3ce891be	0.028389808
71	0xbd84dc60	-0.06487346
72	0xbda1e6cf	-0.07905351
73	0xbd97dd5b	-0.07415267
74	0x3d771def	0.06033128
75	0x3d3f181a	0.046653844
76	0xbd3e44d9	-0.046452377
77	0xbc5e0084	-0.013549928
78	0xbd3b2e81	-0.045698646
79	0x3d34f36e	0.044177465
80	0x3d03aec0	0.032149076
81	0x3ccc4c20	0.024938643
82	0xbc2bb65d	-0.0104804905
83	0x3cccce79	0.025000798
84	0x3c11594a	0.008871386
85	0xbc22f187	-0.00994528
86	0x3d97d9b4	0.074145705
87	0x3d7d27ab	0.06180541
88	0xbd9b6591	-0.07587732
89	0x3d3242c3	0.0435207
90	0x3d03e951	0.03220493
91	0x3d1d1c7a	0.038357235
92	0x3d524577	0.051335778
93	0x3c2ab3ae	0.010418816
94	0xbd443de1	-0.047910575
95	0x3b0ece46	0.002179043
96	0x3d8e51cf	0.069491975
97	0xbb3f6985	-0.0029207182
98	0xbd41e407	-0.047336604
99	0xbd306131	-0.04306144
100	0x3cfdf6d6	0.03100149
101	0x3b52070a	0.0032047653
102	0x3d18ab71	0.037272874
103	0x3d99bf31	0.0750717
104	0xb9e8d49c	-0.00044408895
105	0xbd745fdc	-0.05966173
106	0x3cae8611	0.021304162
107	0x3daa0b6f	0.08302962
108	0xbdb0ea9a	-0.08638497
109	0x3c8cc504	0.017183788
110	0x3baff09e	0.00536926
111	0x3d11468a	0.035467662
112	0x3d9f40d0	0.07776034
113	0x3d8dac1b	0.06917592
114	0xbdae5722	-0.08512713
115	0x3c9c2121	0.019058766
116	0x3d521689	0.051291022
117	0x3d885fe2	0.06658913
118	0x3d8db60c	0.06919488
119	0xbc9f4bb9	-0.019445287
120	0xbdb315bb	-0.08744379
121	0xbba3a116	-0.004993568
122	0xbda7fef0	-0.08202922
123	0xbcc10f59	-0.023566889
124	0xbd333d8b	-0.043759864
125	0x3cc87efb	0.024474612
126	0xbd8f6677	-0.070019655
127	0x3d5b97ae	0.05361145
