models/hybrid/handcrafted/PPL/agent2.pth (torch, 40580 bytes, 5 tensors)

fc.weight f4 [128, 68]
00000000: ce2c c03d 6039 92bd 9349 c5bd 34f6 a53d
00000010: a7b9 983c a921 bdbc 113a 3c3c ac51 483c
00000020: f460 793c 5578 4abd b127 d03d 1537 f0bd
00000030: 379b 913d d2ff cc3d 5643 603c 0216 853c
00000040: 0e79 c5bd 25f0 10bd fc91 933c 3fb5 12bc
00000050: 58de cebd 3322 9b3d 2b17 8c3d d431 3abd
00000060: b9b2 fabc a936 9abd f3d0 df3c b8d1 eabd
00000070: 5d64 1e3d 42a6 18bd 9c5c d0bc 7cbc c03d
00000080: 6371 cf3d 9f6c d3bd 9dd8 ebbd 8bfb c23d
00000090: 42e7 0d3d 5545 0ebd c332 a3bd 7135 4f3b
000000a0: 9077 72bd 741f cdbd 545e 2ebd 87ef d13c
000000b0: 7b70 94bd 6c66 6ebd af77 d63d af1e 683d
000000c0: 139a 9c3d 37f6 febc df13 c8bd 9875 b83d
000000d0: 2075 953d cfb6 d4bd c132 57bd ee6b 68bc
000000e0: 4041 9cbc 79c8 cbbc 6ce8 98bd 7acd f63d
000000f0: 4006 8abd 91e7 943b 0679 a7bd 1a4f 3a3d
00000100: 61e6 b7bc e50b 303d 1515 bebd 65ad 5d3c
00000110: dfb9 1f3d 5985 c83d 8e99 f5bd bc51 e13c
00000120: 8fc7 b33a 0c31 f73d 5e7d 4ebd 5e3d 143d
00000130: 6294 db3d 718c 22bc 1306 17bd 8f03 cebd
00000140: e93e 153d 0997 063c 5c52 2d3d 5ae5 533d
00000150: 4dd3 8f3c 6210 ddbc aef8 52bd df80 97bc
00000160: f2b1 9a3b 0ca0 ea3d 83b2 463d b9eb b83d
00000170: 1a8e 7abd 160c 70bd 769f 93bd 7269 e8bd
00000180: 61f0 0ebd 0e19 dc3d e4f7 efbd 482f 893d
00000190: b2d6 e03c 696e ebbc 45a7 a03d 0d7f b0bc
000001a0: f738 f1bb 9f80 b4bd 5c6f f03d 09e3 4a3d
000001b0: 75c1 ea3d 574b 86bd 5399 9abd 0a6b 90bb
000001c0: 51e9 fabc 0b52 b33d 6470 a23d e5b4 853d
000001d0: 5777 e73d 5c95 ea3d ce56 f7bd 8aab 243c
000001e0: cb9d 893d 0876 733d a55a 44bd a918 f2bd
000001f0: b2b1 83bd 42db a5ba be13 98bd e347 c63c
00000200: 44f4 2a3d ff44 a5bd 51a7 d03b 2af5 96bd
00000210: 5fff 76bd 6e87 083d 2f52 97bc 813e 98bd
00000220: eb19 f23d 8a62 b4bd 5089 bdbd 5c95 2fbd
00000230: 6b90 993c 70c7 edbc 0ced ce3d 7433 20bd
00000240: d73c f53d 0c9a 0b3c 2d57 6d3c 19cc e53d
00000250: d793 e53b 48d0 c23d 58e0 85bc d022 cb3d
00000260: cea3 843c 2b91 a73d 8fe9 163c 2f5c e7bd
00000270: a8a0 3dbd bdde 693d 53f0 8dbd 545c bfbb
00000280: 4b80 28bc eae8 babc 932c 38bd 42b3 f33d
00000290: 0286 0f3d 6e44 f0bd 510a 4a3d 00fd ed3d
000002a0: 4193 52bd 8af8 9bbd 614a afbd 90e4 b0bd
000002b0: efed 8b3d f7e5 9b3d c40a c03d 13b3 9d3c
000002c0: 1789 cd3d 1f03 133d 4fdb 9c3d e086 ae3d
000002d0: 3e88 c2bd 2b55 20bd bc37 e73d 7d91 c73d
000002e0: 76b6 0dbc af40 843d d07c d9bc d059 d83d
000002f0: 4e71 883d f400 d43c ecaf 033d 2401 c4bd
00000300: 63a8 d8bd 07a7 a33c d9e1 a13d e21c b33d
00000310: 26c6 9fbd 71bc 90bd 7f0b ab3d 1916 593d
00000320: 851a cbbd 71ec a43d 3abf 863d 887c d23c
00000330: b900 ce3d f1e8 9fbd 7dfe 9b3d af14 023d
00000340: b09d 593d a0a4 ebbd 7407 c03d 612a 8ebd
00000350: 0d2c 793d 92e9 773d 7b28 c73d aa6b 7b3d
00000360: b410 ca3d 3f0e a93d 2618 00bc b311 843d
00000370: efea 77bd 3d61 d23d 2046 c3bd aa19 cb3d
00000380: aa38 91bd c72b 053a 1084 ae3d 56c4 ea3d
00000390: 919b dc3d cecf f13d 53d6 37bd 7148 bbb9
000003a0: f19b a4bd f53e 683d f7e0 c3bd 0556 88bd
000003b0: a06b 8f3d 8cb7 a5bc a3ed 553d d401 23bd
000003c0: a206 51bc 5476 16bc bba6 4c3d d867 c03d
000003d0: 4403 b2bd 30f9 ed3d 616d fbbb 31eb eb3c
000003e0: ccb0 5fbd 0afe 893c 453f e73d 02a8 f6bd
000003f0: 340b 8bbd 7e1e 803d 6af6 f13c e4a8 b63d
0.09383546 -0.0713985 -0.09633174 0.081036 0.018643213 -0.02308734 0.0114884535 0.012226503
0.015220869 -0.049431164 0.101638205 -0.11729256 0.07109683 0.10009731 0.013687929 0.016245846
-0.0964223 -0.03538527 0.018013947 -0.008954345 -0.101010025 0.07574882 0.068403564 -0.045457676
-0.0306028 -0.07529957 0.027321314 -0.11465782 0.038669933 -0.03726793 -0.025434785 0.094109505
0.10129049 -0.10323452 -0.11515925 0.09520634 0.034644373 -0.03473409 -0.079686664 0.0031617547
-0.059196055 -0.10015765 -0.042570427 0.02562691 -0.072480164 -0.058203146 0.104720466 0.056669887
0.07646575 -0.031123264 -0.09769415 0.09006804 0.072977304 -0.103864305 -0.052538637 -0.014185889
-0.019074082 -0.024875866 -0.07466206 0.1205091 -0.06739473 0.0045442064 -0.0817738 0.045485593
-0.02244872 0.042980094 -0.09281365 0.01353011 0.03899562 0.09791059 -0.11992179 0.027504794
0.0013716089 0.12069902 -0.05041253 0.036191337 0.10721661 -0.009921179 -0.036871027 -0.100592725
0.03643695 0.0082147205 0.042314872 0.0517324 0.01755681 -0.026985351 -0.05150669 -0.018494068
0.0047209198 0.11456308 0.048510086 0.090293355 -0.061170675 -0.058605276 -0.07208149 -0.11348237
-0.034897212 0.10746966 -0.11717203 0.06698471 0.027446125 -0.028739171 0.07844404 -0.021544958
-0.007361527 -0.08813595 0.1173999 0.049532924 0.1146268 -0.06557339 -0.075487755 -0.0044072913
-0.030628832 0.08755883 0.07931593 0.065286435 0.11302059 0.11454269 -0.120771036 0.010050664
0.0671955 0.059438735 -0.047938008 -0.1182111 -0.06430377 -0.0012653845 -0.074256405 0.0242042
0.041736856 -0.080698006 0.006367602 -0.0737098 -0.060302135 0.03333228 -0.018471805 -0.07433797
0.1182135 -0.08807857 -0.09254706 -0.04286705 0.018745622 -0.029025763 0.10103807 -0.03911157
0.11974495 0.008520614 0.014486116 0.11220569 0.0070061493 0.09512383 -0.016342327 0.09918749
0.01619139 0.081819855 0.009210958 -0.112968795 -0.046295792 0.057097185 -0.06930604 -0.005839864
-0.010284494 -0.02281614 -0.044964384 0.11899425 0.03503991 -0.11731802 0.049326245 0.116205215
-0.051409964 -0.076157644 -0.085591085 -0.08637345 0.068324916 0.07612222 0.093770534 0.019250428
0.100359134 0.03589165 0.07659017 0.08521819 -0.094986424 -0.039143723 0.11289927 0.097445466
-0.008649459 0.0645765 -0.026548773 0.105640054 0.06662236 0.02587936 0.032150194 -0.0957053
-0.10578992 0.019977106 0.07904405 0.08745743 -0.07801466 -0.07067192 0.08351802 0.05299959
-0.099171676 0.0805291 0.06579442 0.025694147 0.100587316 -0.07808102 0.07616899 0.031758007
0.0531289 -0.11506009 0.093764216 -0.06941677 0.060833026 0.060525484 0.09724518 0.061381973
0.09866467 0.0825467 -0.007818257 0.06448688 -0.060526785 0.10272453 -0.0953486 0.099170044
-0.07090886 0.00050800707 0.08521283 0.11463229 0.107718594 0.11807214 -0.04488213 -0.00035721392
-0.08037556 0.056700666 -0.09564393 -0.06657032 0.0700295 -0.020229124 0.05222858 -0.039796665
-0.012757929 -0.009183485 0.049963694 0.093948066 -0.08692029 0.11619794 -0.007672951 0.028798671
-0.054611966 0.016844768 0.112913646 -0.12043764 -0.06789246 0.06255816 0.029536445 0.08918932

fc.bias f4 [128]
00000000: 7480 5d3d c09d 6c3c 3c54 c7bd 2661 47bd
00000010: 3f57 99bd 6701 b43c 48d6 5c3a 2425 ed3d
00000020: 0da6 da3b 538f d43d 7541 9a3d 1fe9 8bbd
00000030: a4ea a1bd 7dfa 8d3d 3232 e93d 899a c7bd
00000040: 2e99 3f3a c6b9 c8bd a687 6bbd 1e06 ef3d
00000050: e76b e5bd fb4d f63d cd30 2c3d 6f9a d43d
00000060: d301 673d 636c a93d 7a7e b9bc 8dcc 413d
00000070: 8f13 99bd 5ec6 f63c 908e 433d b592 98bd
00000080: 583f 49bd 5be9 d33d c3f0 62bd 8c24 48bd
00000090: c174 933d c99a 1cbd 7079 cabc c677 debc
000000a0: b9af 173d b8dc a5bd dc1d f43c 2379 f53d
000000b0: ba98 413d 8fe5 1dbd ebad c0bc 4fb3 0abd
000000c0: 047f 9abd dec0 8d3d 9887 e93d cee1 d0bd
000000d0: 48c1 eebd fdb6 55bd 1170 46bd f487 bcbc
000000e0: 964d f13b 41f0 82bd aa33 9cb9 f305 84bd
000000f0: 7670 cebc b2d7 843d 0873 8f3d 1a5c ccbd
00000100: ab43 b1bd 96fa 713d 86df 87bc 2144 493c
00000110: a4dd c6bd b6bc 873d ff0f 563d c19e fc3c
00000120: fb0d 473d 193f 1b3c 78f0 5dbd 9b97 553d
00000130: 2b06 cdbc 663c f9bc 5654 913c a38e f5bd
00000140: 8062 6e3d 35ea 983d a3f2 d63a 859c e6bd
00000150: 830a 9dbd cf33 363d 491f 823c 6d4f 5dbd
00000160: e97a b1bb ce83 be3d 063a 57bd d07c 9a3d
00000170: 1b2d 943d ad8a 91bc 35ff bbbd aaca 753c
00000180: 3557 38bd bae8 b0bc cc6a d2bd 4766 e93d
00000190: 3a63 e83a a08d 953d b472 1a3d 6292 263d
000001a0: 13af 94bd 761d eebd 1b6b e33d 824e da3d
000001b0: b088 85bd 831c b03b f42d d6bc ce3d a6bc
000001c0: 0cd8 d03d 26a6 d1bc da1e 1c3d aedb 6f3d
000001d0: 7f22 58bd 3596 bc3d 57e6 003d 4b55 e53c
000001e0: 4b8a 48bd 31b4 6b3d 2bb7 eabc 07d8 ed3d
000001f0: 42b8 5d3d 1e5e b8bd 8345 853d ec51 5abd
0.05407758 0.014441907 -0.09732863 -0.048676632 -0.07487344 0.021973325 0.00084242644 0.1157935
0.006672627 0.103788994 0.07532016 -0.06831574 -0.07906082 0.069325425 0.11386527 -0.09746272
0.00073088973 -0.098010585 -0.05750241 0.11671089 -0.11202221 0.12026592 0.042038728 0.10381018
0.056398224 0.08272626 -0.022643317 0.047314215 -0.07474434 0.030123886 0.04774338 -0.07449857
-0.049132675 0.103472434 -0.05540539 -0.04886298 0.072000034 -0.038233552 -0.024716109 -0.027156722
0.037032817 -0.080987394 0.029799394 0.119859956 0.047264792 -0.038549002 -0.02352043 -0.03386241
-0.075437576 0.06921552 0.114028156 -0.10199319 -0.11657959 -0.052176464 -0.04844672 -0.023014046
0.0073639853 -0.06393481 -0.0002979313 -0.06446447 -0.02520011 0.06486453 0.07004362 -0.099785045
-0.08655485 0.059076868 -0.016586076 0.01228431 -0.09710243 0.06627791 0.05226135 0.030837419
0.048597317 0.009475493 -0.054184407 0.052146535 -0.025027355 -0.030424308 0.01774041 -0.119900964
0.058199406 0.074665464 0.0016399216 -0.112603225 -0.076680206 0.044483002 0.015884059 -0.054030824
-0.0054162634 0.093024835 -0.05254557 0.07543337 0.07235166 -0.017766321 -0.09179536 0.015001932
-0.045005042 -0.021595348 -0.10274276 0.11396461 0.0017729767 0.073024035 0.037707046 0.040666945
-0.07259955 -0.11626713 0.11104413 0.106595054 -0.06520212 0.0053744926 -0.026144959 -0.020293143
0.10197458 -0.025591921 0.03811536 0.058559112 -0.052767273 0.09208337 0.03146967 0.027994772
-0.04896001 0.05754489 -0.028651794 0.116134696 0.0541308 -0.090023264 0.06507399 -0.053300783

actor.weight f4 [4, 128]
00000000: ad96 91bd 26bd 73bd 2e36 7a3d 703a 803a
00000010: 7c11 23bd e017 d23c 22f8 95bd bc7e 5b3c
00000020: dca1 d8bc c20a e4bc 31eb 053d 06a3 3d3d
00000030: c5a5 5f3d e08d 2ebc ec6b acbd 58d8 5dbc
00000040: f3d4 9abd 7311 88bd 821c ecbc 7858 b33d
00000050: c261 a53d f242 35bb 8a16 8d3d 323b 953d
00000060: a1c6 adbd a5e1 a5bd 80ae dcbc 0db0 b23d
00000070: cac6 edbc 03bd 883d 5c82 9d3d fbe1 9abc
00000080: 7a9d 5cbd ed5f 043d ca5e 1bbc 3d0d 8d3d
00000090: 67f0 663d 02a0 6bbd 99be dc3c c3a5 abbd
000000a0: b42e be3c 6826 a93d e7b2 20bd d1d1 a23c
000000b0: e325 db3c d1d9 123c e16d a03d 52ca abbb
000000c0: e87f 7e3a db2e a6bd 2c82 873c c745 7d3d
000000d0: b30f 6fbd 490b 7d3c d132 99bd fcfb 6d3d
000000e0: 306c 823d 1385 5e3d 5976 6cbb 90f4 973d
000000f0: f2ff 24bd 9a80 643b c903 92bd b894 063d
00000100: 1eec 373d 8266 213d 55a8 9fbc d58d a63d
00000110: 8166 5cbb 5a9f 42bd bee5 ad3d dee9 d6bc
00000120: 129c b2bd 535a 313b b916 b43d eb44 d6bc
00000130: 88fb 23bd 2946 a0bd c6e7 ab3d bef1 b2bd
00000140: 339b ab3d 3b1a a83c 3d13 c83c 0b2b 6d3d
00000150: bc49 a33b 6d3f 81bd f303 b0bd e94a a33d
00000160: 10d0 89bd 76bf 8dbc d86d 82bb b801 08bd
00000170: cff9 a2bd 4a33 a6bd b04f 4cbd 9763 9ebd
00000180: 9f7e 58bc 5992 193d 4d4d 89bd c8ed 69bd
00000190: 781c 88bd 5e1d 5b3c 8842 b53c 004a c33b
000001a0: ed42 b53b 4909 8abd 774f 8ebd c95a 5bbd
000001b0: b6a0 3b3d e926 a33c f56c 7e3d a21d 36bd
000001c0: 7cef 90bd a683 3a3d fb33 cabc 0e8d ddbc
000001d0: baf9 51bd a1bc 9dbc 44bf 85bd 167e f4bc
000001e0: 6bae 8a3d 6e85 93bd 1438 8c3c c46e 633d
000001f0: 5403 3dbd 8b58 ae3d 5f18 0abd 64c4 82bd
00000200: c598 863d fdc2 9e3d 5c36 79bc 74bc 333d
00000210: 44c3 b43d 6c0d a0bd dd5f 753d 2cca 813d
00000220: f751 01bd 6a95 63bd b132 313d 12ea 5ebd
00000230: 2b26 bc3c 19da 72bd dca0 863c 6738 46bc
00000240: 5f6e 083c fd5e aebd 115e b73c 3bf8 a5bc
00000250: fa39 4ebc cf55 613d 113f b43d 1d06 b5bc
00000260: 73dc 513c 0299 993c ea47 b1bd dff8 b9bc
00000270: 8fe9 413d 4271 4bbd 4d25 51bd 5a0c aebd
00000280: e999 77bd 2900 0abd 4c08 963d f84f efbc
00000290: 44d8 a53d b755 c9bc bedc adbd 72d9 8c3d
000002a0: 2bc3 7bbd 91f6 d1bc fb44 583d c11e 113c
000002b0: d35f 5cbd 2a5e 82bd f33c 6abd 7f09 e73c
000002c0: 1aa3 963d d597 b0bd 12ca 833d 7cc7 233d
000002d0: 3e0c 31bc bdd8 523d b888 283d a04e 6ebb
000002e0: aec7 953d 7cda 423d f86c 3a3c fb8e 053b
000002f0: 6b06 573c 9dd9 a43d 5c19 d73c 0e23 313d
00000300: c101 1b3d 846d 993d a47f 9bbd a114 daba
00000310: 4dcc 80bc 5bf2 8c3c 1a68 13bd 53f3 49bd
00000320: 3512 a73d b5ea b1bc 1b20 763d 4605 5c3d
00000330: 3880 96bc 9570 173c 7c38 463c e082 a9bd
00000340: f17d 753d e3a5 20bd fe78 8c3d 9f5c 713d
00000350: 0f6f 48bd 5136 6e3d 0d7c 50bb f50a 933d
00000360: 07da f43c 3ad9 5f3c 3d73 26bd b38c a3bc
00000370: c43b 6ebb 1462 afbc 4231 82bd 2934 44bd
00000380: b569 d83c 4c34 8d3d 3542 e43c 6195 8cbd
00000390: ddac a43d 70fd 023d 6caf 83bc a717 923d
000003a0: 0e55 73bc bc0a 193c fbd6 c83c 0502 123c
000003b0: e736 ea3c 7cd0 aa3d 5509 27bd 4eb8 ba3c
000003c0: cd77 02bc eab0 d23c 063f adbd 37c3 463d
000003d0: 007b e7bb 20ef 1e3c e759 523d aa91 933d
000003e0: dc3d aa3d 0076 283b 337b 313d 3c73 71bd
000003f0: e937 963d 2d92 b2bd e09d b4bc 04f7 47bc
-0.07108817 -0.059506558 0.061086826 0.0009783041 -0.039811596 0.02564615 -0.07322718 0.013396915
-0.026444368 -0.027837161 0.032695 0.04629805 0.05460145 -0.010653943 -0.08419022 -0.01354035
-0.07560148 -0.06643953 -0.028822187 0.087571084 0.080752864 -0.002765831 0.068890646 0.07286681
-0.08485151 -0.08099679 -0.026938677 0.08724985 -0.029025454 0.06676676 0.0769088 -0.018906584
-0.05386112 0.032318044 -0.009483049 0.068872906 0.05638161 -0.057525642 0.026946353 -0.08381226
0.02321563 0.082592785 -0.039233115 0.019875439 0.026751464 0.008963064 0.07833458 -0.0052426243
0.00097083906 -0.08114406 0.016541563 0.061834123 -0.05836458 0.015444585 -0.074803956 0.05810164
0.063682914 0.05432613 -0.0036081283 0.074196935 -0.04028315 0.0034866692 -0.07129628 0.032856673
0.044902913 0.0394044 -0.019489447 0.08132521 -0.0033630433 -0.04751525 0.084910855 -0.026234563
-0.08721174 0.0027061894 0.087933965 -0.02615591 -0.0400348 -0.07825882 0.08393817 -0.08737515
0.08379211 0.02052032 0.024423236 0.057902377 0.004983155 -0.06310926 -0.08594503 0.07973272
-0.06729138 -0.01730321 -0.0039803796 -0.033204764 -0.079578035 -0.08115251 -0.049880683 -0.07733839
-0.013213783 0.037493084 -0.06704197 -0.05711153 -0.06646055 0.013373701 0.022126451 0.005959749
0.00553166 -0.06740052 -0.069487505 -0.053553376 0.045807563 0.019916015 0.06211563 -0.044461854
-0.07076928 0.045535706 -0.02468299 -0.0270448 -0.05126355 -0.019254984 -0.06530622 -0.029845279
0.06771549 -0.07203184 0.017116584 0.055525556 -0.046145752 0.08512982 -0.03371465 -0.06385115
0.06572107 0.07752035 -0.015210714 0.043880895 0.088263065 -0.0781506 0.059905875 0.06337389
-0.03157231 -0.055562414 0.043261234 -0.054422446 0.022967419 -0.059290025 0.016434126 -0.012098408
0.008327096 -0.08514211 0.022383722 -0.020259967 -0.012587065 0.055013474 0.088010915 -0.022097642
0.012808907 0.018749718 -0.08656295 -0.022701679 0.04734188 -0.049668558 -0.051060963 -0.084984496
-0.060449515 -0.03369156 0.07325801 -0.029212937 0.0809789 -0.024577005 -0.08489369 0.06877412
-0.061465424 -0.025630267 0.05280016 0.00885743 -0.053802323 -0.063656166 -0.057187032 0.02820277
0.07355328 -0.0862271 0.06435026 0.039985165 -0.010806141 0.05147623 0.04114601 -0.0036362782
0.073134765 0.047571644 0.011378519 0.0020379412 0.013124089 0.08049319 0.02625721 0.04324632
0.03784347 0.074915916 -0.07592705 -0.0016638228 -0.015722418 0.017205408 -0.03598795 -0.049304318
0.081577696 -0.021718362 0.060089212 0.053715967 -0.018371686 0.00924315 0.012098428 -0.082769156
0.05993456 -0.039220702 0.06859015 0.05892622 -0.04893404 0.05815727 -0.0031812221 0.07179824
0.02988912 0.013662631 -0.040637244 -0.019964552 -0.003635154 -0.021409072 -0.063570514 -0.047901306
0.026417593 0.068947405 0.027863601 -0.06864429 0.080407836 0.031979978 -0.016074859 0.071334176
-0.014851822 0.009340938 0.024516573 0.008911614 0.028590633 0.083405465 -0.040780384 0.022792961
-0.007963133 0.025719125 -0.084592864 0.048526015 -0.0070642233 0.0097005665 0.05135527 0.072055176
0.0831258 0.00257051 0.043330383 -0.058947787 0.07334883 -0.08719287 -0.022047937 -0.012204889

actor.bias f4 [4]
00000000: 71fc a9bd 2ba0 15bc 90d9 6ebd 9e5e 62bd
-0.083001025 -0.009132425 -0.058312953 -0.055266015

critic.weight f4 [1, 128]
00000000: cfdf 843d dbde 393d 5c6e 40bd 9f66 a6bc
00000010: f436 8ebd f39c 77bc f5e6 4abd d023 8e3d
00000020: fe77 a83d acc6 003d c9db b33b aa10 713d
00000030: 6c41 ef3c f064 94bd ac6b 90bd 7b6c 76bb
00000040: 60f3 95ba 0a1c 01bc 1917 573d 815e 093d
00000050: 2dd3 253d c022 ab3d 700e a93d e900 ad3d
00000060: 39af a93d f2ba 84bc b384 6f3d 3e71 8ebd
00000070: 45fe c83c 5ea9 193c 8474 0ebd 97aa 45bd
00000080: 4106 a7bd 5e22 67bd c9f7 62bd 0b75 223d
00000090: bf84 ae3d be2e 593d b1c0 653d 545a adbd
000000a0: 4548 95bd a913 cbbc 04ac b4bd 7801 93bd
000000b0: d50b 563d e1cb 60bc bb73 413d 10a7 d3bc
000000c0: 5b4d 86bd b052 3b3d 9bbb 82bd 6b33 a2bc
000000d0: 71db 18bd 1aec 0c3d bf56 4c3d 725d 493b
000000e0: 8a39 a1bd 4946 143d 9182 993c 0b46 18bd
000000f0: 20ac 6f3d 8fa3 083d 20db 1b3d 8a1f 773c
00000100: 6a2e 103d 2c5c 8ebd 84dc be36 c43e f43c
00000110: 8bd0 873d 5372 a4bd d14c 33bd 0b16 12bc
00000120: b27b 34bd c82b 523c 0a23 79bd 7001 a53d
00000130: 350e 863d 188d 703d cb65 c53c eaa8 193d
00000140: f41f 093d eaad 003d 894e 2fbd f80a 04bc
00000150: 0804 153c 9c41 23bd 4d03 34bd d28e 353d
00000160: ab78 203d 2b9b 91bd 1d29 af3b 88cf 883d
00000170: cf2f 98bd 2c88 96bd 0a44 1cbd 72f4 6f3d
00000180: a321 b1bc 0125 663c 8c7c f03c eef5 9fbd
00000190: 58ad 4aba 867e cfbb 8a18 b2bd 4623 23bd
000001a0: b779 cf3c c7f3 a83d 8d1f 99bd 69cc 5fbd
000001b0: 558d b3bd d3d0 12bd 2cdf 3c3d 8298 553d
000001c0: 1970 7dbd 453e f6bb 9bd5 3cbd 63ab 9d3d
000001d0: 6096 b9bb 30a7 31bd 3eab 83bd 46d9 d8bc
000001e0: ef1d a7bd b6f6 973c 1bb9 8bbc 210a 5c3d
000001f0: e78e 513d 1288 9e3d de78 4f39 a81e f7bc
0.064880006 0.045378547 -0.046980247 -0.020312605 -0.06944075 -0.015113103 -0.049536664 0.069404244
0.08226012 0.03143947 0.005488847 0.058853783 0.029206 -0.07245815 -0.07051787 -0.003760128
-0.0011440329 -0.00788022 0.052512262 0.03353739 0.040484596 0.083562374 0.08254707 0.08447439
0.08285374 -0.016202424 0.05847616 -0.06955193 0.024535308 0.009378759 -0.034779087 -0.04825839
-0.0815549 -0.05642926 -0.055412088 0.039662402 0.08521413 0.053023092 0.056091968 -0.08464494
-0.07289175 -0.024789648 -0.08821872 -0.071780145 0.052257378 -0.0137204835 0.04722951 -0.025836498
-0.06557723 0.045733154 -0.06383439 -0.019799909 -0.03731865 0.03440485 0.049887415 0.0030725864
-0.07872303 0.03619984 0.018739017 -0.037176173 0.05851376 0.033359107 0.03805077 0.015083203
0.035200514 -0.06951174 5.6881127e-06 0.029815085 0.06631573 -0.08029618 -0.04377443 -0.008916388
-0.044063278 0.012827821 -0.06082443 0.08056915 0.065456785 0.058728307 0.02409639 0.037514605
0.03347774 0.031415857 -0.042799506 -0.008059256 0.009095199 -0.03985749 -0.04394846 0.044325657
0.039177578 -0.07109674 0.0053454773 0.066802084 -0.07430994 -0.073501915 -0.038150825 0.05858273
-0.021622485 0.014046908 0.029356264 -0.07810579 -0.00077315187 -0.0063322214 -0.08696087 -0.03982856
0.025326593 0.08249622 -0.07476721 -0.0546383 -0.08767191 -0.03584368 0.04611127 0.052147396
-0.061874483 -0.0075147473 -0.046102148 0.07698705 -0.005663678 -0.043372333 -0.06429146 -0.026470792
-0.08160006 0.018550258 -0.017056039 0.053720597 0.051161673 0.07740797 0.00019786085 -0.030165985
