models/hybrid/nn/PPL/agent2.pth (torch, 40600 bytes, 5 tensors)

fc.weight f4 [128, 68]
00000000: db25 933c 98b5 a3bd b89e f43b c315 c0bd
00000010: fbfd 993c a50f 683a b62b 3cbd 6214 d3bd
00000020: 8331 9a3d a374 b23d 87a9 27bb 08fc de3b
00000030: 01b0 ad3d dda4 e0bd 0a0a 823d 3176 d8bd
00000040: 8642 77bc 7853 94bd 7621 ebbd bcb0 e4bc
00000050: e90f 413d e884 27bd ecff eebd c58c ba3c
00000060: e3b8 84bd f5df d63d b456 babd 552f de3b
00000070: f79a cbbb 44ed 30bd cebd 6bbd a978 45bb
00000080: 3a75 ba3d 4c58 963c 1a93 d8bd cdaa fabc
00000090: 2b0b b6bd 2111 bd3d b290 f6bd 4b49 e53d
000000a0: 0e4c 04bc 78da bdbd 5d99 a93d ca73 34bd
000000b0: ac37 13bd 60cb cdbc 630f 993d 40d4 1d3d
000000c0: 321e 763d ccc3 23bd eda3 e4bd 6a4a 583d
000000d0: a94d ba3b 822b aebd 2ef1 0bbc 1f1e dcbd
000000e0: 8593 1a3d 36de c63d 7c46 85bc ee49 c73d
000000f0: fb69 773d fa9d 82bd cafc 4ebd 5083 b2bd
00000100: 3269 c23d e5c0 d33d ee70 2a3d 536d 79bd
00000110: 79dd ad3d 23d1 78bd 2684 c83d 0b0e 9d3c
00000120: 58a0 40bd 33d1 bc3d 32cb d1bd 7983 533d
00000130: d86d b73d d664 6c3d 0879 673b f1b1 be3d
00000140: a8a7 cd3d a03b 963d 0e41 863d 176a af3d
00000150: 706d de3d 5f8d 933d 7d63 193a 8c40 dbbd
00000160: 8f42 33bd 2a35 103d 3ba6 5fbd 9a88 94bc
00000170: 23ff 5cbd a38c e53d 3284 013d a2c0 e53d
00000180: aa09 493d 2fb8 dabd a30e bd3d 954c ec3d
00000190: 0a0f 3b3d ea10 bb3d dc86 4a3d 925a a63d
000001a0: 363e ae3d ca57 2dbc 1d60 96bd 87dc cc3d
000001b0: 015b 903c 063b d1bb 87b5 90bc cb37 f4bd
000001c0: 66b1 a63d 53da 443d 0f18 d13d d37f b4bd
000001d0: 512d 543d e493 9c3c b90a 393d 8919 bdbd
000001e0: f9e3 863d 20d9 97bc dd32 10bd 94a5 803c
000001f0: 28ef c13d f298 babd 1b36 a13d 4b30 61bb
00000200: c498 89bd 1fa0 193d d08b ccbd 9aee 9cbd
00000210: 55fd b8bd 444d b6bd 324e e2bd a52d c23d
00000220: 461e 973d eaed b5ba b2a1 793d 1b7c 6d3d
00000230: 7301 f73d bf60 213d d3e5 c53d 15d7 1abd
00000240: 38af 863d 5f7f a33d 96e0 75bd 6f1f 593d
00000250: 2ffc a83d 214b e83d 3d37 b63d 7464 4cbd
00000260: 7d8f 6dbd 396b 5ebd f343 9d3d 0fa8 b8bd
00000270: 9bd1 593d f2f5 a23d ea2a dabd 33a7 c63b
00000280: d35e 863d dc06 a43d 48e9 7b3d cc89 a23d
00000290: 402d f2bd 1f3b a23c 62d4 b23d 74db 1ebd
000002a0: 3ca4 e3bd dcca ae3c 3f94 f63b 3e37 9ebd
000002b0: c5a7 66bd 29e8 adbd 5680 fdbc 09ca ea3c
000002c0: 0f4e e73c 8e3c 3cbd 871b bb3c 4c21 d73d
000002d0: 343e 28bc c2b8 14bb 4b0a 83bd a7e0 8f3d
000002e0: 8f2e e6bd b949 183c c6b6 303c 2291 cebd
000002f0: 4e71 c7bd 7cc8 cc3d a40d a4bd afb3 d7bd
00000300: a491 27bc e625 f03c 526c bf3c 0dbd 28bd
00000310: 6824 61bb b07d 563d a705 9c3d 833e 16bc
00000320: e223 ecbb e04d 63bb 838c e0bd b5e1 e73d
00000330: 4585 f7bd 82cd 463c ab24 ccbd 7279 533d
00000340: 9767 ce3d ef84 e2bc 7773 863d 9cce 0dbd
00000350: 4d8d 1f3c d06b 87bd 3e45 89bd 8eaa 983c
00000360: 208e 71bd 2979 44bc 9acd b0bc 47f8 df3d
00000370: 3d27 a63d 54d8 a8bd f261 0f3c cd5d 37bb
00000380: 4dcc 513b b926 0b3d 58ea 073c be09 33bd
00000390: c6af e8bd 6ab8 ecbd e441 ddbc 124e 8cbb
000003a0: 2eec d33d 8a8a b8bc 9c78 213d 2470 a8bd
000003b0: 4d52 9cbd 6e30 c93d c506 593d 669f 563d
000003c0: d8a8 a83d 80bc bf3a 07e8 883c 06cf 3dbc
000003d0: 45c8 cdbd 546c 9dbd 3ed4 683d 7270 1ebb
000003e0: 9d9c 3c3d 4ef1 edbd cb27 8fbd e234 d3bd
000003f0: 2dde e73d 4aa1 e63d 637e e1bb 50d4 703c
0.017962387 -0.07993621 0.00746521 -0.09379151 0.018797865 0.0008852429 -0.045940123 -0.10306622
0.07528975 0.08713653 -0.0025583224 0.006804947 0.08480836 -0.10968945 0.06349571 -0.10569418
-0.015091544 -0.07242483 -0.114809915 -0.027916305 0.047134314 -0.040898234 -0.11669907 0.022772202
-0.06480577 0.10491935 -0.090985686 0.0067805448 -0.0062135416 -0.043195024 -0.05755406 -0.0030131734
0.091043904 0.01835265 -0.105749324 -0.030599022 -0.08888849 0.09231783 -0.12039317 0.1119562
-0.0080747735 -0.09270185 0.08281205 -0.044055738 -0.035941765 -0.02512139 0.07473638 0.038532495
0.06008739 -0.03998165 -0.11164079 0.05280534 0.0056855273 -0.08504392 -0.008541388 -0.10747933
0.03773834 0.09710352 -0.016268961 0.09730898 0.060403805 -0.06377788 -0.050534047 -0.08716452
0.09492721 0.10339526 0.041611604 -0.060895275 0.08489508 -0.060746323 0.0979083 0.019171735
-0.047027916 0.09219589 -0.102438346 0.051639054 0.08956498 0.057713352 0.0035319943 0.093112834
0.100417435 0.07335591 0.06555377 0.08565157 0.10860717 0.07204699 0.0005851312 -0.10705671
-0.043764647 0.03520695 -0.05460189 -0.018131543 -0.053954255 0.11208465 0.031620212 0.112183824
0.049081482 -0.106796615 0.09231307 0.11538044 0.04566864 0.091340855 0.04944502 0.08122744
0.085079595 -0.010580013 -0.07342551 0.10003 0.017621519 -0.00638521 -0.017664684 -0.11924704
0.08139305 0.048059773 0.10209667 -0.08813443 0.05180103 0.019113488 0.04517624 -0.09233386
0.06586451 -0.01853615 -0.035204757 0.015703954 0.094694436 -0.09111203 0.07871648 -0.003436106
-0.06718591 0.03750622 -0.099876046 -0.07662697 -0.09032694 -0.08901456 -0.11050071 0.09481362
0.07378821 -0.0013880108 0.06094522 0.057979684 0.12060823 0.039398905 0.09662976 -0.037802774
0.06576389 0.079832785 -0.060028635 0.053008493 0.08251225 0.11342455 0.088972546 -0.049900487
-0.05799817 -0.054301474 0.07678976 -0.0901643 0.05317841 0.079570666 -0.106527165 0.006062412
0.06561055 0.08009121 0.06150177 0.07936439 -0.11825037 0.019803582 0.08731915 -0.038783506
-0.111153096 0.021336965 0.0075249965 -0.0772538 -0.05631234 -0.08491547 -0.030944984 0.028660791
0.028235463 -0.045956187 0.022840274 0.10504398 -0.010268737 -0.0022693132 -0.063984476 0.07025271
-0.11239349 0.009294921 0.010785764 -0.10086276 -0.09738408 0.09999177 -0.08010414 -0.10532319
-0.0102275945 0.029314946 0.02336708 -0.041195918 -0.0034353975 0.05236596 0.076182656 -0.009170177
-0.007206426 -0.0034683868 -0.109643005 0.11322347 -0.12085966 0.012133958 -0.09967931 0.05162949
0.10078352 -0.027651278 0.06564992 -0.034620866 0.009738279 -0.066123605 -0.0670266 0.018636014
-0.05897343 -0.011991777 -0.021582413 0.10936027 0.08112953 -0.08244386 0.008751379 -0.0027979494
0.0032012642 0.033972476 0.008295618 -0.043710463 -0.11361651 -0.11558612 -0.027008958 -0.0042817676
0.10347782 -0.022526998 0.039421663 -0.08224514 -0.07632885 0.0982369 0.05298497 0.052398108
0.082353294 0.0014628321 0.016712202 -0.011585003 -0.10047964 -0.076866776 0.056843035 -0.002417591
0.046047796 -0.11618291 -0.06990012 -0.10312821 0.113216735 0.11261232 -0.0068815215 0.014699057

fc.bias f4 [128]
00000000: ac65 763d b59a a43d 2787 2b3d a734 c73d
00000010: 14df e13d a820 b6bd 7c6e 9c3d ca15 5e3d
00000020: f4ba b6bd 3f68 f43d 0c58 1dbd 8cbd 903d
00000030: 4367 9c3d c773 34bc af40 e93d 1cdd f5bd
00000040: 5b9c 48bd 3bb7 e2bd cc17 9e3d 1d22 d13c
00000050: ee12 6dbd 0aa0 ca3d 4431 98bd 799b 51bd
00000060: ab05 b9bd 5144 47bd 36b6 0d3d e089 c5bd
00000070: 0e51 ca3c 9a90 d3bc 1bbe 97bd 33f4 3abd
00000080: fa29 afbc a735 cbbd 4780 0bbd 3628 bc3d
00000090: fb57 7fbd 74ff 973d 2a55 d8bd 94f2 db3d
000000a0: ca81 9cb9 dbe5 8dbc ed33 e2bc 5c11 ccbd
000000b0: 8b3c 203b 81fc cebd 0391 9b3c c600 9bbd
000000c0: e635 673c 3a7e 7f3d 848f 29bd 1c06 59bd
000000d0: 6985 80bd 01e4 a53d 4d93 cf3d ee9d ce3d
000000e0: 25e7 8cbd 1ae8 70bd da60 1b3d 5b1e 8bbd
000000f0: 0bd4 54bc 1e15 943d 2669 403d bba1 4d3d
00000100: 09b1 95bb e06e 8e3d 5e31 aebd 7436 f63d
00000110: 032b f6bd 4057 bc3d 4465 e73d 1f82 cdbc
00000120: 647f dbbd 860f 8d3d f504 223d 73b7 2f3c
00000130: 0ab5 9ebd 8e83 96bd f1d3 cdbd 0e36 a33c
00000140: ac93 de3a b985 8a3d 30aa f6bd 754a 703d
00000150: 502d 9f3d a21f 543d 20aa d7bd 6c43 f3bd
00000160: 5234 dbbd b1db eb3d b09e 913d 14d7 b83d
00000170: da19 fe3b d017 b83d 6e02 92bd df76 983b
00000180: cf4f a2bd 336f 673d 013a cf3d cf94 edbc
00000190: 2a8e 533d b898 db3c ef81 813d 87cc 4dbd
000001a0: 850a 2ebd 602a 093d b7e0 f43c f926 423c
000001b0: abb0 ae3c c8f6 953d fdff e3bd 1a66 f43d
000001c0: 0d9d c3bd 7a5d 08bc 730a d33d 5830 adbd
000001d0: 09fd e2bd ad30 9c3d e7c6 ae3d 3088 353d
000001e0: bb9f a4bd 5c5e efbc 8b2d c1bd 0675 a73c
000001f0: 7ab7 f4bd 65d7 f53d 9009 303d b35a d3bc
0.060155556 0.080373205 0.04187694 0.097268395 0.11028877 -0.088929474 0.07638261 0.05422
-0.08922377 0.11933946 -0.038414046 0.07067403 0.07636883 -0.011013932 0.113892905 -0.12005064
-0.048977237 -0.11070105 0.07719383 0.025528962 -0.05787938 0.09893806 -0.07431272 -0.05117366
-0.09034284 -0.048649136 0.034597598 -0.09645438 0.024696853 -0.025825787 -0.074093066 -0.045643043
-0.02138232 -0.09922343 -0.03405788 0.09187357 -0.062339764 0.07421771 -0.10563119 0.107396275
-0.0002985134 -0.017321518 -0.02761265 -0.099642485 0.002445015 -0.10106755 0.018990045 -0.07568507
0.0141119715 0.06237624 -0.041396633 -0.052984342 -0.06275446 0.08100129 0.10135517 0.100887164
-0.06880025 -0.0588151 0.03793416 -0.06792899 -0.012990008 0.0723059 0.046975277 0.050203066
-0.0045682234 0.069547415 -0.0850551 0.12022105 -0.120199226 0.09196329 0.11298612 -0.02508646
-0.10717657 0.068877265 0.03955551 0.01072489 -0.07749374 -0.07349311 -0.1005019 0.019923236
0.0016981266 0.06763787 -0.120441794 0.058664758 0.077723145 0.05178798 -0.10530496 -0.11878094
-0.10703339 0.11516512 0.07110345 0.09025398 0.0077545466 0.08988917 -0.0712937 0.0046528424
-0.079253785 0.056502532 0.10118485 -0.029001622 0.05164925 0.02680622 0.06323611 -0.05024388
-0.0424905 0.033487678 0.029892309 0.011850112 0.021324476 0.073224604 -0.1113281 0.11933537
-0.095514394 -0.008323068 0.103047274 -0.084564865 -0.11083419 0.07626472 0.08534031 0.04431933
-0.08038279 -0.029219799 -0.09432515 0.020441543 -0.11949058 0.12003974 0.04297787 -0.025800085

actor.weight f4 [4, 128]
00000000: 9e44 b43d aa5e fd3c b60d 5dbb 9658 6b3d
00000010: fb29 893d 05d2 a43d 9a9e 4b3d 21fd a5bd
00000020: 42fa 433d 2157 98bd fe9d a0bc d943 8dbb
00000030: b0e3 debc e02d 693d 7e1b 913c fe94 983c
00000040: c5da 86bd 6c1b 323d 528a 10bd 0de5 afbd
00000050: 3862 103d 0d1d 883d 9bc8 78bc 7c2e 733d
00000060: 4e6a 82bd 5624 1c3d a4ea 08bd c0cb 2a3d
00000070: d0a4 9d3a 5209 d6bc 906e a2bd e7c6 96bd
00000080: 611c 71bc 7f58 29bb 6270 933d daf0 913d
00000090: 90e5 13bd 099a 7f3d 0df6 a2bb 262c 483c
000000a0: 8dcf 0d3d cac3 26bd 1ae9 fabc 9d93 57bd
000000b0: 108d bcbb 67b0 aebd b91d 7b3d e033 74bd
000000c0: aca3 52bd ba50 15bd 6b62 8c3d 977f 8bbd
000000d0: b1fb 573d b5e1 a43d 17b8 91bd d2c5 883d
000000e0: 8d82 4f3d c17f ef3c c64f dbbc b63e 8b3d
000000f0: 5ef2 2abd 481e aebd c4a8 83bd 7ca2 6abd
00000100: 3e13 88bd df72 be3c 6267 56bd d2ae 9abc
00000110: 77a4 aabd 35c3 98bd 1452 243d 9d56 72bc
00000120: ac38 4abd e240 aebd a9b3 1e3d 59c0 443d
00000130: 6ab7 153d 9882 a6bd 63a5 a13d 140e b1bc
00000140: a75d 563d 1193 7dbd 47d9 05bd 06bc 17bd
00000150: afed a4bc a9e3 5ebd 2a7f b33d bb82 8bbd
00000160: bcaf 8e3d 0f88 36bd 4af3 0c3d 7c26 4f3d
00000170: de08 ce39 d50f 9f3d e6e5 b03d 73d0 25bc
00000180: 8751 003c a4c5 383c 7dcf 283c 1138 88bd
00000190: 77b4 b33c 2d21 2d3c 26ba 843d d7b1 133c
000001a0: dad3 293d 62e9 86bd 9149 d13b e0bb 5e3c
000001b0: 1f34 4b3d 3f1f b33c 2478 a0bd 4397 aabd
000001c0: 8d8a 893d ba55 333d bca5 a93c de85 a0bd
000001d0: 976b e03b 1170 a33d 9c90 b33c 7c51 ed3c
000001e0: 8ac0 403d ee5f e83c 61c3 2fbd 5870 2ebd
000001f0: dd7b a93c 5737 903d 4b7f 3f3b 8c6f 70bb
00000200: 1894 3a3d e524 99bd 372a 19bd 68ac 96bc
00000210: 2692 fcbc 98aa 0a3d 56dd 02bb e5f1 863d
00000220: d458 783d ce40 8c3d 55c1 2e3d 83e8 8b3d
00000230: c485 a63d f4bc aebd 908d e5bc 6529 26bc
00000240: 639e 453d 2513 fa3b 0af6 67bc 5516 0fbd
00000250: 10b0 27bd 8c87 adbc 2b9e 28bd 3cec 74bc
00000260: 3d96 2cbc 2432 093d 221a 70bd eee4 fc3c
00000270: e18f 8bbc e4bc b4bd bda3 503d 0286 67bc
00000280: 4f57 e8bc 3a7b 713d f820 a9bc 9b7a 97bd
00000290: bd19 c2bc 231f 4e3d ac1d 90bc d9be e3bb
000002a0: da75 8f3d 1b25 b1bc cb40 643d 2784 c43b
000002b0: 39ae 62bc 382f 9a3d 8e77 12bd a2cd af3d
000002c0: 2f9c e83c 408e 9dbd 69b5 03bd a58b 863a
000002d0: 5114 703c c806 b03d f816 303d 3adc 473d
000002e0: 022a 2ebd 8de7 903d 568d 8b3d d1e2 65bd
000002f0: 2e0d 95bb 236b 92bd d58b 0fbc 1b60 853d
00000300: 1710 96bd cf66 e4ba bc30 a7bc 143c 93bd
00000310: 175a 94bd 543a 783d 5488 de3c 0b0b 5d3b
00000320: 8581 14bd 29af 07bc f508 e9bc 8937 903d
00000330: 1904 9abd 3432 74bd fe6d 043d 5257 a3bd
00000340: 8a05 88bc aa06 c3bc e078 233d 82c0 4cbd
00000350: 320b f03c f3cb 033c a0d8 4ebd 7f06 d5bc
00000360: 8f50 77bd 38a6 aa3a f83c 2c3d e3b2 cd3c
00000370: 1b53 a93d 149b 163d 5908 ae3d 0c97 7b3d
00000380: cb5f a93d e2df 883c b392 8ebc 86e6 843d
00000390: c726 a6bd b5e4 22bd 20bc a93d d13a 4e3d
000003a0: 5013 45bd c554 2dbd 90e3 623c 22c4 64bd
000003b0: 8a22 97bd ddb9 653c 5b2d b13d 8dc9 6c3c
000003c0: 2f3a db3b 9615 3cbc 0b8b 223c 157e 073d
000003d0: 8cbb 5cbd 0547 46bd 96f9 b4bd e492 be3c
000003e0: d486 dd3b 71c8 883d e546 1e3c adc8 6dbd
000003f0: 52f8 12bd af96 663d f58d 143d 1d31 c7bb
0.0880215 0.030928928 -0.0033730096 0.05745753 0.0669746 0.080478705 0.0497118 -0.08104921
0.047846086 -0.074384935 -0.019606587 -0.0043110666 -0.02720818 0.056928515 0.017713305 0.018625733
-0.06584696 0.043483183 -0.035288163 -0.0858861 0.03524992 0.06646166 -0.015184547 0.059370503
-0.06367932 0.03812059 -0.033426896 0.041698217 0.0012027267 -0.026127491 -0.079312444 -0.07362156
-0.014716239 -0.0025840101 0.0719917 0.07126017 -0.0361076 0.06240276 -0.004973179 0.012217557
0.034621764 -0.040714063 -0.03062873 -0.05263101 -0.0057541206 -0.0852974 0.061307643 -0.059619784
-0.05142562 -0.03645394 0.06854709 -0.06811445 0.052730266 0.08050863 -0.071151905 0.06678356
0.050661612 0.029235722 -0.026771437 0.067990705 -0.041735046 -0.085018694 -0.06428674 -0.057283863
-0.06644295 0.023248134 -0.052344687 -0.018882189 -0.083321504 -0.07459108 0.04011734 -0.014791158
-0.049370453 -0.08508469 0.038745556 0.048035 0.03655187 -0.081303775 0.07892873 -0.021613158
0.052335408 -0.06190783 -0.032677915 -0.037044547 -0.020132868 -0.054416332 0.08764489 -0.06812044
0.069671124 -0.04456335 0.034411706 0.05057381 0.00039297988 0.077666916 0.086376 -0.010120499
0.007831938 0.01127759 0.010303375 -0.06651319 0.021936638 0.010566992 0.064808175 0.009014568
0.041461803 -0.06587483 0.0063869436 0.013594598 0.049610253 0.021865485 -0.07835415 -0.08329632
0.067158796 0.043782927 0.020708911 -0.07838033 0.006848763 0.07980359 0.021919541 0.028969519
0.04705862 0.028366055 -0.042910937 -0.042587608 0.020688945 0.07041805 0.002922016 -0.003668758
0.04555139 -0.0747774 -0.037393775 -0.018392757 -0.030831408 0.033854097 -0.0019968352 0.065891065
0.060631588 0.06848298 0.042664845 0.068314575 0.081309825 -0.08532134 -0.028021604 -0.010141705
0.048246752 0.0076316767 -0.014157781 -0.034933407 -0.04093939 -0.021182798 -0.041166466 -0.014948901
-0.0105338665 0.033495083 -0.058618672 0.030870881 -0.01703638 -0.088250905 0.050937403 -0.014131071
-0.028361944 0.05895541 -0.020645604 -0.07396432 -0.023693914 0.050322663 -0.017592274 -0.006950241
0.070049 -0.021624139 0.055725854 0.005997199 -0.013835483 0.075285375 -0.035758547 0.08584143
0.028394787 -0.07693148 -0.032155428 0.0010265006 0.014653281 0.085950434 0.042990655 0.04879401
-0.04252053 0.07075415 0.06814067 -0.056124512 -0.0045486903 -0.07149341 -0.008761366 0.06512471
-0.07327288 -0.0017425659 -0.02040898 -0.07189193 -0.07243746 0.0606025 0.027164616 0.0033728506
-0.036256332 -0.0082815075 -0.028446654 0.070418425 -0.07520313 -0.05961819 0.03233146 -0.079756394
-0.016604204 -0.023806889 0.039910197 -0.049988277 0.029302213 0.008044231 -0.05049956 -0.026004074
-0.06037956 0.0013019508 0.04205033 0.025109714 0.08267804 0.036768988 0.08497686 0.061423346
0.08270224 0.016708318 -0.017403936 0.06489281 -0.08112865 -0.039768893 0.08287835 0.05034906
-0.04811412 -0.04231717 0.0138482 -0.05585111 -0.07379635 0.014021364 0.08651229 0.01445235
0.0066902856 -0.011479756 0.009920846 0.033079226 -0.053889796 -0.048407573 -0.08836667 0.023263402
0.0067604575 0.06678856 0.009660457 -0.058052707 -0.035881348 0.056296047 0.036268193 -0.006078853

actor.bias f4 [4]
00000000: e601 823d 14b5 e8bb 0664 51bc 49ce 993d
0.06348018 -0.0071016643 -0.012780195 0.07510049

critic.weight f4 [1, 128]
00000000: 70e2 0fbd b3ff 5bbd cbea 0fbb da66 5e3d
00000010: 9c6a 2ebb aecd f9bc 461d 8ebd 5990 a339
00000020: 19e7 49bc 9dae d7bc 25c6 81bd 7ac2 86bd
00000030: 1a23 503d 2352 5c3d 441d 923d 547b 94bd
00000040: 7ca5 233c 353f a83d 586e 06bd dce8 89bd
00000050: 5ed0 633d 9eb5 14bd 7fb6 a0bd 2010 853d
00000060: 500a b33d 5031 a6bc 87c0 98bd 96e7 95bd
00000070: 0da3 a8bd 9284 1abd feea 27bd 2146 9f3c
00000080: 9fec b3bd a0ac 8f3d c8db b73c 0718 5bbd
00000090: 4047 23bd ea13 6abd 2678 a53d 3e8d a93d
000000a0: aca7 863d 1300 1b3c 298e 9d3d bd3d c73c
000000b0: 9731 cebc 2e41 f23c d140 173d a1d2 143c
000000c0: 8d75 883d 347e 82bd a79d 1b3d 1150 e93c
000000d0: a9d9 d3bc f0ba 963d e308 e63c ca92 7cbd
000000e0: fb08 58bd 40a7 183d 8888 ab3c 103c 863d
000000f0: 351f 5f3d 2e74 8dbd 8300 32bc 43d9 ab3d
00000100: 2cfe abbc 0c55 a9bc 0f7b c53c 071c 123d
00000110: cd98 a4bd 6d74 163d 51dc 1fbd cb42 f1bc
00000120: 5665 a1bd 7c88 c0bc 6909 043d aff9 0a3d
00000130: 66da a63d 0729 edbb 1bd7 433d 8e58 90bd
00000140: fda7 93bd e3ba e9bc e2b4 80bd 9074 e03c
00000150: 1728 a7ba eec6 6ebd 443d eabc f1ec 27bd
00000160: 7441 af3d 49d3 7f3d 8018 55bb 04ea a9bc
00000170: b6c3 e8bc 910b 5e3d 9dc2 333b 694e 8dbd
00000180: 8815 b5bd 0117 a7bb 5d08 b1bd e0f7 543d
00000190: 3277 91bd c1ff 99bd c517 2e3d bc69 b4bd
000001a0: 764a a5bc 6cc3 d53b 32b9 873d 99ac 143d
000001b0: ec03 e73c eb9a 5ebd 2f50 8ebc c3b5 a4bd
000001c0: 37f3 b8bc e8aa 9f3d 6732 aabd a2a3 b1bb
000001d0: b978 b03d c5ca 28bd 6b3d 963d 9324 d73c
000001e0: 4b5e fabc d748 a03d 28cc 8f3d a137 ccbc
000001f0: 28b0 7ebd ecf6 c73b 6a16 9abd a0e0 48bd
-0.035128057 -0.05371065 -0.0021960016 0.054297306 -0.0026613837 -0.030493584 -0.06939177 0.0003119733
-0.012323164 -0.02632838 -0.06336621 -0.06580062 0.050814725 0.05378927 0.07134488 -0.072500855
0.009988185 0.08215181 -0.032820076 -0.067338675 0.055618636 -0.036306016 -0.07847308 0.06497216
0.08742201 -0.020287186 -0.07458597 -0.07319562 -0.082342245 -0.037724085 -0.04099559 0.01944262
-0.08785366 0.070153475 0.022443667 -0.05348971 -0.03986287 -0.057147898 0.08079557 0.08278893
0.065749496 0.009460467 0.076931305 0.024321431 -0.02517013 0.029572096 0.036927048 0.009083421
0.06663046 -0.063717276 0.037992146 0.028480561 -0.025860624 0.07359874 0.02808041 -0.061663426
-0.05274294 0.037268877 0.020939127 0.06554425 0.05447312 -0.06906925 -0.01086438 0.08391049
-0.020995222 -0.020670436 0.02410653 0.03567126 -0.08036957 0.036732126 -0.03902847 -0.029450795
-0.078806564 -0.02350258 0.032235537 0.033929523 0.08147125 -0.007237557 0.047812562 -0.070481405
-0.072097756 -0.028531497 -0.06284501 0.027399331 -0.0012753037 -0.058295183 -0.028593667 -0.04099745
0.08557406 0.062457357 -0.0032515824 -0.02074147 -0.028413635 0.05421025 0.002742923 -0.06899721
-0.088419974 -0.005099178 -0.08644173 0.051994205 -0.07102813 -0.07519484 0.042503137 -0.0880923
-0.020177107 0.0065235402 0.0662712 0.036297414 0.028200112 -0.05434696 -0.017372219 -0.08042481
-0.022576911 0.0779627 -0.08310395 -0.005421118 0.08616776 -0.041209 0.07335933 0.026262557
-0.03056254 0.07826393 0.070213616 -0.02492887 -0.062179714 0.0061024334 -0.075238064 -0.049042344
