models/hybrid/nn/PPL/agent1.pth (torch, 40600 bytes, 5 tensors)

fc.weight f4 [128, 68]
00000000: ec3d 43bd 8da5 e43c 3f4e 6f3d 9e59 ccbc
00000010: 78d9 0c3c 65a8 8dbd 3283 d23d b4e1 ec3d
00000020: 590d ffbc 3eb6 b13d ec09 d8bd 3d07 6a3d
00000030: 9f33 ab3d e9fc f73d 81db 493d b786 aabd
00000040: b537 60bd 2626 06bd 8ab8 d03d 6460 1a3d
00000050: 1102 3ebd 0442 bdbd e41e a3bd 9dc1 a5bd
00000060: 6540 113c 8c30 7f3c f78d 733c fc83 b03d
00000070: f051 f33d 3c99 943c 9bbf 07bc 50eb 92bc
00000080: e4e9 bb3c 6986 c3bc 4076 ee3c 5d30 de3d
00000090: 07fe 0d3d 7a43 5ebd 395e 95bc 6506 053d
000000a0: f272 eb3d 2273 b23d 61d9 aa3d c113 babc
000000b0: ab3f c7ba 7e57 d23d ba6d d53d 2bed 0cbd
000000c0: 11e1 97bd a86e 163c 891c 813d f6c8 74bd
000000d0: c860 f63c ebca f3bd d1e5 cc3c 3c40 853d
000000e0: eacc cfbc ef0c 90bd 80a3 09bd 6fe9 87bc
000000f0: d6bf 18bc 08a4 c93d bc55 8e3d 036f 7cbd
00000100: 29fa b33d a499 eaba f76a ebbd deaa 8d3d
00000110: b464 fbbb 4268 c4bd 7f62 c73d 9431 873d
00000120: c204 0ebc 12b8 583d 22a0 edbd d315 c23d
00000130: 631e d93d 4c1f 2cbd 1889 c1bd 24d2 d63d
00000140: 2716 f73d 7d48 8dbc 463c 0c3d ed8e 593d
00000150: bf96 0abd eba4 063d 1dad a13d ca8b c8bd
00000160: 677b 653c 5f7d 93bd 6580 e63d 5e60 72bd
00000170: d503 9dbd 08d8 e6bd 53d1 80bc ffe8 d13d
00000180: fb7b 833d 5d3f e43d aab0 e2bd cc59 333d
00000190: 7209 c93d 9f32 34bd f854 b2bd d020 e6bc
000001a0: b859 dd3c 9d46 58bc 4029 603d 2f31 dd3d
000001b0: 5cf5 f13c 6c8d 263d f2fd 31bc 3015 6ebd
000001c0: c07c eebd 00c1 8cbd 0b77 423c 9b6d 3a3d
000001d0: 6c61 f23c 30a4 f13d 7624 a3bd 6c1c cb3d
000001e0: 16b4 4fbd 109f 183d 90df c43d 9a73 2dbc
000001f0: 4da6 9ebd d0fc aebd 0865 43bc e7f9 43bd
00000200: 7066 dbbd 8be6 afbd 99d7 d43d 6211 bc3d
00000210: 011e 1cbd d32a e43d 6a70 adbd 78c3 2abc
00000220: b2ba b8bd e1f3 e8bd e5ce adbd b389 6dbd
00000230: 2fa3 cbbc 7675 ef3d c236 67bd c4ea 28bc
00000240: 401d f23d 95b2 a23d 4303 883c 069d 94bd
00000250: 9452 443d b91b 5d3d 9383 c8bd c43b 6a3d
00000260: c076 f93c fcd0 c73d c1de 953d c780 f33d
00000270: 594d 0f3d adaf 57bd 5d91 3d3d f3d4 253c
00000280: 23bc 903d f9d6 ea3d 984c 1abd 0c59 733d
00000290: 1299 1ebc df19 e1bd 64dd 643c 40c6 87bd
000002a0: 0b40 4cbd 9b87 a5bd ae42 233d ce7a 52bc
000002b0: 0398 ae3c d033 93bd 0ba8 ad3d e1f2 663d
000002c0: 521a 20bd 73cd 0f3d 20c5 dfbd 9677 d1bd
000002d0: 302e 4c3c 488f 9b3d 66ec c9bd 77ec 13bd
000002e0: d45d d03c c31e f33d 7136 cebd 3668 723d
000002f0: 0394 843d 1e3d bd3d ddc9 d63d 7dc6 f23d
00000300: c11b fdbc ae68 cb3d b6cd f63d 80ae 593d
00000310: 61e9 ef3d 1556 bcbd 96e5 afbd 1cd2 83bd
00000320: 845e 683d e217 a8bd dc85 b03d aadf 5c3d
00000330: e65c c03d af78 793d f183 ca3d 26d7 a6bb
00000340: 6250 2b3d 460f ecbd 9b64 65bc 4450 d3bc
00000350: f3a9 18bc a637 cbbb 8c96 fbbc bfae 50bd
00000360: fccd 9b3c a0af 3fbd 058a 743c 2624 8e3d
00000370: 8ad0 5b3d 9b41 e03d 32fa 9cbd ea77 babd
00000380: f33a abbc 1d0f bf3d df3f dc3d b117 bbbd
00000390: 169e 0b3c 2c24 4f3d ddf2 a43d df63 e9bd
000003a0: ad4d 8abd 3558 78bd 0ff1 d93d 9780 373d
000003b0: e939 50bc 48d1 e73b 76c8 dbbc 0c63 22bd
000003c0: b8ca d7bd 8a51 debc 56ab b53d d94b e2bd
000003d0: 8d5e 82bd 667d 45bd 6cc9 73bd d2ed d63d
000003e0: 4c55 d8bd 1d45 183d 4cad e3bd e846 2abc
000003f0: bd9c b13d a044 463d ccd8 c5bd e666 9535
-0.047666475 0.027910972 0.05842423 -0.024945077 0.00859677 -0.06916884 0.1027893 0.11566487
-0.031134294 0.08677338 -0.105487674 0.05713581 0.08359455 0.12108786 0.0492816 -0.08326476
-0.054740626 -0.032751225 0.10191448 0.03768958 -0.04638869 -0.09241107 -0.07964876 -0.080935694
0.0088654505 0.015575539 0.01486539 0.08618924 0.11880863 0.018139474 -0.008285428 -0.017934471
0.022938676 -0.023867803 0.02910912 0.10849068 0.034666087 -0.05426357 -0.018233405 0.0324768
0.114965335 0.08713366 0.08342243 -0.022714498 -0.001520147 0.10270594 0.10421319 -0.03440587
-0.07415975 0.009181656 0.06304271 -0.059761964 0.030075446 -0.11903938 0.025011929 0.06506392
-0.025366265 -0.07033717 -0.03360319 -0.016590802 -0.009323081 0.098457396 0.06949946 -0.061629307
0.08787949 -0.0017898572 -0.11495011 0.06917356 -0.007671917 -0.09590198 0.097355835 0.06601253
-0.008668127 0.052909918 -0.116028085 0.09476819 0.10601499 -0.042022035 -0.09449977 0.104893
0.12064772 -0.01724648 0.03423717 0.05311482 -0.03383517 0.03287212 0.07894347 -0.09792288
0.014006472 -0.07201647 0.11254958 -0.059173934 -0.076667465 -0.112716734 -0.015724814 0.102495186
0.06420132 0.11144898 -0.11068852 0.04378681 0.09816255 -0.04399359 -0.08707613 -0.028091818
0.02702032 -0.013200429 0.05472684 0.10800397 0.029535942 0.040662214 -0.010863768 -0.058125675
-0.11644888 -0.06872749 0.011869202 0.045514684 0.02958747 0.117988944 -0.07965939 0.099175304
-0.050708853 0.03726107 0.09612954 -0.010586644 -0.07746563 -0.08544314 -0.011925943 -0.047845747
-0.10712898 -0.085888945 0.103926845 0.09183003 -0.03811455 0.111409806 -0.08468707 -0.01042258
-0.09019984 -0.11374641 -0.084867276 -0.05799265 -0.024858085 0.11692326 -0.056448705 -0.010309879
0.11821985 0.07944218 0.016603118 -0.07256512 0.047930315 0.053981517 -0.09790721 0.057185903
0.030452132 0.097566575 0.073178776 0.11889797 0.034985874 -0.05265777 0.046281207 0.010121572
0.07067134 0.11466784 -0.0376707 0.059411094 -0.0096800495 -0.10991263 0.013968799 -0.0662961
-0.049865764 -0.08082505 0.039858513 -0.012846662 0.02131272 -0.07187617 0.08479317 0.05638397
-0.0390876 0.03510804 -0.109262705 -0.10227887 0.012462184 0.07595688 -0.098595425 -0.036114182
0.025435366 0.11871102 -0.100689776 0.059181415 0.064735435 0.09240173 0.10487721 0.11854265
-0.030897023 0.099320754 0.12050955 0.05314493 0.11714435 -0.09196106 -0.08588712 -0.064365596
0.056730762 -0.0820768 0.08619282 0.05392424 0.09392719 0.06090611 0.09888447 -0.0050915657
0.041824706 -0.11526351 -0.014001037 -0.02579511 -0.009317863 -0.006201702 -0.030711435 -0.0509479
0.01901912 -0.04679835 0.014925485 0.069404885 0.053665675 0.10950013 -0.076649085 -0.09104903
-0.020902133 0.093290545 0.1075437 -0.09135378 0.008521577 0.050571606 0.08054135 -0.11396002
-0.06753097 -0.060630996 0.106416814 0.044800367 -0.012709119 0.007074509 -0.026828986 -0.03964524
-0.105367124 -0.02713849 0.0887057 -0.11049623 -0.063656904 -0.048215292 -0.059518263 0.104945794
-0.10563144 0.037175287 -0.11117038 -0.010392882 0.086724736 0.04840529 -0.09660491 1.1131312e-06

fc.bias f4 [128]
00000000: 2471 5fbd 6499 14bc 39c5 d9bd 1ab9 bebb
00000010: 7043 853c a081 a2bd 17be 0b3d 3378 b83d
00000020: cc4b 463d 690f b5bd 82cf be3d fa95 df3d
00000030: e6ec ef3d 5140 33bc c50b b83d 4055 b4bd
00000040: 046c 2e3d a923 19bd c96f 6abd 449b 9e3c
00000050: b38d 11bb cc54 833c d825 333d 1f0a a93d
00000060: f8c5 cb3d 098e 373d 66d6 2c3d ef14 c73d
00000070: e6d6 d13c 2d46 08bd d19c debd 4bf1 663d
00000080: e83b 9a3c 142e b0bd c467 c6bd 3839 61bd
00000090: 66fe 84b9 8db8 f23d 6b11 cc3d 14aa eebd
000000a0: ce8e a0bd e196 90bd c78e 50bd ccc6 03bc
000000b0: d39f e53d 609f 183d 4120 4cbd e8a7 9cbd
000000c0: 68ff 9e3d 0226 c73d a6fb a9bc 9864 633d
000000d0: 5278 b83d a757 c4bd 0f34 a8bd 65ce bb3d
000000e0: cea5 e23d bbee 6e3d 8ca8 18bc 46ac c03d
000000f0: 4a56 7b3c 6bd4 e73d 91d6 443d 4c37 7e3d
00000100: c65a a73d 4092 353d 2c4a aebd 10e6 a93d
00000110: 6b4d a13d c1fd c2bd ed09 e73d c076 a53d
00000120: 09e0 8dbd deba 953d d111 b7bd 0fee be3d
00000130: 281f 703b 4a13 f2bd f492 d1bd 51d0 c93d
00000140: 821b 98bd cca2 b3bd 17fa 96bd f56d 4dbd
00000150: 1a07 053d 99e2 673d dcfe 623d 86df 503c
00000160: 1bf8 ecbd 30ff f5bd fb84 46bd f2c8 95bd
00000170: 25ab cb3d ada4 ef3d da98 af3c 38f6 203c
00000180: 86a1 ccbd 4c88 2cbd a1ec a4bb 7fbd 1fbb
00000190: 7dbc 2dbd 6546 a33d 8e79 753c f4fe dbbd
000001a0: 6655 a93d da37 3dbb a40f d6bc 3f0b 773d
000001b0: ea82 cabd 4098 3c3c 5b97 c63d 7861 cc3d
000001c0: 2628 653b 908a a23c ca45 5cbd d976 b8bc
000001d0: 60fa 0ebd 56dc f2bd 0d67 eb3c cda6 cf3d
000001e0: e02f e53d 8c0d 843d 18ba ed3d f67d 083c
000001f0: 3df7 adbd 1dac 463b d3b2 8cbd c120 78bd
-0.05455126 -0.009069774 -0.1063332 -0.0058204057 0.016267508 -0.0793488 0.03411683 0.09007301
0.04841213 -0.0884083 0.09316923 0.10917278 0.11715107 -0.010940627 0.0898662 -0.08805323
0.04258348 -0.037387524 -0.057235513 0.019361146 -0.0022209703 0.016031645 0.043737262 0.082538836
0.09949869 0.04481319 0.042196654 0.0972079 0.025615167 -0.03327005 -0.10869754 0.05638246
0.018827394 -0.08602539 -0.096877605 -0.05498621 -0.00025366544 0.118516065 0.0996426 -0.116535336
-0.07839738 -0.07060028 -0.050917413 -0.008043002 0.11212125 0.037261367 -0.049835447 -0.07649213
0.077635586 0.09724046 -0.020749878 0.055515856 0.09007324 -0.09587031 -0.082130544 0.09170226
0.11066781 0.05833314 -0.009317528 0.094078586 0.015340397 0.113198124 0.04805619 0.062064454
0.081716105 0.044328928 -0.08510241 0.08295834 0.078760944 -0.09521056 0.1128119 0.080792904
-0.06927497 0.07311033 -0.08938945 0.0932275 0.0036639664 -0.11820085 -0.10233107 0.09854186
-0.07427122 -0.087712854 -0.073719196 -0.05015369 0.032477476 0.056612585 0.055418834 0.012748605
-0.1157076 -0.12011564 -0.048466664 -0.07313718 0.099447526 0.11701331 0.02143519 0.009824328
-0.09991746 -0.04212217 -0.005033091 -0.0024374423 -0.042416085 0.07972411 0.014982594 -0.10741988
0.082682416 -0.0028872401 -0.026130505 0.06031346 -0.09888251 0.011510909 0.096968375 0.09979528
0.0034966557 0.019841462 -0.053777494 -0.022517608 -0.034906745 -0.11858432 0.028735662 0.101392366
0.11190772 0.06447896 0.1160776 0.008330813 -0.084944226 0.003031499 -0.068700455 -0.06057811

actor.weight f4 [4, 128]
00000000: fcc9 a33d 7ff6 61bc 1550 083d 5c45 b4bd
00000010: dbd5 57bd c41c 47bd fbad 703d 29a2 043c
00000020: 39e2 a0bd 7936 bf3c c4d7 243c efa4 a4bd
00000030: c3f3 9bbd 3661 12bd 59c3 583d 6452 2b3d
00000040: b7ae 03bd 8ffe a5bd 155f 88bc 3881 63bd
00000050: 590f 00bd 3af5 cebc 6d2c a4bc 3141 0fbd
00000060: b686 ae3c 3921 78bd ebcf 373d d85c 9c3d
00000070: 91c4 06bc fd82 ff3b ec5a d93c 18cc 753d
00000080: 6c46 943d 826a 753d dbd9 5e3d dac4 4ebd
00000090: 28bd 253d 270d 6a3d 6e1e a23c ca8c 5f3d
000000a0: ce64 563d bb76 86bd 92e0 1dbc b5af 92bd
000000b0: 8852 af3d 9bfc 0c3d e11f b2bd aa04 32bd
000000c0: 0079 6a3d 847d 1abd 2fc6 c43c 8244 a9bd
000000d0: c4ae 96bc f600 91bc 7deb 04bd 7d48 853d
000000e0: 3eb2 433d 66f1 b03d 922e 003d d538 a13d
000000f0: 6a82 c5bc 1f24 6a3d f026 9fbd f65e 053d
00000100: 719d ee3a eda3 a43d dad4 9ebd 168e 1dbd
00000110: 082b 9ebd f387 3bbd a900 8e3d 17ee aebd
00000120: e10b 8f3d 9381 cdbc c554 903d d1a2 b1bd
00000130: 7ea4 3cbd a7b5 a73d c34a c43c beef 9abd
00000140: 1060 0b3d 8375 41bc c857 3ebd f784 a03d
00000150: eb96 abbd f57a 55bd f8f0 9dbd 7b1a a53d
00000160: aa74 87b8 16dd cdbc cd7b 463c d636 113d
00000170: 8e43 0cbd 820e abbd f214 7b3c 9074 6b3d
00000180: a904 903d 919d d13c b5e8 29bd 404d 9a3c
00000190: 8528 bc3c dc07 8abd 5566 ac3d df47 5bbd
000001a0: 967c 91bd 1034 40bd 1d9d 1c3d 7736 44bd
000001b0: b8b5 bdbc 0def 2a3d 8b89 c1bc edc1 9e3d
000001c0: d47f 643d 403d 603d d0ed 663d 92e8 953c
000001d0: 6950 9cbc 83a4 63bd 5742 8d3c 542a 843b
000001e0: 8aa5 f5bc f649 29bd fce6 abbc 6838 8fbc
000001f0: a589 8e3d d981 5cbd 53af abbd e1b4 20bd
00000200: afea 873d 653c 0abc d764 00bc 998a 673d
00000210: 331c 623d da2a 843c 9ab4 fc3c d0ee 183d
00000220: 1309 343d 2b10 b13d 3093 54bd c82e 20bd
00000230: 67f4 87bb 524f 303d ac2f 61bd bf1c 993c
00000240: 4ce1 febb bf0b 75bd c0fb 843c 0bd3 9fbd
00000250: 6987 a9bd daa5 753d 6b09 28bc 67be c8bc
00000260: 0e01 8c3c 6280 493d c316 4dbd 49aa 0abd
00000270: 106c 923c 2f5e 47bd 7453 e7bc 8c5c dc3c
00000280: 0870 81bd 34d5 2dbd aad2 01bd f15a 56bd
00000290: 5626 913d 7763 5e3c c4c9 6e3d 3296 a53d
000002a0: 467d 8b3d 8dc0 88bc 2bc2 9ebd f20f a83c
000002b0: 2715 ddbb 3746 e73c 8075 a5bd 1ba3 a13d
000002c0: a7a1 e43c 63b8 b2bd 16a4 8f3d e3ea c73c
000002d0: 6e70 04bd 022a 92bd 69f2 abbd e6ad 2f3d
000002e0: b5b2 873d 34db 643d d6c2 83bc 26cc 483d
000002f0: b489 94bd a186 17bd c082 a3bd 65c8 87bc
00000300: 697d 6a3c 7e9f 70bd 690d 9f3d 1667 983d
00000310: f59b 23bd 3503 a53c 10e8 90bd 26d5 a63d
00000320: 6a79 3f3d 453b 68bb ce78 9cbc a099 a23d
00000330: 428d 5dbd 108d aabd 9934 7ebd 47d6 af3d
00000340: 1650 823d 909c 903d 33f6 bf3b 1f8c b839
00000350: 5282 89bd 1523 bfbc f433 aabd 0aeb 4cbd
00000360: e6df 8fbd 190b 443d a624 adbd 6f42 73bc
00000370: ca39 353d bf2c 36bd 11c1 a33d 4401 ae3d
00000380: 4eab 943c 7fce 783c 2534 f7bc cdaa 77bd
00000390: b0fa 813d fe20 b3bc c38d 473d f725 90bd
000003a0: f173 2cbd 6d62 99bd 07ae 663d 9c9b 863d
000003b0: 4d75 b73c 5d47 62bd 7c06 b13d 423e 89bb
000003c0: 9291 ab3d 0055 483d 841c 823c 569e 8a3d
000003d0: 1529 56bd 2ea2 0a3d 83c3 2ebd 139a ebbc
000003e0: 3ea7 a23c 0444 a7bd 6977 7b3b 1f63 8cbd
000003f0: 8d11 85bd 77a3 a93d 667d 10bd bf0e 643b
0.0799751 -0.013791679 0.033279497 -0.08802292 -0.052694183 -0.048611417 0.05875967 0.008095303
-0.078556485 0.023341404 0.010061208 -0.08039271 -0.07614853 -0.03573724 0.052920673 0.04182662
-0.032149043 -0.08105194 -0.016646901 -0.055543154 -0.031264637 -0.025263418 -0.020040715 -0.03497428
0.02130447 -0.06057856 0.04487602 0.07634896 -0.008225576 0.0077975974 0.026532613 0.060009092
0.072399944 0.059916027 0.054406982 -0.0504807 0.040463597 0.05714145 0.0197899 0.054577626
0.05234223 -0.06565615 -0.009636061 -0.0716242 0.085606635 0.03442059 -0.08697487 -0.04346148
0.0572443 -0.037717357 0.024020283 -0.0826502 -0.018393882 -0.017700654 -0.03245114 0.06507967
0.047777407 0.08639793 0.031294413 0.07872168 -0.024110038 0.057163354 -0.077710986 0.032561265
0.001820488 0.08039079 -0.07755442 -0.03846558 -0.07723051 -0.04578395 0.0693372 -0.08541506
0.069846876 -0.0250862 0.070474185 -0.08673633 -0.04605531 0.08188944 0.02396143 -0.075652584
0.03402716 -0.011807802 -0.046470433 0.07837861 -0.08378395 -0.052119214 -0.07711977 0.080616914
-6.459032e-05 -0.025129836 0.012114477 0.035452686 -0.034244113 -0.083523765 0.015324818 0.05748421
0.07032139 0.025587829 -0.041481692 0.018835664 0.02296854 -0.0673978 0.08417956 -0.05353534
-0.07103841 -0.04692465 0.038235772 -0.047903504 -0.02315794 0.041731883 -0.023625156 0.07751832
0.05578597 0.054745913 0.05637914 0.018299375 -0.019081311 -0.055576812 0.017243547 0.004033366
-0.029986162 -0.0413303 -0.020984165 -0.017482951 0.06959847 -0.05383477 -0.0838305 -0.039235
0.06636559 -0.008437251 -0.007836542 0.05652866 0.055202674 0.016133714 0.030847836 0.037337124
0.043953966 0.08645662 -0.05189818 -0.039107114 -0.004149008 0.043044396 -0.054977104 0.018690465
-0.0077783223 -0.059825655 0.016233325 -0.07803925 -0.082777806 0.05997262 -0.010256152 -0.024504853
0.017090347 0.0491947 -0.050070535 -0.033853803 0.017873794 -0.048673805 -0.028238036 0.026899599
-0.063201964 -0.042439654 -0.031695046 -0.052332822 0.0708739 0.013573519 0.058297887 0.08085288
0.068110034 -0.016693378 -0.07751878 0.020515416 -0.0067469063 0.028231723 -0.08079052 0.07892438
0.027909113 -0.08726575 0.07013719 0.024403995 -0.032333784 -0.071369186 -0.083958454 0.04289045
0.066258825 0.05587311 -0.016084116 0.049022816 -0.07252827 -0.036993627 -0.07983923 -0.016575048
0.014312127 -0.058745854 0.0776623 0.07441537 -0.039943654 0.02014313 -0.070755124 0.081461236
0.04674665 -0.0035435718 -0.019100573 0.07939458 -0.054089792 -0.08327687 -0.06206188 0.08585792
0.063629314 0.07061112 0.0058582067 0.00035199613 -0.0671431 -0.023332158 -0.083106905 -0.05002884
-0.07025127 0.047862146 -0.08454256 -0.014847382 0.044244565 -0.044476267 0.07995809 0.08496335
0.01814809 0.015185951 -0.030176232 -0.060465623 0.06346643 -0.021866318 0.04871918 -0.07038491
-0.042102758 -0.07489476 0.05631831 0.06572649 0.0223948 -0.05524384 0.08643815 -0.00418833
0.08377375 0.048909187 0.015882738 0.067684814 -0.052285273 0.033846073 -0.042666923 -0.028759992
0.019855138 -0.0816727 0.0038370735 -0.06854843 -0.06497488 0.082831316 -0.03527584 0.0034798828

actor.bias f4 [4]
00000000: 1e86 5e3d 369c 623d f539 3e3b 1c30 a13d
0.054327123 0.055324756 0.0029026244 0.07870504

critic.weight f4 [1, 128]
00000000: a291 013c 4de8 943b d386 a2bd 1264 07bd
00000010: e3eb 64bd 1387 3a3d f8b0 aebd 4a9c 513d
00000020: e91e 993d f072 993d 1466 22bd ecd6 923d
00000030: 23bc da3c 118b a6bc 892a 14bd bcc2 333d
00000040: ab25 793d 3f21 333d 61b1 6a3b 19af 94bd
00000050: f9b5 a83c 8c1f ddbc 8f73 5fbd da64 9b3d
00000060: a1c0 353b b85a a7bd 2306 983d 3015 473d
00000070: e249 8abd 915a 0c3c 3084 c8bc 7075 f5bc
00000080: 672d cebc a8eb 223d 387e 5cbc b990 3abd
00000090: cd80 0f3d 6822 3cbd 76a9 a03d 2c49 16bd
000000a0: 4eca 253d 0305 a33d 8bed 583d 2dde 873b
000000b0: 95f2 363b 5da8 05bd fe19 95bc 4e65 513c
000000c0: 47f9 98bc 67e2 bfbc 57ef 973d b655 b2bd
000000d0: 0370 dbbc 3dad 4d3b 21d1 4abb c4a5 56bd
000000e0: 99ee 843c 9110 383d 867c fd3c c135 a73d
000000f0: ba93 14bd bf54 09bc e932 843d 43b4 843d
00000100: d021 2fbd 8543 48bd e788 a1bd daf0 b2bd
00000110: c9f3 a53d d6e0 a7bd cc73 aa3d 5218 d63c
00000120: 7576 333d 437c 3dbd 987b 16bd bcc3 283d
00000130: 2730 8f3d 5068 563d 79f0 833d 03d7 7a3d
00000140: d64c 8a3d b0c4 013d 3335 6e3d 6a70 8bbd
00000150: d419 95bd 32da c43c e625 9fbd effc 9e3d
00000160: 36d2 3d3d 1c3b 69bd 0be3 0d3d b3b8 4abc
00000170: 1ede 57bd 7b1e 973d 9732 e8bc da77 843c
00000180: 4d9b 76bd 4634 b43d 7dd0 a2bd cec7 b43d
00000190: 9f35 75bd 10bd 913d 978d b83c 3aa6 a63d
000001a0: 1172 9abc 37dc 9d3d 2a27 793d 06e4 873c
000001b0: 16fc 9fbd 1436 52bd cac5 9abd b9ca e23c
000001c0: 0b8d 453c 2060 1cbd 44a7 213d f4c4 f2bc
000001d0: 173b e53c 6dd3 0cbd fe52 af3d dc49 a9bd
000001e0: d5bb b13d b942 9ebd 2613 993d 8d78 43bd
000001f0: 0bbd af3d 0ebd 623c ae6d b1bd d047 6f3c
0.007908257 0.004544294 -0.07935872 -0.03305442 -0.05588902 0.045538973 -0.08529848 0.05117444
0.07476599 0.07492626 -0.03964813 0.07169899 0.026701039 -0.020329984 -0.036173377 0.043886885
0.06082694 0.043732878 0.0035811292 -0.0725996 0.020594584 -0.026992582 -0.054553565 0.07587595
0.0027733224 -0.081716 0.074230455 0.04860419 -0.06752373 0.008566515 -0.024477094 -0.029963225
-0.025168134 0.03977552 -0.013457827 -0.045548175 0.035034943 -0.04593125 0.07844822 -0.036690876
0.040476136 0.0795994 0.052960914 0.0041463585 0.0027915586 -0.032631267 -0.01820087 0.012780501
-0.018673552 -0.023423387 0.07418697 -0.08707754 -0.02678681 0.0031383776 -0.0030947404 -0.05240418
0.016227053 0.044937674 0.030943166 0.081645496 -0.036273696 -0.008382021 0.06455023 0.06479695
-0.042756855 -0.048892517 -0.0788744 -0.08737345 0.08103139 -0.08197181 0.08322868 0.026134644
0.04381414 -0.046261083 -0.036738962 0.04120229 0.06991606 0.052345574 0.06442351 0.061240207
0.067529365 0.031681716 0.058156203 -0.06808551 -0.07280317 0.024029825 -0.077709004 0.07763087
0.04634305 -0.056941137 0.034640353 -0.012373137 -0.05270206 0.073788606 -0.028344436 0.01617043
-0.0602067 0.08799033 -0.07949922 0.08827172 -0.05986559 0.07116139 0.022528453 0.08137174
-0.01885322 0.07708018 0.060828365 0.016588222 -0.078117535 -0.051321104 -0.075572565 0.027684556
0.012057553 -0.03817761 0.039466158 -0.02963493 0.027982278 -0.03438132 0.085607514 -0.08266041
0.08678404 -0.0772757 0.074743554 -0.047722388 0.08580979 0.013839019 -0.08663498 0.014604524
