models/resilience/linear/PPL/agent1.pth (torch, 40580 bytes, 5 tensors)

fc.weight f4 [128, 68]
00000000: 0194 dd3d 52ca c8bd 6783 293d 707e 8fbd
00000010: 4e5f 143d 02f3 113d 6907 cc3d 0c50 ddbd
00000020: f0ee 9b3d 9d8c 14bb 808b cc3d 50a8 1cbd
00000030: 7786 cdbd e15c a3bd 43cd 91bd 67fe 44bd
00000040: 19f6 3b3c b394 c53d 29a9 3d3d 7832 983c
00000050: df12 ab3c 0b86 9b3d 5b7c b43d 6538 f73d
00000060: e43a b5bd 7ef5 cf3d d7c8 ccbd f6a7 73bd
00000070: 2fc5 f83c 7d3b d33d 0ed1 f4bd cbec e13d
00000080: fef4 1dbc 4329 283d 7a9c d3bc 5745 88bd
00000090: e013 43bd cd2b 53bd fc28 efbd 1f86 523d
000000a0: 6382 eabd 39c6 4d3d b48f 03bd 6087 dd3d
000000b0: 535f a43d d475 70bd 7649 743d b52f 95bc
000000c0: f584 d9bd fa27 d5bd bed4 c1bd ffcb 4dbd
000000d0: fb1e 65bd e09a e63d c64d cbbd f566 533d
000000e0: 9f45 c4ba 1582 d2bc 8f12 b13d e78e 29bd
000000f0: 68c0 debd b8cb a13c db75 ef3d 0d17 c4b8
00000100: b59b a6bd 4c9e bcbc 6c25 553c 3f3b f73c
00000110: 3734 30bd eb26 a6bd 9d95 44bd 8794 79bc
00000120: 26a3 c63d 34ff eabd a43f 4a3d fca6 c3bd
00000130: 0a54 68bb 1410 df3d 5c0d ca3d a088 cfbd
00000140: 06b5 9dbc f0bb f03c cdc3 b3bb 7bf2 67bc
00000150: c3a0 4ebd edc6 993d 2887 a53d c0b8 d0bd
00000160: e705 f3bc bd86 863d e83b b7bc 7dae edbc
00000170: 87cf a8bd f7c0 5dbd ee56 123d 6b42 da3d
00000180: 1b2f dc3d 904e 273d 7175 35bd d1c6 ae3d
00000190: 3efb a83d 294a d4bb a1e6 8bbd 64bb 363d
000001a0: b8ff 13bd 5a29 71bc f1a4 8f3d 076d acbd
000001b0: 46c4 9a3d 7c83 27bd 9608 b23d c701 8a3d
000001c0: 3aee e33d 8111 0e3d 77a7 283c 0f3e 9bbd
000001d0: 53bf df3d f016 643c a19b a73d 30cb f6bd
000001e0: f8cc e13d 4b3b d6bd 8c28 d83d 0a0a ccbd
000001f0: cea4 26bb 6038 09bd 132c a23d 97c5 aabd
00000200: 1c58 a2bd 701f 8dbc 906c b7bc ebd1 003d
00000210: 75a1 4ebd 5c31 2dbd e139 c23d 769e 9fbd
00000220: 16e9 f4bd 2c3e 493c 3915 80bd 0fe1 353d
00000230: c00f 99bc 7c6a 763d 7e1c 9f3c f646 673d
00000240: 00e3 743d 5f68 85bd c6f0 9bbd 8316 043d
00000250: fb7d e7bd 206c 223d ec8d 56bd 87cc 933a
00000260: bb56 243d 939e 323d 9f7e 323d 1c86 f6bd
00000270: c543 6ebc 9af4 84bc 46c0 cf3d a21c 62bd
00000280: 55d8 573d 5a5f 18bd 6c47 6e3d 3408 c0bd
00000290: 8ab2 cbbd 6865 79bc f690 913a c9d7 e0bc
000002a0: 6bf8 8ebd 8723 ce3d 1250 f8bd 672a 253d
000002b0: e6ba e03d da48 cb3b 09ad c33d 68a2 953d
000002c0: a88c aebc 0631 30bd 9eb1 a43d c188 8f3c
000002d0: 3b8f 01bb 60a0 5c3d 2740 5b3d 5785 083c
000002e0: 8ab7 92bc efbd 22bd 8deb 4abd 9954 9a3c
000002f0: 999f 1bbd 1274 21bc 5aa6 bebd 6c13 313c
00000300: 839f 9abd 7b68 733d a86f 873d 538d f2bd
00000310: 77d5 743d 6f3d ba3d 362d a6bd 0b36 d53d
00000320: 7d21 9d3d d17d 363c 1697 3f3d 4d72 31bd
00000330: 651f c93d fd44 d63d 5de5 72bd 3dd5 383d
00000340: e5ac fa3c 251f e63c 586d 1cbd 8d19 b0bc
00000350: 94ab a03d ec1d 583d 9af9 e4bd cbf1 c33d
00000360: 81ff 173c e894 c43d 1013 4dbd fdf7 c8bd
00000370: 70fc a93c 202f c8bd 6f26 c53d 941b fc3b
00000380: 1b58 ddbd e45d e5bd b7a2 1dbd 5588 763d
00000390: 1b38 87bd d907 403d 84a7 f5bd 2158 b73c
000003a0: 7741 51bd 7358 2f3d 13bc 4abc 1641 08bd
000003b0: f0fe 32bc 0ae5 cf39 604c 403d 5b11 debd
000003c0: a85c 62bd 833d 45bd d684 b73d 067e 593d
000003d0: 349e 82bb a2ea 043d 0370 cfbc d22f febc
000003e0: 4960 543d 670d 2abd 3b6d 443d a1aa dcbb
000003f0: 5faf e03c 0e54 d1bd 4f6c 953d 3418 ddbc
0.10819245 -0.098042145 0.04138508 -0.07006538 0.036223702 0.03563214 0.09962351 -0.10806283
0.07613933 -0.002266682 0.09987545 -0.038246453 -0.10035413 -0.079766996 -0.07119229 -0.04809418
0.0114722485 0.09647503 0.0463039 0.018578753 0.020883022 0.07593926 0.088127814 0.12071303
-0.08849123 0.10154246 -0.09999245 -0.059486352 0.030367462 0.10314081 -0.119539365 0.11031493
-0.00964093 0.041054975 -0.02583145 -0.066538505 -0.047626376 -0.051555444 -0.11677739 0.05139744
-0.114506505 0.050237868 -0.032119468 0.10816836 0.08025994 -0.05870612 0.05964037 -0.018211225
-0.10621063 -0.104080155 -0.094644055 -0.050243374 -0.05593775 0.11260009 -0.099269435 0.05161186
-0.0014974362 -0.025696794 0.08646118 -0.041396048 -0.10876542 0.019750461 0.11692401 -9.350302e-05
-0.081351675 -0.0230247 0.01300941 0.030179618 -0.043018546 -0.08112892 -0.047994245 -0.015233166
0.09699087 -0.114744574 0.0493771 -0.09553334 -0.0035450482 0.108917385 0.09865829 -0.10133481
-0.019251358 0.02938649 -0.0054859878 -0.014156933 -0.050446283 0.07508645 0.0808242 -0.10191488
-0.0296659 0.06568668 -0.022367433 -0.029013867 -0.08242708 -0.054139104 0.035727434 0.106571995
0.10751172 0.040846407 -0.044301454 0.08534015 0.08251046 -0.006478567 -0.06831098 0.044612303
-0.036132544 -0.014719332 0.07013882 -0.08419233 0.075569674 -0.040896878 0.08693044 0.0673862
0.111294225 0.03468466 0.010293833 -0.07580196 0.10925164 0.013921484 0.08183981 -0.12050474
0.11025423 -0.10460528 0.10554609 -0.09962852 -0.002542782 -0.03350103 0.07918563 -0.083384685
-0.07926962 -0.017226905 -0.022390634 0.031450193 -0.050446946 -0.0422834 0.09483696 -0.07793896
-0.1195852 0.012282889 -0.06254048 0.044404086 -0.018684268 0.060160145 0.019422766 0.056464158
0.059786797 -0.06514048 -0.07614283 0.03224803 -0.11303326 0.039653897 -0.05238144 0.0011276164
0.040121775 0.04360826 0.043577787 -0.12037298 -0.014542525 -0.016229916 0.10144095 -0.055203088
0.052696545 -0.03720031 0.058173582 -0.093765646 -0.09946163 -0.015221931 0.0011105824 -0.027446644
-0.06980976 0.1006537 -0.12124647 0.04032364 0.10973148 0.006203753 0.09554488 0.07306367
-0.021307305 -0.043015502 0.0804169 0.017521264 -0.001976921 0.053863883 0.053527977 0.008332572
-0.017909784 -0.039731916 -0.049541045 0.018839167 -0.037994 -0.0098543335 -0.09309073 0.010807853
-0.07549956 0.059425812 0.066130936 -0.11843362 0.05977389 0.09093749 -0.08114092 0.104106985
0.07672403 0.011138395 0.046774946 -0.043321896 0.09820441 0.10462377 -0.05930077 0.045125235
0.03060002 0.028091023 -0.038190216 -0.021496559 0.07845226 0.05276291 -0.1118042 0.09567603
0.0092772255 0.09598714 -0.050067008 -0.09812925 0.020750254 -0.097746134 0.09626471 0.0076937173
-0.108078204 -0.11199549 -0.038485255 0.06018861 -0.06602498 0.046882484 -0.11994842 0.02238089
-0.051087823 0.04280896 -0.012373942 -0.033265196 -0.01092504 0.00039652764 0.046947837 -0.10843154
-0.055264145 -0.048154365 0.08960883 0.0530987 -0.0039861444 0.032450326 -0.025321966 -0.031028662
0.051849637 -0.041516688 0.047955733 -0.0067342077 0.027427373 -0.1022111 0.07296049 -0.02698908

fc.bias f4 [128]
00000000: 2133 81bd fd39 3d3d b8db 593c 3bee e5bd
00000010: 7eb9 d0bc 9be8 babd 27a7 cbbc 5257 c1bd
00000020: 093f 313d d044 b83d e86e 933d 7f7c b03d
00000030: 1371 c3bd 0d74 b2bd da4c 87bc 1838 82bc
00000040: ba32 e23d c45a a5bd 8a83 d1bd d747 6ebc
00000050: 6800 ce3c be2a e1bd 2f6d 8f3d 898b 87bd
00000060: 5418 d3bd 1219 aabd 5687 f53d 3ffc 90bc
00000070: 4e82 8f3c 3c70 d0ba 39e4 953d 11f6 463d
00000080: ed54 f13d 9973 ed3d d838 c03d bb9e 3bbd
00000090: 186d 5cbd 93c9 4bbd 8f4f 8fbc caf2 c4bd
000000a0: 99d8 53bc f719 c3bd 857f d03d 145c 87bd
000000b0: 978d 0e3d 01a7 bc3d 842a 86bd 9710 a7bd
000000c0: 6696 093c ef77 5d3d 56f2 b63d f749 22bd
000000d0: 8d39 5a3d 9eb7 66bd 6f52 dbbd 1e38 e83d
000000e0: b813 e13d c2d6 b13c 2f6e d9bd e40a 67bd
000000f0: 792c b43d 92d5 0bbd ebcd c83c 1a65 b4bd
00000100: edd6 f4bd 9da3 8ebd 825d a9bc 7580 b4bd
00000110: bcb0 a93d bc6a b83d 38bb ec3d a9f2 b83d
00000120: 6802 ec3c 0b23 973d 109c 0abd 0dc9 aabc
00000130: 4495 663d 5a64 3fbd f7f0 bbbc 61bb 9cbd
00000140: 9660 d5bc c3de f6bd 9d7a 5b3d b987 4f3d
00000150: 29d6 043c 0e7a 3a3c 0e1e 4a3d 5883 e93c
00000160: 7597 7f3d 8e27 f1bc caaf 3cbd 7bda 163d
00000170: bf6c b73d 232a 953d d227 4f3d 8c9e 5f3d
00000180: 51e3 e3bd 647e 8bbd 136e 76bd 2bbb e2bd
00000190: 4f64 e93d 7236 20bd 1887 b6bd 0028 e73d
000001a0: 7d92 e1bc b620 8b3d 18a0 973d 0254 c4bd
000001b0: 6313 c1bd 48d2 71bd 8712 6c3d 242f e23d
000001c0: a41c dfbd 3938 3fbd 5437 d73d dab7 fe3c
000001d0: b91f 693d 414d 83bd ebed 1a3d 0562 54bc
000001e0: 97b8 e1bd 3d8d 5bbd 4dfb c43d 4aba 18bd
000001f0: eeef 183d 33a8 0fbd aeb4 413c 6f7e bb3d
-0.0630858 0.04619788 0.013297014 -0.112270795 -0.025479075 -0.09126397 -0.024859978 -0.09440483
0.043273006 0.089975 0.07198888 0.08617496 -0.095430516 -0.08713541 -0.016516138 -0.015895888
0.110448316 -0.08073953 -0.10230167 -0.014543495 0.025146678 -0.109944806 0.07003247 -0.06618411
-0.103073746 -0.08305563 0.11988704 -0.017698405 0.017518189 -0.0015902589 0.07318921 0.04857451
0.117837764 0.11594314 0.09385842 -0.045805674 -0.053814977 -0.049752783 -0.017493991 -0.09616621
-0.012930059 -0.09526437 0.101805724 -0.066093594 0.034803 0.09211541 -0.06551078 -0.08157461
0.008397674 0.054069456 0.08932941 -0.03962132 0.05327754 -0.056327455 -0.10709082 0.113388285
0.10990089 0.02170885 -0.10616719 -0.05640687 0.08797545 -0.034139223 0.024512252 -0.08808346
-0.11955056 -0.069648005 -0.02067447 -0.08813564 0.082856625 0.09004733 0.11559147 0.09030659
0.028809741 0.07379731 -0.03384024 -0.020847822 0.056294695 -0.046726562 -0.02294205 -0.07652927
-0.026047032 -0.12054207 0.05358373 0.050666545 0.0081077 0.011381639 0.04934507 0.028505012
0.0624003 -0.029437806 -0.046066083 0.036829453 0.089562885 0.072834276 0.050575085 0.05459456
-0.111273415 -0.068112165 -0.06016357 -0.11070856 0.113960855 -0.039114423 -0.08912486 0.11286926
-0.027535671 0.067933485 0.07403582 -0.09586336 -0.09427526 -0.05903843 0.057634857 0.110441476
-0.10894135 -0.046684477 0.105086 0.031093527 0.05691502 -0.064112194 0.037824553 -0.012962823
-0.11021536 -0.053601492 0.09618244 -0.037287034 0.03733819 -0.035072517 0.011822863 0.09154975

actor.weight f4 [4, 128]
00000000: e8d2 a93c c3b1 97bd f600 aebc 4bbe 85bd
00000010: fb08 b03d 0658 553d 0872 073c e096 a3bc
00000020: ab1d 94bd 1f52 913d 3f53 813d f3f6 4dbd
00000030: cd50 e53c fa44 e5bb cfe5 003d ef96 8cbd
00000040: 33c4 82bd 965e 3d3c bd59 853d df05 dd3c
00000050: 34b2 553d b7ba 1e3d ba6b c73c b9db 88bd
00000060: 7053 13bd b09f cdbc 2067 eb3c d160 73bd
00000070: ec10 ec3c d0b1 953d 02f1 1dbd 642d 11bd
00000080: 4ee3 313d f03f 03bc 8a8a 95bd 5a8d b23d
00000090: a006 28bd 9a78 80bd 0e88 18bd 3e7e a73d
000000a0: b37a a6bd 6b6a 04bd 9fe8 823d 8646 cbbb
000000b0: 6231 60bd 9694 3dbd 7241 93bd 6862 adbc
000000c0: 18fc 9ebd 7e5c 6ebd 0451 fdbc 068d 5e3d
000000d0: ea2a 71bd 5632 8a3d 7682 953d 714a 8fbd
000000e0: 9f99 823d ec2c cbbb 69d9 97b9 4a03 51bd
000000f0: 8987 193b 926c 703d 9a49 8dbd f406 93bd
00000100: 4e63 c03c d974 6b3d f9d3 663c 12c6 a13d
00000110: d9eb 91bd bd2a 953d 6f36 19bd e8ec 34bd
00000120: af73 a93d 68a3 ddbc fdfa 9abd 8bd6 7c3b
00000130: f36c 19bd 2481 8f3d 90af 913d dfe3 73bd
00000140: 9ed3 9abd 695b 8e3d 9c05 d2bc 037c 1c3d
00000150: 9c47 9d3d ecde 7bbc c143 b0bd a9c0 4c3d
00000160: 7173 9e3c 0ff2 4abd f58e 913d d984 10bd
00000170: f4a0 a0bd dbb2 2cbd 288e 953d e285 a43d
00000180: 0fac a4bc bc44 503b 43da cf3c e847 1a3b
00000190: 07b8 f33c ba09 7dbc 6d0f 06bd d3e0 8e3d
000001a0: 29d1 7c3c 96d5 a9bc 7dc1 cbbc 2f04 00bd
000001b0: 8ff8 73bc 7f1e 6e3d 18ea 66bd 6273 cebc
000001c0: 3668 b53c b37b 5a3d a7cd 963c 7292 f43c
000001d0: 70e0 a6bb 0ec3 5dbc c5aa 6b3d a235 ae3c
000001e0: 6a0b 85bd 328f 85bd ea62 d1bc bf89 513c
000001f0: 682e 673c 1e02 9bbd c023 a4bb 5c02 373d
00000200: eaa9 863c 2e4f ddbc 93d2 413d 67fd 8b3d
00000210: 325f 3ebc 8c8e 993d b7be 67bd fdb7 f63b
00000220: dc9e 85bd 33f4 f0bc 336f 2b3c 889a 963d
00000230: 4967 a6bd 48f7 543d 6f8e 8a3d aa52 483d
00000240: bc36 933d e1a4 503d c640 86bd d46b 91bd
00000250: bf2d 823c dd8d 61bd 0779 74bd 0588 a7bd
00000260: 2805 573d 28c3 273d 1b8c 333d 42c8 163c
00000270: feae 5f3d dda5 27bd 9277 10bc 3098 8fbd
00000280: 9d47 99bc eaf6 22bd a89a aa3d ac92 aa3d
00000290: 1122 2a3d ff6f 313d a41f fabc 97bc a73d
000002a0: 10b9 a4bd bf70 aebd 3c4b 3abd b559 98bd
000002b0: 9f8a 563d 6ff7 103b f4d6 393d 92d5 77bd
000002c0: e286 82bc 0be3 a03d 69e5 00bd 7c66 473d
000002d0: 3cba 9f3d 151c a2bd 3fc3 b0bd 28f8 b33d
000002e0: a6d3 b1bd 2348 89bd 1f23 793d 39b4 90bd
000002f0: aab9 0f3d 703b 7fbd 5061 49ba cf82 88bd
00000300: 3f45 ecbc 02ff 493d 9b41 01bd cf29 2ebd
00000310: cd3f 163d 05af acbd 141a ad3d 69f5 1ebd
00000320: f3c9 e83c e9f4 91bd 3158 13bd 67ba aa3d
00000330: 5057 77bc d0f4 a13d 1229 27bd c445 083a
00000340: 5e3f 0d3d 45a3 a13c f21d 30bd c099 853d
00000350: a11c 96bd b614 f83c 32e9 80bd f364 873d
00000360: e8f8 59bd 0a5d 553c 6ca6 99bd e9ad 02bd
00000370: 21ba 673d 1793 a4bd 7a04 543d 63fd a4bd
00000380: da90 44bd 6a4e 783d 8905 ac3d c7e7 7a3c
00000390: 11f1 64bd 40ab a23d ea92 7bbd 03ed aabd
000003a0: e137 193c 3ad2 963d 1e3d bfbc ce14 4b3c
000003b0: 48a2 7e3d cf1a 37bd d7b2 07bd e099 b0bc
000003c0: 4e32 8dbd adec 8d3d 5f49 91bd c158 04bd
000003d0: 3e45 72bd a4ac b53b 708d 413d 880c aa3d
000003e0: 10ee a5bd 37dc 8c3d a4ef a93d c657 23bd
000003f0: 80fd 99bd 3253 cf3c b554 8e3c 5196 6abd
0.02073045 -0.07406952 -0.021240693 -0.06530436 0.08595463 0.0520859 0.008266933 -0.019969404
-0.07232221 0.070957415 0.06314706 -0.050284337 0.02799263 -0.006996748 0.031469163 -0.06864726
-0.06385078 0.011558196 0.06511257 0.026980339 0.0521719 0.038752284 0.02434336 -0.06682534
-0.035968244 -0.025100559 0.028735697 -0.059418503 0.028816663 0.07309306 -0.03855992 -0.03544368
0.043429665 -0.008010849 -0.07301815 0.08718367 -0.041021943 -0.06273003 -0.037239127 0.08178376
-0.08128872 -0.03232805 0.06392025 -0.0062034754 -0.054734595 -0.04628428 -0.07190217 -0.021165088
-0.07762927 -0.058193676 -0.03092242 0.05433371 -0.058878817 0.06747882 0.07300274 -0.069966204
0.06376957 -0.0062004235 -0.00028962948 -0.051028527 0.0023426733 0.05869729 -0.06898804 -0.071790606
0.023484852 0.05748448 0.014088624 0.07899107 -0.071250625 0.07283542 -0.037405428 -0.044171244
0.08274018 -0.027055457 -0.075674035 0.0038580026 -0.037457418 0.070070535 0.07113564 -0.059543487
-0.07559894 0.06951029 -0.02563744 0.038204204 0.07679674 -0.015372973 -0.08606673 0.049988423
0.019342156 -0.04954725 0.07107345 -0.035282943 -0.07843199 -0.042162757 0.07302505 0.080333486
-0.020101575 0.003177925 0.02537263 0.0023541395 0.029750837 -0.0154442135 -0.032729555 0.069764756
0.015430727 -0.020731729 -0.024872536 -0.03125399 -0.014890804 0.058134552 -0.056375593 -0.025201503
0.022144418 0.053340625 0.01840861 0.029854987 -0.005092673 -0.013535274 0.057535905 0.021265808
-0.06496318 -0.06521453 -0.025559861 0.012789189 0.014110185 -0.07568763 -0.0050091445 0.044679984
0.016438443 -0.027015295 0.04731996 0.06835442 -0.011619376 0.07497892 -0.056578364 0.0075292573
-0.06524441 -0.029413318 0.010463524 0.07353693 -0.08125169 0.05199364 0.06765448 0.04890696
0.07188174 0.05093849 -0.06555323 -0.07100645 0.015890954 -0.055066932 -0.059685733 -0.081802405
0.05249515 0.0409576 0.043834787 0.009203019 0.054610245 -0.040929664 -0.00881757 -0.07011449
-0.018710906 -0.039786257 0.083302796 0.08328757 0.041536395 0.0433197 -0.030532666 0.081902675
-0.0804311 -0.08517598 -0.045481905 -0.07438985 0.052378293 0.0022120138 0.04537101 -0.06050641
-0.015933458 0.07855805 -0.031468783 0.04868172 0.07799193 -0.079155125 -0.0863099 0.087875664
-0.08682947 -0.06703212 0.06082451 -0.07065625 0.035089172 -0.062312543 -0.0007682042 -0.06665575
-0.028841613 0.04931546 -0.031556707 -0.04252034 0.03668194 -0.0843182 0.0845224 -0.03880826
0.02841661 -0.07126791 -0.035972778 0.08336335 -0.0150965005 0.079080224 -0.040810652 0.0005198384
0.03448426 0.019731173 -0.042997308 0.06523466 -0.07329679 0.030283313 -0.062944785 0.066110514
-0.05321589 0.0130226705 -0.075024456 -0.031904135 0.05657399 -0.08035868 0.05176208 -0.08056142
-0.047989704 0.060621656 0.08399493 0.015314049 -0.05589396 0.079428196 -0.061419405 -0.08345988
0.0093517015 0.07364316 -0.023344573 0.012395097 0.062166482 -0.0447033 -0.03312954 -0.021557748
-0.068943605 0.06929908 -0.070940726 -0.032311205 -0.059148066 0.005544262 0.047254026 0.083031714
-0.081020474 0.0687794 0.08297661 -0.03987863 -0.075190544 0.025308225 0.017374376 -0.05727226

actor.bias f4 [4]
00000000: 560c a9bb f416 0b3d 26ac 1ebd a425 63bd
-0.0051589413 0.033957437 -0.038738392 -0.05545582

critic.weight f4 [1, 128]
00000000: 9d39 453c f925 35bd eef0 b23d 2423 7a3d
00000010: 1448 45bb 95a6 923d f60d 633c 4958 a93d
00000020: 5aab 82bd e3c4 acbc 6c93 a93d 1650 3bbd
00000030: 2246 523d 295d 15bc 15b3 43bd 6d81 0b3d
00000040: 2c5e 9bbd 62ad 87bd ed6a 9a3c 92b7 ae3d
00000050: 09ed 8bbc 6655 a8bc 8dfe 11bd 9009 b3bd
00000060: fc81 a8bd 34a7 63bc 2602 8b3d 1bba 6fbd
00000070: d414 803d a94e 3b3d 5dbc af3d 1417 b33d
00000080: ecdb 4a3d 1b41 ad3d 809d 3fbd 2779 94bd
00000090: a790 2abd 0b5c 33bd f98a 1b3d 0843 99bd
000000a0: cc4a febc 7814 573d fc45 5f3d 4c4b a63d
000000b0: 06eb 84bd b1b7 a7bd 8628 b93b f0b7 2bbc
000000c0: 11db a5bd ef52 2fbd 1d3a 00bc 23a5 a53d
000000d0: 2215 59bb 2403 923d 0404 a73d c436 7fbd
000000e0: 9ddd 59bd c7d0 82bd bcca 873d 907b 713d
000000f0: 4dda 763c a9c8 aa3d 7ab6 6f3d fd17 6c3d
00000100: ac13 953d 7e4d 72bd ff06 11bd 29ab acbd
00000110: 6174 293d 5ba2 9dbc 14d7 b0bd 2a59 58bb
00000120: a524 393d e72d b139 e4ba aebd 727f 98bd
00000130: 7ade a63d b2f9 2abb 4579 8ebd 5092 54bd
00000140: a044 69bd 054b b23d 46a2 23bd 2bea 0abd
00000150: 0da9 90bd 2a39 e9bc 85ac 9e3c 2d3c 633c
00000160: 11c2 9dbd 90b7 86bd 0031 aabd 2ae5 45b8
00000170: b38d 1e3d cd19 8abd 6b38 0fbb 462b a43d
00000180: 671f 55bd efc0 ac3b a231 ad3d 6145 3d3d
00000190: b3d1 d93c efe6 3abd 1c86 ecbc c3ba 363c
000001a0: 2ae7 7cbd c5b5 74bd 21be 48bd 43e1 a53d
000001b0: f988 86bc 1cfe 4f3d e250 b43b e865 f8bc
000001c0: 299b 85bd a19a 9fbd b873 0d3d dba8 933d
000001d0: dd0e 903d 62ea 4cbd bf5a fe3c f2fe 54bd
000001e0: ee35 323d be33 f63c 55b3 1abd c088 d7bb
000001f0: 0b59 2bbd 4296 14bd b84f 3fbd da4c 6bbd
0.012037662 -0.044225667 0.0873736 0.06106867 -0.0030102776 0.07160679 0.013858309 0.08268792
-0.06380339 -0.021089977 0.082800716 -0.045730673 0.051336415 -0.009116449 -0.047778208 0.034058977
-0.07586321 -0.06624867 0.018849814 0.08531107 -0.0170808 -0.020548534 -0.03564315 -0.08742058
-0.082279176 -0.013894845 0.06787519 -0.058527093 0.06253973 0.045729313 0.08580849 0.08744636
0.04952614 0.084596835 -0.046781063 -0.072496705 -0.041641857 -0.04378895 0.03797433 -0.07483488
-0.031041525 0.052509755 0.0545101 0.081198305 -0.0649014 -0.08189333 0.0056505827 -0.010480866
-0.08098424 -0.0428037 -0.007826355 0.08088138 -0.0033124168 0.07129505 0.08155063 -0.062308088
-0.053189863 -0.06387477 0.066304654 0.05895573 0.015066695 0.08339054 0.058523633 0.057640065
0.07279143 -0.059155934 -0.035407063 -0.08431084 0.041370753 -0.019242456 -0.08634773 -0.003301213
0.045200963 0.0003379427 -0.0853174 -0.07446183 0.08147903 -0.0026088771 -0.06956724 -0.051897347
-0.05695021 0.08705715 -0.039949678 -0.033914726 -0.07063494 -0.02846964 0.019369373 0.0138693275
-0.07703031 -0.065779805 -0.08310127 -4.7181886e-05 0.038709354 -0.06743202 -0.0021853696 0.08016066
-0.0520319 0.005272023 0.08456732 0.046208743 0.02658925 -0.04563039 -0.028872542 0.011152926
-0.061743893 -0.05974366 -0.049009446 0.08099606 -0.016422736 0.050779447 0.005502806 -0.03032203
-0.06523735 -0.07793165 0.034534186 0.07209941 0.07034085 -0.050028212 0.03104913 -0.052000947
0.043508463 0.03005397 -0.03776868 -0.006577581 -0.041832965 -0.03627611 -0.046706885 -0.05744634
