models/resilience/linear/PPL/agent2.pth (torch, 40580 bytes, 5 tensors)

fc.weight f4 [128, 68]
-0.06246435 -0.04172783 -0.06452125 0.00410598 -0.0939 -0.08812618 0.005462222 -0.03512782
-0.0737524 -0.08693585 0.07991488 0.08184014 0.08762579 0.004066702 0.087769315 0.11292006
0.050891418 -0.10673272 0.096428566 -0.06260253 0.11974915 0.10417778 -0.0012794937 -0.03738733
-0.10836541 -0.017339274 0.024604045 0.07056577 -0.09536347 0.11603268 -0.061866857 0.07426182
-0.042176966 0.01405847 0.027672667 0.058065753 -0.08139873 0.03063073 0.020682182 0.022941228
0.10270123 -0.102636 0.0971767 -0.038089197 -0.02766173 -0.04076713 0.043262884 -0.022346197
0.0007720645 0.10484784 0.092359535 0.079677165 0.00988154 0.021673316 -0.046107426 -0.06484307
0.115551114 0.059326757 0.086889476 -0.095464304 0.099447906 0.05887143 0.053185742 0.020720532
-0.10044853 0.106228426 0.035653535 0.11043378 0.0062079923 -0.09733083 0.037419923 -0.047816567
0.10605708 -0.04488927 -0.06269717 -0.023881566 -0.026149072 0.10965375 -0.037558377 0.09912735
-0.05966091 -0.055112038 -0.003149323 -0.00953261 0.0469019 0.04861128 0.006528587 -0.11050541
0.067446195 -0.053323913 -0.097391956 0.108148284 0.09906018 -0.071194455 0.06845358 0.03206808
-0.07871061 -0.114066005 -0.044742666 -0.08672594 0.0031396965 -0.00951833 0.065029815 0.0105562
0.009340877 0.048618164 -0.07764567 -0.036800515 -9.835428e-05 0.10661622 -0.003870902 -0.043452073
0.11507588 -0.09253065 0.015672455 -0.043742698 0.05391927 0.076537214 -0.014487967 0.055324066
0.07337309 -0.09610434 0.11747267 -0.066802606 -0.07245913 0.083919644 0.0052785547 0.083008684
-0.08270535 0.05984724 0.075688876 -0.031870436 0.052009597 -0.07751656 0.020120483 -0.018243238
0.055793714 -0.055829514 0.07197119 -0.10230675 -0.008753823 0.08284432 -0.11142773 -0.0793166
0.009680309 0.110222444 0.100059524 -0.1101985 0.02702489 0.06871894 -0.054986645 -0.080012135
-0.07700964 -0.07459156 0.08835745 0.029431203 0.018162716 -0.06790341 -0.045202363 0.08979931
-0.09023273 -0.027705677 -0.098941505 -0.08410377 -0.039791927 -0.022426521 0.040092353 0.003707891
0.057314064 0.00972476 -0.08640058 -0.042919826 0.085815705 0.079252094 -0.037970856 -0.10848129
-0.1196973 -0.01909354 0.033296444 -0.01733631 -0.110356376 -0.005716666 -0.088118315 -0.054466132
0.008933256 -0.10990787 -0.045072418 0.08930581 -0.10991462 0.08622913 -0.11404847 -0.006398828
0.07694213 0.02961425 -0.08219031 -0.077429004 0.08342658 0.06989157 0.049227145 0.08758848
-0.06623411 0.020054722 -0.046023406 0.0021929264 0.10936344 0.016676743 -0.07803703 0.03167722
-0.10267311 -0.007292874 -0.058985617 0.07993248 -0.084596254 0.07217335 -0.055829126 0.058095243
-0.073105834 0.04924176 -0.06305492 0.059798043 -0.07704756 -0.021961574 0.0030243052 0.06314708
-0.04686751 -0.11141588 -0.00040889502 0.014357048 0.091626935 0.03134203 0.05324961 0.0787646
0.037389427 0.09762919 0.041202925 0.037080593 -0.0152666215 0.04317294 -0.059268136 -0.049311813
0.007029872 -0.0021713923 -0.021022378 -0.003463093 0.12013015 0.04468462 0.031871673 -0.018650008
0.10392457 -0.05290587 -0.07814056 0.099040255 0.047109455 0.11501275 0.051917292 -0.016364865
00000000: 9eda 7fbd cdea 2abd b823 84bd 758b 863b
00000010: a54e c0bd 807b b4bd 70fc b23b 30e2 0fbd
00000020: 800b 97bd 6c0b b2bd 6aaa a33d ce9b a73d
00000030: 2675 b33d f841 853b 66c0 b33d a242 e73d
00000040: 8573 503d af96 dabd 577c c53d c135 80bd
00000050: 0b3f f53d 295b d53d afb4 a7ba 7523 19bd
00000060: afee ddbd 180b 8ebc 6c8e c93c c984 903d
00000070: ec4d c3bd 8ba2 ed3d 1a68 7dbd 9516 983d
00000080: c1c1 2cbd 7f55 663c cab1 e23c 5bd6 6d3d
00000090: 61b4 a6bd 4ced fa3c ae6d a93c 3eef bb3c
000000a0: 0655 d23d d332 d2bd 9404 c73d 6b03 1cbd
000000b0: da9a e2bc 6ffb 26bd 6c34 313d 5f0f b7bc
000000c0: 5f64 4a3a 77ba d63d ff26 bd3d c82d a33d
000000d0: 2fe6 213c 3d8c b13c 24db 3cbd 72cc 84bd
000000e0: 10a6 ec3d 9d00 733d 1cf3 b13d ca82 c3bd
000000f0: 58ab cb3d 2b23 713d 4bd9 593d 1bbe a93c
00000100: f5b7 cdbd 4a8e d93d 7109 123d 1b2b e23d
00000110: 6a6c cb3b 6355 c7bd a245 193d 4edb 43bd
00000120: 7434 d93d d0dd 37bd 6067 80bd 46a3 c3bc
00000130: 9436 d6bc 2592 e03d d0d6 19bd 4803 cb3d
00000140: 005f 74bd 29bd 61bd df64 4ebb aa2e 1cbc
00000150: 351c 403d 9f1c 473d c2ed d53b a950 e2bd
00000160: 3b21 8a3d 2d6a 5abd 6f75 c7bd d97c dd3d
00000170: 10e0 ca3d 66ce 91bd 6431 8c3d d259 033d
00000180: 0733 a1bd 709b e9bd 1644 37bd 5f9d b1bd
00000190: 5ec3 4d3b c5f2 1bbc 5a2e 853d e9f3 2c3c
000001a0: 7a0a 193c d723 473d b104 9fbd 23bc 16bd
000001b0: 8d43 ceb8 9b59 da3d f5ae 7dbb cdfa 31bd
000001c0: e7ac eb3d b680 bdbd 8563 803c 8b2b 33bd
000001d0: 74da 5c3d 8bbf 9c3d f05e 6dbc 7d9b 623d
000001e0: a144 963d 5ad2 c4bd 8395 f03d cecf 88bd
000001f0: 7465 94bd 10de ab3d baf7 ac3b 7500 aa3d
00000200: 6c61 a9bd 6122 753d c502 9b3d 938a 02bd
00000210: 0408 553d 01c1 9ebd b6d3 a43c d872 95bc
00000220: f387 643d 7dad 64bd a265 933d 3486 d1bd
00000230: 326c 0fbc 48aa a93d 3934 e4bd be70 a2bd
00000240: 299a 1e3c 4ebc e13d 02ec cc3d c0af e1bd
00000250: 4d63 dd3c 84bc 8c3d ad39 61bd 67dd a3bd
00000260: 3bb7 9dbd 76c3 98bd c0f4 b43d b519 f13c
00000270: fac9 943c f110 8bbd 1d26 39bd b3e8 b73d
00000280: f0cb b8bd 04f7 e2bc d8a1 cabd 993e acbd
00000290: dcfc 22bd d3b7 b7bc e137 243d 1700 733b
000002a0: 27c2 6a3d 9a54 1f3c caf2 b0bd b3cc 2fbd
000002b0: 25c0 af3d ec4e a23d 5487 1bbd 702b debd
000002c0: dc23 f5bd 0e6a 9cbc da61 083d e104 8ebc
000002d0: 8602 e2bd df52 bbbb 6077 b4bd e117 5fbd
000002e0: cb5c 123c 6117 e1bd db9d 38bd f7e5 b63d
000002f0: eb1a e1bd e698 b03d 3f92 e9bd 42ad d1bb
00000300: d693 9d3d 9599 f23c 6553 a8bd 1993 9ebd
00000310: 8edb aa3d 5023 8f3d 67a2 493d 9761 b33d
00000320: c0a5 87bd cd49 a43c 0a83 3cbd 33b7 0f3b
00000330: f0f9 df3d aa9d 883c e1d1 9fbd f9bf 013d
00000340: 4846 d2bd 10f9 eebb e79a 71bd a4b3 a33d
00000350: cd40 adbd 9fcf 933d 15ad 64bd 47f5 6d3d
00000360: 83b8 95bd bab1 493d f022 81bd cbee 743d
00000370: 1ccb 9dbd c2e8 b3bc 6c33 463b 4253 813d
00000380: 25f8 3fbd 022e e4bd f660 d6b9 d339 6b3c
00000390: e7a6 bb3d 8060 003d 431c 5a3d 564f a13d
000003a0: a825 193d d0f1 c73d 66c4 283d d2e1 173d
000003b0: da20 7abc 1cd6 303d 25c3 72bd 2ffb 49bd
000003c0: d75a e63b eb4d 0ebb 1f37 acbc 0ff5 62bb
000003d0: cc06 f63d 3807 373d df8b 023d e7c7 98bc
000003e0: 68d6 d43d d3b3 58bd 2808 a0bd 9ed5 ca3d
000003f0: d8f5 403d ce8b eb3d 3aa7 543d 9c0f 86bc

fc.bias f4 [128]
-0.077261865 0.05218208 -0.06826648 -0.107751966 -0.09785092 0.017034756 0.08335738 0.112723686
0.026268061 -0.0885557 0.034681775 0.011813445 -0.02366564 0.102356166 0.07542713 0.07686478
0.080649935 0.02472025 -0.017339105 -0.023706576 0.113097966 -0.011248597 0.07539552 -0.09184722
0.10504536 -0.012801106 -0.05350895 -0.041306183 0.028251322 -0.064983115 -0.08235562 -0.1119838
-0.05119898 -0.072728515 -0.095078304 0.10899222 0.08370107 -0.068905905 -0.0863931 0.033210266
0.08240732 -0.072361425 -0.011666912 0.04096192 0.10699432 0.07132442 0.0036455735 -0.11555071
-0.023794202 0.005546916 0.050274033 0.0059575033 -0.07138259 -0.074068785 -0.11171341 -0.07680862
0.094383895 -0.09498465 0.0067210463 -0.0912992 -0.114021115 0.055435523 0.021337211 -0.055045553
-0.09520791 0.06700842 -0.1077563 -0.04591905 -0.11899002 -0.08811928 -0.03243823 0.10364416
-0.024565248 -0.041698504 0.07090508 -0.05745661 0.07099075 -0.09359403 0.030485542 -0.10859873
0.1203642 -0.09220217 -0.08303046 0.07671607 0.051192574 -0.104141764 0.09137882 0.057746246
-0.037101246 0.050504833 0.06602321 0.031702496 -0.025607482 0.018002087 0.09069371 -0.08792402
0.025140187 -0.10224779 0.074592546 0.09392908 0.07390511 0.054177098 -0.013489232 0.018588085
0.011303852 -0.045107532 0.117232956 -0.017278047 -0.08137829 -0.0012098398 -0.10269389 0.060381114
-0.052907962 -0.0644077 0.034602594 -0.06252466 -0.07922535 -0.03561644 -0.061458968 -0.0944215
-0.0028687266 -0.012165657 -0.09721105 0.050895818 -0.06774016 0.098175734 0.06011847 -0.01169984
00000000: 783b 9ebd e0bc 553d 4ccf 8bbd 10ad dcbd
00000010: 1066 c8bd 798c 8b3c 46b7 aa3d addb e63d
00000020: 1e30 d73c b15c b5bd 7a0e 0e3d 2e8d 413c
00000030: 72de c1bc 1ca0 d13d 8a79 9a3d 486b 9d3d
00000040: cb2b a53d 1f82 ca3c bd0a 8ebc 4b34 c2bc
00000050: e89f e73d 094c 38bc f768 9a3d 651a bcbd
00000060: 0622 d73d bbbb 51bc 332c 5bbd ac30 29bd
00000070: 516f e73c de15 85bd 10aa a8bd c357 e5bd
00000080: 06b6 51bd b0f2 94bd 6ab8 c2bd 5037 df3d
00000090: 776b ab3d 8a1e 8dbd deee b0bd 7d07 083d
000000a0: 2bc5 a83d 3a32 94bd 9326 3fbc b0c7 273d
000000b0: d71f db3d 8a12 923d 93ea 6e3b daa5 ecbd
000000c0: 0fec c2bc e7c2 b53b 25ec 4d3d 2937 c33b
000000d0: 0931 92bd 60b1 97bd 00ca e4bd d64d 9dbd
000000e0: 584c c13d 5087 c2bd 393c dc3b 13fb babd
000000f0: e783 e9bd 5c10 633d 60cb ae3c 7277 61bd
00000100: 5dfc c2bd b63b 893d 56af dcbd 9d15 3cbd
00000110: 0ab1 f3bd e277 b4bd f3dd 04bd 6443 d43d
00000120: 0f3d c9bc 0dcc 2abd af36 913d 9f57 6bbd
00000130: 9963 913d 3aae bfbd d1bc f93c 0369 debd
00000140: 8181 f63d 7ed4 bcbd e00b aabd 511d 9d3d
00000150: 4eaf 513d 4748 d5bd d224 bb3d 5487 6c3d
00000160: 7af7 17bd 28de 4e3d 2d37 873d 7ada 013d
00000170: c8c6 d1bc 1d79 933c a0bd b93d 8211 b4bd
00000180: cbf2 cd3c 4a67 d1bd fac3 983d e45d c03d
00000190: 905b 973d cee8 5d3d f101 5dbc 0a46 983c
000001a0: cb33 393c adc2 38bd d517 f03d b18a 8dbc
000001b0: a9a9 a6bd 7d93 9eba 2d51 d2bd 3052 773d
000001c0: 05b6 58bd 2fe8 83bd 73bb 0d3d ee0c 80bd
000001d0: e640 a2bd 8be2 11bd 66bc 7bbd 0f60 c1bd
000001e0: 3f01 3cbb 7752 47bc 9616 c7bd 2278 503d
000001f0: 5abb 8abd 5c10 c93d c93e 763d b0b0 3fbc

actor.weight f4 [4, 128]
0.029751055 -0.08212318 -0.07823958 -0.049671672 -0.0105843805 -0.07515399 0.0075109494 0.06775689
-0.06685788 -0.06967259 -0.08728759 -0.06728481 0.022941398 -0.0881079 0.0028019554 -0.08396361
-0.06037879 0.0033610894 -0.0054319166 -0.051175315 -0.008854265 -0.01185488 -0.04917138 0.083709136
0.067879125 -0.08397589 -0.002695611 0.054106854 0.08063607 -0.02241263 0.07939716 0.054393575
-0.0019524108 -0.06883487 0.078334965 0.03598129 0.05086607 -0.05775401 0.08820571 -0.055299636
-0.06043216 0.024798464 -0.030486666 0.020590734 0.037282515 0.07303699 -0.036475245 -0.04230835
0.032143183 0.001475888 0.06993819 0.04146175 -0.08391173 0.05273479 0.0019725978 0.052374575
0.074826814 0.06758278 -0.01381036 -0.060813423 -0.010062758 -0.013118444 0.040694386 -0.055881485
-0.080013365 0.04646547 0.048617776 0.023943372 0.019386396 -0.047470365 0.07795754 -0.016416946
0.05116886 0.08689532 -0.04687054 -0.08676374 0.009383891 0.045880392 -0.054222595 0.016534468
-0.08452711 0.040209353 -0.030554872 0.017470723 -0.022251593 -0.051297516 -0.03955055 0.032034017
-0.07895248 -0.027312778 -0.05264373 0.06951795 -0.046366222 0.029535387 -0.07269155 0.0055296835
0.041755956 -0.06354809 -0.01461631 0.04520075 0.03244075 -0.03295434 0.066629924 0.085077934
0.044947293 0.038018808 0.05339252 0.05006855 -0.019693518 -0.0057397126 -0.013819883 -0.086527474
0.0068251416 0.048482124 0.045273874 0.04020931 0.037882805 -0.024709586 0.037337754 0.037872642
-0.014999196 0.0056887954 0.015015569 0.026605446 0.042705067 -0.07111299 0.03432049 -0.07507951
-0.04321569 0.02597182 0.08002513 -0.0645096 -0.007954749 -0.008645767 -0.011214534 0.07456534
-0.06274298 -0.008051859 0.08459593 -0.08634967 0.022436196 0.03861766 -0.05057426 0.005588595
0.0714227 0.0034146323 0.032096658 -0.052717112 -0.0052046753 -0.026555233 -0.022051282 -0.0050018528
-0.034411382 0.07937537 0.031000635 -0.06896265 0.018098587 -0.08319934 -0.076725975 -0.009437885
-0.046756234 0.012818694 0.023306537 -0.026755387 0.07747423 -0.030234862 0.0038317586 0.053398184
0.04878444 0.07535405 -0.038496837 -0.0064822445 0.04026555 0.043110482 0.07848843 -0.002864875
-0.028213691 0.06924607 -0.0639383 0.056432758 0.058412477 0.056798447 0.019522078 0.066880345
0.04327282 0.02727201 0.021351868 -0.07403783 -0.035945546 0.057667337 0.016531084 0.0686315
-0.07974438 -0.0080840625 0.076673776 -0.0849931 0.014873089 -0.059800837 0.0045565777 0.038588554
0.08134568 0.032079916 0.08824453 -0.042499423 0.00018464735 -0.051838536 0.054714784 0.06895118
0.06693486 -0.072907686 -0.042754017 -0.076089166 -0.03203228 0.035963137 0.050642684 -0.02316591
0.008094787 0.0016592867 0.061214574 -0.06632136 0.008546831 -0.037831165 -0.023258755 -0.025724972
0.068862736 -0.044902034 0.006589175 0.01714277 0.016673705 -0.007157514 0.015098806 0.043011364
0.07358881 0.0878711 0.034242082 -0.06510356 -0.052168306 0.045419548 0.0794001 -0.018133802
0.075205095 -0.034289923 -0.040869806 -0.05723605 0.021599323 -0.059946112 0.05280758 -0.003762492
0.07971702 0.023054326 0.085606396 0.029395424 -0.07086948 0.0294849 0.025090536 -0.053943276
00000000: 7cb8 f33c 3330 a8bd 133c a0bd 8674 4bbd
00000010: 1c6a 2dbc 56ea 99bd 691e f63b 20c4 8a3d
00000020: c9ec 88bd 81b0 8ebd d6c3 b2bd 9ecc 89bd
00000030: 99ef bb3c ea71 b4bd 03a1 373b 1df5 abbd
00000040: c04f 77bd b945 5c3b 38fe b1bb 359d 51bd
00000050: 7b11 11bc f83a 42bc ee67 49bd b26f ab3d
00000060: 3604 8b3d 8dfb abbd d9a8 30bb 269f 5d3d
00000070: 8624 a53d b19a b7bc fa9a a23d cccb 5e3d
00000080: 09e8 ffba 4cf9 8cbd 156e a03d 1e61 133d
00000090: f158 503d 788f 6cbd 32a5 b43d df81 62bd
000000a0: b687 77bd 2626 cb3c 2cbf f9bc e6ad a83c
000000b0: 8db5 183d 6b94 953d 1167 15bd 854b 2dbd
000000c0: 92a8 033d 9572 c13a c13b 8f3d ccd3 293d
000000d0: ead9 abbd 6f00 583d b346 013b b986 563d
000000e0: cd3e 993d d768 8a3d d944 62bc 7f17 79bd
000000f0: 44de 24bc beee 56bc 28af 263d fce3 64bd
00000100: 0cde a3bd 9452 3e3d 6f23 473d e424 c43c
00000110: 38d0 9e3c 4970 42bd 34a8 9f3d d57c 86bc
00000120: 7096 513d 2cf6 b13d 53fb 3fbd 30b1 b1bd
00000130: e4be 193c 14ed 3b3d 8318 5ebd 4b73 873c
00000140: 8d1c adbd 90b2 243d 364e fabc c31e 8f3c
00000150: f948 b6bc 581d 52bd c2ff 21bd 1a36 033d
00000160: d6b1 a1bd 0cbf dfbc f4a0 57bd 6d5f 8e3d
00000170: 82ea 3dbd 32f4 f13c 4fdf 94bd 5932 b53b
00000180: 4b08 2b3d 8025 82bd 3f79 6fbc 6c24 393d
00000190: 98e0 043d 21fb 06bd 4575 883d 573d ae3d
000001a0: a71a 383d 9cb9 1b3d 1db2 5a3d ae14 4d3d
000001b0: 4d54 a1bc 3314 bcbb ca6c 62bc 5135 b1bd
000001c0: 70a5 df3b 3195 463d 1971 393d 84b2 243d
000001d0: 002b 1b3d c26b cabc 79ef 183d 5820 1b3d
000001e0: 30bf 75bc 1369 ba3b dc03 763c aaf3 d93c
000001f0: 82eb 2e3d b0a3 91bd a493 0c3d 49c3 99bd
00000200: ef02 31bd dbc2 d43c 37e4 a33d 9c1d 84bd
00000210: a354 02bc faa6 0dbc 2abd 37bc b7b5 983d
00000220: 647f 80bd f2eb 03bc a240 ad3d 19d8 b0bd
00000230: 1dcc b73c 8d2d 1e3d f526 4fbd 8820 b73b
00000240: 1146 923d 06c8 5f3b c977 033d e6ed 57bd
00000250: fb8b aabb 5c8a d9bc e4a4 b4bc 95e6 a3bb
00000260: f3f2 0cbd 8e8f a23d 0bf5 fd3c 4a3c 8dbd
00000270: 7d43 943c 6a64 aabd 8222 9dbd 5ca1 1abc
00000280: 7783 3fbd 8005 523c 5aed be3c 1d2e dbbc
00000290: cfaa 9e3d 1aaf f7bc 3e1e 7b3b 0eb8 5a3d
000002a0: 31d2 473d 3953 9a3d dcae 1dbd 0269 d4bb
000002b0: 7ded 243d 9e94 303d 8bbe a03d a0c0 3bbb
000002c0: 6620 e7bc e2d0 8d3d 15f2 82bd 0926 673d
000002d0: ec41 6f3d 7da5 683d c4ec 9f3c 90f8 883d
000002e0: d73e 313d 8d69 df3c 1dea ae3c 25a1 97bd
000002f0: a33b 13bd 9634 6c3d 326c 873c ac8e 8c3d
00000300: 0651 a3bd 0473 04bc 2407 9d3d dd10 aebd
00000310: 42ae 733c b9f1 74bd 584f 953b 080f 1e3d
00000320: 9098 a63d 3b66 033d 8cb9 b43d e013 2ebd
00000330: e59d 4139 a554 54bd 9c1c 603d 4736 8d3d
00000340: 2515 893d a050 95bd d61e 2fbd a3d4 9bbd
00000350: 4834 03bd 154e 133d b46e 4f3d 6fc6 bdbc
00000360: ff9f 043c 6c7c d93a 22bc 7a3d 7ed3 87bd
00000370: 0208 0c3c daf4 1abd 2589 bebc 2dbd d2bc
00000380: e807 8d3d 32eb 37bd 02ea d73b ff6e 8c3c
00000390: 4b97 883c 9489 eabb fb60 773c af2c 303d
000003a0: bbb5 963d c3f5 b33d 6d41 0c3d 0455 85bd
000003b0: 6fae 55bd d909 3a3d 859c a23d 578d 94bc
000003c0: 2105 9a3d 9773 0cbd 1967 27bd 5970 6abd
000003d0: 10f1 b03c 0e8a 75bd c34c 583d 2494 76bb
000003e0: ad42 a33d 6ddc bc3c 6852 af3d acce f03c
000003f0: 0524 91bd 518a f13c ab8a cd3c a0f3 5cbd

actor.bias f4 [4]
-0.027376642 -0.009237761 -0.053407755 -0.051613078
00000000: fb44 e0bc fa59 17bc 17c2 5abd 3c68 53bd

critic.weight f4 [1, 128]
0.027458891 -0.012467735 -0.055265836 -0.080821574 -0.07214156 -0.06756961 0.086405836 0.014206953
0.010806154 0.019758092 -0.008640205 0.05378934 -0.019596111 0.083376765 -0.05941016 -0.037255235
0.04435179 -0.053066798 0.014768808 0.014760188 0.0047484445 0.08587245 0.07936516 0.06327931
0.030429795 -0.031856667 -0.03600012 0.017427057 0.032322973 -0.027867831 -0.010039378 0.0076015056
-0.031238312 -0.012105955 0.06707367 0.045066692 0.018840635 0.088145666 0.019015897 0.08321916
-0.06281095 0.07461019 0.0098672155 0.01629902 -0.047703598 -0.039712396 -0.011870499 -0.08443092
0.071952105 -0.029440897 -0.0003106794 -0.011209719 0.033653606 -0.0032432429 -0.08103156 0.035380144
-0.05315052 -0.01083785 -0.056160066 -0.077652454 0.043155797 0.010176088 -0.05703408 0.0453085
0.08638041 -0.008870711 0.08780088 0.08335277 0.011778006 0.003687843 0.0067580375 0.03167411
0.07722605 -0.017881507 -0.07054709 0.054732263 0.011909677 -0.052407604 -0.018859489 0.026682436
-0.049535725 -0.0021035236 0.022294214 -0.066315256 0.011260329 0.061161425 0.040624335 -0.038758334
-0.051429614 0.07139046 0.025996918 0.014662912 0.028177166 0.04735072 0.020013347 -0.013958832
0.024481323 0.031495452 -0.07583604 0.058287922 0.057433054 -0.013424748 -0.043732166 -0.072072685
-0.07157841 -0.0028497519 0.072209105 0.012033476 0.03269483 -0.02614128 -0.05400289 0.059653
0.06813998 0.02372636 -0.0070152245 -0.03468052 -0.023694074 -0.073788635 -0.06721575 0.07730281
-0.08455887 -0.017502842 0.037708856 -0.04981112 0.061036967 0.00037065105 -0.03827043 -0.004295752
00000000: 78f1 e03c 7945 4cbc 6e5e 62bd c885 a5bd
00000010: f4be 93bd f061 8abd 8bf5 b03d 48c4 683c
00000020: 4c0c 313c b9db a13c a58f 0dbc 3652 5c3d
00000030: 0688 a0bc 70c1 aa3d 1158 73bd f298 18bd
00000040: 39aa 353d 925c 59bd dff8 713c b7d4 713c
00000050: d798 9b3b e5dd af3d 338a a23d 9598 813d
00000060: e847 f93c 237c 02bd dd74 13bd 30c3 8e3c
00000070: 1865 043d 144b e4bc 347c 24bc 0d16 f93b
00000080: 7de7 ffbc 0e58 46bc ec5d 893d da97 383d
00000090: ad57 9a3c b785 b43d 3ac7 9b3c cf6e aa3d
000000a0: 07a3 80bd 3acd 983d 1aaa 213c 8685 853c
000000b0: d964 43bd 77a9 22bd 7b7c 42bc 1eea acbd
000000c0: a05b 933d 092e f1bc afe2 a2b9 f8a8 37bc
000000d0: 5dd8 093d 968c 54bb e0f3 a5bd c5ea 103d
000000e0: 5cb4 59bd 3d91 31bc 1908 66bd 4008 9fbd
000000f0: 22c4 303d 9bb9 263c 919c 69bd 6895 393d
00000100: 36e8 b03d 7556 11bc f3d0 b33d dbb4 aa3d
00000110: 8af8 403c bdaf 713b 8772 dd3b b6bc 013d
00000120: b128 9e3d 3d7c 92bc fe7a 90bd f02e 603d
00000130: ce20 433c 5ba9 56bd 377f 9abc 2095 da3c
00000140: f9e5 4abd 45db 09bb 5ba2 b63c 4bd0 87bd
00000150: 3e7d 383c 6784 7a3d b465 263d 0fc1 1ebd
00000160: dca7 52bd 2935 923d 7df7 d43c b63c 703c
00000170: cdd3 e63c d4f2 413d 08f3 a33c 96b3 64bc
00000180: 0e8d c83c 6001 013d ed4f 9bbd 51bf 6e3d
00000190: ec3e 6b3d 79f3 5bbc 8020 33bd d89a 93bd
000001a0: b497 92bd e7c2 3abb 5ee2 933d 0e28 453c
000001b0: 04eb 053d 3d26 d6bc 2232 5dbd b456 743d
000001c0: f98c 8b3d c95d c23c f8df e5bb 290d 0ebd
000001d0: 131a c2bc 7f1e 97bd 69a8 89bd f050 9e3d
000001e0: 332d adbd 1f62 8fbc 9a74 1a3d bf06 4cbd
000001f0: e601 7a3d f153 c239 74c1 1cbd 61c3 8cbb
