data/learning/resilience/nn/dummy_irl_model_nn.pth (torch, 20491 bytes, 3 tensors)

0.weight f4 [64, 68]
0.013466611 -0.005935125 0.091118924 0.049131054 0.11484988 -0.114493884 0.00797762 0.0819024
-0.0003483966 0.029656902 -0.04752657 0.1001775 0.019018874 -0.0941394 0.030639216 -0.083376154
0.0756405 -0.048652463 0.117285416 0.074886516 -0.1136411 -0.013796106 0.085895404 0.05395943
0.086323835 0.10351725 0.05166009 0.010764644 0.057481736 0.08445 0.05659021 -0.1387349
-0.107841775 -0.08162714 0.009001862 0.03653176 0.013553187 -0.034581155 -0.041555665 0.04025348
-0.07341267 -0.02984005 0.05057939 0.028261408 -0.05853165 -0.046538047 0.0085463375 -0.08979505
-0.09666929 -0.06645995 0.109651476 -0.09969501 -0.06590542 -0.05894955 -0.03214878 -0.018929027
-0.011032999 0.0627754 0.048148245 0.112439156 0.098796904 -0.045503706 0.024094895 0.022060484
0.02838923 0.018103778 -0.047713548 -0.028607734 0.050723292 0.058819227 -0.0039049657 -0.008683991
-0.029245295 0.07417025 0.06865962 0.08639076 0.09142625 -0.04525678 0.0009656623 -0.0946297
0.10383381 0.0759891 -0.028888837 0.011560127 0.114157185 0.07257515 0.08301042 -0.11789614
0.104919806 0.0666735 0.09309296 0.04444296 0.0756978 0.08322245 0.02445428 0.10079233
-0.016461782 -0.08253754 0.02668067 0.017783297 -0.124335654 -0.0037078934 0.0058302865 -0.046024792
0.053981617 0.11213282 -0.03622305 -0.08928827 -0.05706477 -0.10768814 -0.09373396 0.050081104
-0.11359644 -0.03999418 0.08064358 -0.112799816 -0.09090926 -0.026810288 -0.045264572 0.051938474
-0.08348365 0.035217464 -0.06800033 0.029924572 0.037936687 -0.055341646 -0.10238717 0.023865268
0.08360566 0.09986569 0.07264158 -0.06465857 -0.045587204 0.10909669 -0.08973883 0.002515316
-0.11337043 -0.045739803 0.041840877 0.10877879 0.10558237 -0.040906675 0.004476562 -0.11164994
-0.08137603 0.091276556 -0.06923945 -0.119330384 -0.08451325 -0.023558341 -0.07460341 0.06403512
-0.1078382 0.07850672 0.105100945 0.036862165 -0.057767205 0.041499913 -0.034708895 0.05961956
0.08299511 0.026805133 0.10806812 -0.014750101 -0.053273693 0.07288986 0.10547223 0.045942854
-0.10666402 0.10727265 0.107793085 0.009435996 0.10050772 -0.03888794 -0.0880871 0.11218974
-0.09383654 -0.038981933 -0.02176849 -0.038208805 -0.11420748 -0.040080875 -0.03273774 0.093384326
-0.024498902 -0.09677161 -0.10181724 0.1122566 -0.10034318 -0.026640974 -0.006487012 -0.01735863
0.0504217 0.05603364 0.07559456 -0.06096874 -0.06672442 0.080573305 -0.10136359 -0.055828534
0.117602766 -0.008862041 0.018388882 -0.024344191 0.087405846 -0.06406613 -0.12042576 0.03470511
0.11297071 -0.0046334267 0.05801633 -0.012093566 -0.031875946 -0.03192327 0.06161359 -0.11535875
0.10872395 0.03240943 -0.119326204 -0.089362144 -0.0941986 -0.11549398 -0.09824597 -0.029842615
-0.054132104 0.009243056 0.08182551 0.050662745 -0.048946586 -0.008694217 -0.09489393 0.05348797
-0.0015242398 -0.0013157123 0.08340389 0.039922707 0.021518052 -0.06355764 -0.093246795 -0.029759489
-0.062037304 -0.031413782 -0.033030987 0.0902295 0.013538327 -0.05436158 0.06405867 0.08137581
0.02761583 0.08179587 -0.07162358 0.09989494 -0.08856789 0.12074423 -0.0060606524 -0.07431126
00000000: 0fa3 5c3c 707b c2bb 8f9c ba3d a53d 493d
00000010: 6a36 eb3d c57b eabd 90b4 023c 72bc a73d
00000020: 00a9 b6b9 08f3 f23c 38ab 42bd dc29 cd3d
00000030: 78cd 9b3c 28cc c0bd 18ff fa3c 1ec1 aabd
00000040: 68e9 9a3d ce47 47bd 5633 f03d 1a5e 993d
00000050: aabc e8bd 1009 62bc eee9 af3d 9004 5d3d
00000060: 8dca b03d da00 d43d 8899 533d 305e 303c
00000070: f871 6b3d 1ff4 ac3d 23cb 673d 8610 0ebe
00000080: 26dc dcbd 212c a7bd 8c7c 133c 54a2 153d
00000090: 300e 5e3c f8a4 0dbd 4636 2abd d5e0 243d
000000a0: 6259 96bd 1f73 f4bc 562c 4f3d 7884 e73c
000000b0: e2be 6fbd ae9e 3ebd f005 0c3c 78e6 b7bd
000000c0: 8cfa c5bd 271c 88bd f490 e03d e62c ccbd
000000d0: 6cf9 86bd 1575 71bd 70ae 03bd 0c11 9bbc
000000e0: c0c3 34bc 6490 803d 1837 453d 8046 e63d
000000f0: 0856 ca3d 1862 3abd a862 c53c 30b8 b43c
00000100: 8890 e83c 604e 943c 486f 43bd c45a eabc
00000110: 3ac3 4f3d 6eec 703d 74ea 7fbb 4c47 0ebc
00000120: d493 efbc 92e6 973d 6a9d 8c3d a4ed b03d
00000130: b03d bb3d 2c5f 39bd 8024 7d3a 37cd c1bd
00000140: d2a6 d43d 2ca0 9b3d 48a8 ecbc b066 3d3c
00000150: 3ecb e93d 48a2 943d 5e01 aa3d 8873 f1bd
00000160: 32e0 d63d 1e8c 883d 86a7 be3d d209 363d
00000170: 7307 9b3d 8870 aa3d 5854 c83c 366c ce3d
00000180: dcda 86bc 7109 a9bd 6c91 da3c 47ae 913c
00000190: b1a3 febd 2100 73bb fd0b bf3b 7e84 3cbd
000001a0: d41b 5d3d e4a5 e53d 9f5e 14bd c5dc b6bd
000001b0: c0bc 69bd 998b dcbd 97f7 bfbd d821 4d3d
000001c0: 40a5 e8bd f0d0 23bd 7628 a53d 9703 e7bd
000001d0: a22e babd 40a1 dbbc 5867 39bd 70bd 543d
000001e0: 7af9 aabd 3040 103d c243 8bbd 6024 f53c
000001f0: 8063 1b3d ecad 62bd 5db0 d1bd 1881 c33c
00000200: 7239 ab3d 6286 cc3d 1cc5 943d b66b 84bd
00000210: a6b9 3abd 166e df3d fec8 b7bd 00d8 243b
00000220: c22e e8bd a959 3bbd 5761 2b3d 6ac7 de3d
00000230: 923b d83d c28d 27bd 20b0 923b b9a8 e4bd
00000240: 7aa8 a6bd 34ef ba3d 6acd 8dbd 7d63 f4bd
00000250: 4815 adbd 6cfd c0bc acc9 98bd d824 833d
00000260: 46da dcbd 22c8 a03d 2a3f d73d c8fc 163d
00000270: 4e9d 6cbd d0fb 293d ea2a 0ebd a433 743d
00000280: 57f9 a93d 7096 db3c d252 dd3d 68aa 71bc
00000290: 8435 5abd 4747 953d d301 d83d 932e 3c3d
000002a0: aa72 dabd c3b1 db3d 9fc2 dc3d 7099 1a3c
000002b0: fed6 cd3d f648 1fbd 0267 b4bd bcc3 e53d
000002c0: 5f2d c0bd 85ab 1fbd d553 b2bc d680 1cbd
000002d0: 9ce5 e9bd d82b 24bd 0218 06bd 4840 bf3d
000002e0: ecb1 c8bc 3230 c6bd 8f85 d0bd cae6 e53d
000002f0: ba80 cdbd 2c3e dabc 0091 d4bb b033 8ebc
00000300: fc86 4e3d 8883 653d 52d1 9a3d 5cba 79bd
00000310: d0a6 88bd 9e03 a53d b797 cfbd 76ac 64bd
00000320: b8d9 f03d 1832 11bc 48a4 963c 786d c7bc
00000330: d601 b33d 1a35 83bd c8a1 f6bd f226 0e3d
00000340: 305d e73d 00d4 97bb 88a2 6d3d 1824 46bc
00000350: 5a90 02bd fac1 02bd 885e 7c3d 3541 ecbd
00000360: aaaa de3d c0bf 043d 4c61 f4bd 8003 b7bd
00000370: 32eb c0bd 1c88 ecbd 2f35 c9bd 8078 f4bc
00000380: a0b9 5dbd 3070 173c 2294 a73d bd83 4f3d
00000390: 377c 48bd 3072 0ebc c057 c2bd 3416 5b3d
000003a0: 00c9 c7ba fb73 acba a9cf aa3d fe85 233d
000003b0: a046 b03c 822a 82bd 2df8 bebd 2cca f3bc
000003c0: d41a 7ebd bdab 00bd 804b 07bd 3eca b83d
000003d0: dccf 5d3c 40aa 5ebd 3131 833d 5ca8 a63d
000003e0: 983a e23c 9884 a73d 62af 92bd b895 cc3d
000003f0: 1563 b5bd c048 f73d 7098 c6bb 8030 98bd

0.bias f4 [64]
-0.09312961 0.080691464 0.06485675 0.0006732055 -0.06978677 -0.0011230458 -0.05001826 -0.03350965
-0.013020875 0.079820655 0.03217772 -0.028136367 0.008330072 0.07851414 0.038861386 -0.070312455
-0.09468976 -0.027264385 0.003259133 0.06967816 -0.083323956 -0.11522613 -0.034282617 -0.080517694
0.07498029 0.009440264 -0.058963515 -0.12175134 -0.03115979 -0.062381446 -0.104636684 -0.09711801
0.08316804 -0.01981871 0.014837148 -0.065318696 0.027200865 -0.044720847 -0.09800038 0.001066566
-0.089536585 0.10740071 -0.13261588 -0.020944048 -0.11832721 -0.0732224 -0.09741903 0.02633588
-0.1399147 0.010279745 -0.10266541 -0.027906654 0.025048364 0.061069664 -0.051284533 0.091709785
-0.09800845 0.02817298 -0.023043768 -0.04856062 -0.04873861 0.07580167 0.057121035 -0.12704334
00000000: bdba bebd 9141 a53d 9ed3 843d 0e7a 303a
00000010: 5eec 8ebd 2a33 93ba f2df 4cbd 6a41 09bd
00000020: 8255 55bc 0379 a33d c9cc 033d 3d7e e6bc
00000030: db7a 083c 05cc a03d 1e2d 1f3d faff 8fbd
00000040: b4ec c1bd 8f59 dfbc 2e97 553b 6cb3 8e3d
00000050: c0a5 aabd adfb ebbd ee6b 0cbd 76e6 a4bd
00000060: 448f 993d 56ab 1a3c ba83 71bd c458 f9bd
00000070: d142 ffbc b083 7fbd c24b d6bd cfe5 c6bd
00000080: 0154 aa3d d95a a2bc 8217 733c cfc5 85bd
00000090: 59d4 de3c 352d 37bd 6cb4 c8bd 04cc 8b3a
000000a0: f55e b7bd e7f4 db3d 75cc 07be da92 abbc
000000b0: 8955 f2bd a0f5 95bd a183 c7bd 58be d73c
000000c0: cd45 0fbe 606c 283c 3e42 d2bd 7f9c e4bc
000000d0: 3a32 cd3c 2f24 7a3d bb0f 52bd 57d2 bb3d
000000e0: a7b8 c8bd 05cb e63c 49c6 bcbc 80e7 46bd
000000f0: 23a2 47bd e83d 9b3d bff7 693d a617 02be

2.weight f4 [1, 64]
-0.086834826 0.005636629 0.05703078 0.058514766 -0.07055096 0.05599019 0.037333257 0.00010341606
0.04486373 -0.071208745 -0.006010656 -0.08535971 0.064223886 -0.067366175 -0.09657759 -0.08066971
-0.01027004 -0.077360176 0.00022090109 -0.004701768 -0.000998974 0.0039395834 -0.101696275 -0.0675589
-0.069738545 0.028944973 0.075407885 0.115372315 -0.0073037595 -0.09385295 -0.05567711 -0.035996847
0.065800555 -0.106518485 0.059079636 -0.0073661045 0.047607172 0.06667229 -0.10005655 -0.09078134
-0.0763999 -0.08028815 0.045552347 -0.026402418 0.0030084422 0.09014975 -0.044843603 -0.06746831
0.08941817 -0.029130623 0.08194083 0.10046083 0.083299704 0.035801586 -0.06462769 0.059716746
-0.001430791 0.024033811 0.09650098 -0.09003362 0.04923635 -0.007830356 0.10010511 0.055489533
00000000: 75d6 b1bd 79b3 b83b 1b99 693d 2ead 6f3d
00000010: 067d 90bd f855 653d c2ea 183d 13e1 d838
00000020: 08c3 373d e4d5 91bd 09f5 c4bb 12d1 aebd
00000030: d087 833d 47f7 89bd 79ca c5bd 2936 a5bd
00000040: ab43 28bc 036f 9ebd afa1 6739 4a11 9abb
00000050: 01f0 82ba 9f17 813b 2346 d0bd 525c 8abd
00000060: 15d3 8ebd 021e ed3c 736f 9a3d 5248 ec3d
00000070: 6054 efbb fa35 c0bd ae0d 64bd 6e71 13bd
00000080: 71c2 863d 5d26 dabd 7dfd 713d 5d5f f1bb
00000090: bdff 423d 7b8b 883d 73ea ccbd 91eb b9bd
000000a0: 8d77 9cbd 1d6e a4bd 1995 3a3d e249 d8bc
000000b0: 4929 453b 6fa0 b83d edad 37bd d32c 8abd
000000c0: e020 b73d 58a3 eebc 98d0 a73d 68be cd3d
000000d0: 0999 aa3d afa4 123d 865b 84bd 8c99 743d
000000e0: 6189 bbba 8ee2 c43c 4ea2 c53d 8c63 b8bd
000000f0: 0eac 493d e54a 00bc e803 cd3d fe48 633d
