data/learning/resilience/nn/model_nn_MPL.pth (torch, 11040 bytes, 3 tensors)

0.weight f4 [32, 68]
0	0xbd80f30e	-0.06296359
1	0xbdec9e88	-0.11553675
2	0xbd0afce6	-0.03393259
3	0x3d43af89	0.047774825
4	0x3dd2ba21	0.102894075
5	0x3dda3435	0.10654489
6	0xbdb1291a	-0.086504176
7	0xbdae22a9	-0.08502705
8	0x3d271fc9	0.040801797
9	0x3dc2b0d8	0.095063865
10	0x3c969dc4	0.018385775
11	0xbd279a02	-0.040918358
12	0xbca4ecb1	-0.020132395
13	0xbd10f5c9	-0.03539065
14	0xbd25e1dd	-0.040498603
15	0xbcefda88	-0.029279009
16	0x3da9b2bf	0.08286046
17	0xbc944411	-0.018098863
18	0xbdba99e2	-0.09111382
19	0x3d9748c9	0.073869295
20	0x3db3946c	0.087685436
21	0xbdf43699	-0.11924476
22	0xbd101d90	-0.035184443
23	0xbdd46688	-0.10371119
24	0x3d1764d4	0.03696139
25	0xbcfb6386	-0.030687105
26	0x3d82b9c9	0.06383092
27	0x3d9c1382	0.07620908
28	0xbc994743	-0.018710738
29	0xbd7c5df9	-0.061613057
30	0xbdc67ebf	-0.09692144
31	0x3d810f0b	0.06301697
32	0xbd431635	-0.0476286
33	0xbd1b7d8a	-0.03796152
34	0xbda68e89	-0.08132655
35	0xbb5ae1fa	-0.0033398853
36	0xbd1d1807	-0.038352992
37	0xbdbf3d5e	-0.09337877
38	0xbaac0722	-0.0013124684
39	0xbdf78259	-0.12085409
40	0x3d963d6f	0.07335936
41	0xbdd4b9df	-0.103870146
42	0x3db41cbc	0.08794543
43	0xbbfc0d45	-0.0076920115
44	0xbdeb2f39	-0.114836164
45	0xbd44d79c	-0.048057184
46	0x3c716880	0.014734387
47	0x3cb4bf95	0.02206401
48	0x3df74602	0.120739
49	0xbd7c887a	-0.06165359
50	0x3b59046c	0.0033114208
51	0x3d5336a2	0.051565774
52	0x3dbe94e6	0.09305744
53	0xbd94f177	-0.07272618
54	0xbc7b8172	-0.015350686
55	0xbdabe2af	-0.08392846
56	0xbd4d5720	-0.050131917
57	0xbd0f0d1f	-0.034924623
58	0x3d1028d7	0.035195198
59	0xbca2f602	-0.019892696
60	0x3debca32	0.11513175
61	0xbde5696d	-0.11201749
62	0xbd6b034c	-0.05737619
63	0x3cf4205e	0.02980059
64	0xbb22f976	-0.0024867929
65	0x3d3d1623	0.04616369
66	0x3dcca65d	0.09992669
67	0x3de88448	0.11353356
68	0xbdea4d77	-0.114405565
69	0xbe209e8e	-0.15685484
70	0x3d972cec	0.07381615
71	0xbd439fd8	-0.04775986
72	0xbce70cdc	-0.028204374
73	0x3db860b1	0.090028174
74	0x3dd3d42d	0.10343204
75	0xbd8d759f	-0.069072
76	0xbd088b02	-0.033335693
77	0x3d81af4b	0.063322626
78	0x3da7379b	0.08164903
79	0x3c332d01	0.010936023
80	0xbac63274	-0.0015121237
81	0xbc2346f4	-0.009965647
82	0x3d5818bd	0.052757967
83	0x3da2fd62	0.07958485
84	0x3d861dab	0.065486275
85	0x3c992320	0.018693507
86	0x3dd24455	0.102669396
87	0x3d55e577	0.052220788
88	0xbd7a5438	-0.061115474
89	0xbdee228a	-0.116276816
90	0x3cbfe3d5	0.023424068
91	0xbe13ada9	-0.14421715
92	0xbd15e2c6	-0.03659322
93	0xbd0228d9	-0.031777237
94	0x3dd9baa8	0.10631305
95	0xbc1a880c	-0.00943185
96	0xbda408cf	-0.080094926
97	0x3ca9ab72	0.020711634
98	0xbe1e8d4d	-0.1548359
99	0x3ce541e9	0.02798553
100	0xbe2bd979	-0.16782178
101	0xbe13b9a7	-0.1442629
102	0xbe522b91	-0.20524432
103	0x3dbf0c19	0.09328479
104	0x3dc7841f	0.09741997
105	0xbe10e87a	-0.14151183
106	0x3d5be1b4	0.053682044
107	0xbe505a37	-0.20346914
108	0xbe5b16a2	-0.21395352
109	0xbd5b7f6f	-0.053588327
110	0xbbf29ddf	-0.0074040736
111	0x3dba61eb	0.091007076
112	0xbbcb1e2f	-0.0061986665
113	0x3d22b1a4	0.039720193
114	0x3d5cf996	0.05394896
115	0xbc75d7d7	-0.0150050735
116	0xbe041eef	-0.12902425
117	0xbcafe659	-0.021472143
118	0xbda477da	-0.08030672
119	0xbd850981	-0.06495953
120	0xbd90d333	-0.07071533
121	0xbda250f6	-0.07925598
122	0x3c0e4f47	0.008685893
123	0x3d8b97ad	0.06816039
124	0xbddbe414	-0.10736862
125	0x3d3b0990	0.045663416
126	0x3de54878	0.11195463
127	0x3c123a67	0.008925057
128	0xbcc0aca7	-0.023519827
129	0xbcac2c26	-0.021017145
130	0xbd2c6c0b	-0.042095225
131	0x3ba527c8	0.0050401427
132	0xbd5b3d6d	-0.053525377
133	0xbdaf50d1	-0.085603364
134	0x3d5eb536	0.054372035
135	0x3df7961f	0.1208918
136	0x3d92dd69	0.07171137
137	0x3d2f9dfd	0.04287528
138	0x3d052fc3	0.032516252
139	0xbce60592	-0.028078828
140	0xbde7c5a6	-0.11316995
141	0x3d30f894	0.043205813
142	0x3db3104b	0.08743342
143	0x3de848f4	0.1134204
144	0xbd3f696d	-0.0467314
145	0x3c46b37b	0.012127752
146	0x3cca2dcc	0.02468004
147	0x3b97e6b5	0.0046356567
148	0x3d42b0a1	0.047531728
149	0x3d2d49ad	0.04230659
150	0x3d9b9a8d	0.075978376
151	0xbce4f311	-0.027947934
152	0xbcff3e57	-0.031157656
153	0xbdc84281	-0.097783096
154	0x3dd79e84	0.10528281
155	0xbd3c4f79	-0.04597423
156	0xbd7655c7	-0.060140397
157	0x3bf3f661	0.007445142
158	0x3db5f5ec	0.088847965
159	0x3d84afe9	0.06478865
160	0x3dc9916e	0.09842192
161	0x3d4dc334	0.05023499
162	0x3dc0658b	0.09394368
163	0x3bb6624a	0.005565916
164	0xbdf111e5	-0.11770991
165	0x3d952a1e	0.07283424
166	0xbdb240e0	-0.0870378
167	0xbd12fcfb	-0.035885792
168	0xbddd4339	-0.10803837
169	0x3e007154	0.12543231
170	0xbd92c7eb	-0.071670376
171	0xbd9ec360	-0.077521086
172	0xbdb2db43	-0.08733227
173	0x3ce9e649	0.028552191
174	0xbd32d86f	-0.04366344
175	0xbd2a808f	-0.04162651
176	0xbd673b26	-0.056452893
177	0xbcedacdd	-0.029013092
178	0xbd4ac42f	-0.0495035
179	0x3c97e8dc	0.018543653
180	0xbdefc305	-0.11707119
181	0xbba84dba	-0.005136219
182	0xbd403ddf	-0.046934005
183	0xbd32e371	-0.043673936
184	0x3cf581bd	0.02996909
185	0xbc56bd5e	-0.013106672
186	0x3dba46a6	0.09095506
187	0xbd283681	-0.041067604
188	0xbde25f65	-0.11053351
189	0xbd8d9c7d	-0.069146134
190	0x3dabed7e	0.083949074
191	0xbd5bca28	-0.053659588
192	0x3d0a503f	0.033767935
193	0x3df07b63	0.11742284
194	0x3ce5cc97	0.028051658
195	0x3d0579ff	0.032587048
196	0x3d31b3aa	0.04338423
197	0xbd533a88	-0.05156949
198	0xbd03889a	-0.032112695
199	0xbdf7d0ee	-0.12100397
200	0x3cc8a1ec	0.024491273
201	0xbc963ee8	-0.018340543
202	0x3d5baa9d	0.053629506
203	0x3d0434a2	0.032276757
204	0x3ad02ec9	0.0015883084
205	0xbdb5f695	-0.088849224
206	0x3c96762a	0.018366892
207	0xbdf94e5e	-0.121731505
208	0xbdd12c9b	-0.10213586
209	0xbd6fd5ba	-0.058553435
210	0x3dcb2fc6	0.099212214
211	0xbddb4de7	-0.10708218
212	0xbd4d7418	-0.050159544
213	0xbd527abf	-0.05138659
214	0xbd6cd06b	-0.05781595
215	0x3cbfde50	0.023421437
216	0xbd9d27df	-0.076736204
217	0xbb836716	-0.0040100915
218	0x3dca01d5	0.09863631
219	0xbde56b63	-0.11202123
220	0xbdc3f02e	-0.09567295
221	0xbde65498	-0.11246604
222	0xbd5a7559	-0.053334568
223	0xbaae1f23	-0.0013284426
224	0xbd00bb0b	-0.031428378
225	0xbdbe1ae9	-0.092824765
226	0xbd8a4984	-0.06752303
227	0x3caf3979	0.02138971
228	0x3d895196	0.067050144
229	0x3d70a017	0.058746424
230	0xbd990549	-0.07471711
231	0x3dbb7140	0.0915246
232	0xbd93c782	-0.072157875
233	0xbe0845d1	-0.13307883
234	0x3c2ad692	0.010427134
235	0xbc9c73d7	-0.019098205
236	0x3da5f805	0.081039466
237	0xbdb62729	-0.08894188
238	0xbe353821	-0.17697193
239	0xbd17d1be	-0.03706526
240	0xbcd1d08c	-0.025612138
241	0xbdc7d5cf	-0.09757578
242	0xbd80706b	-0.06271442
243	0x3c7c19be	0.015386997
244	0x3da60ae3	0.08107545
245	0xbd4c2032	-0.04983539
246	0x3a96633c	0.0011473666
247	0xbd1e7553	-0.038686108
248	0xbba86140	-0.005138546
249	0xbcaae183	-0.020859485
250	0x3d232659	0.039831493
251	0xbe269533	-0.16267852
252	0x3b422951	0.0029626677
253	0x3de806ec	0.11329445
254	0x3d8ada8f	0.06779968
255	0xbd14fb3a	-0.0363724

0.bias f4 [32]
0	0x3cba10d8	0.02271311
1	0xbe2f10f6	-0.17096314
2	0x3cb03983	0.021511799
3	0xbcda66b3	-0.026660299
4	0x3e1baf5a	0.1520361
5	0xbdb2c1e1	-0.08728386
6	0xbd83fbd8	-0.0644452
7	0xbc1747b9	-0.009233409
8	0x3d515505	0.05110647
9	0xbcdde773	-0.027087903
10	0x3dc02d04	0.09383586
11	0xbda6b62b	-0.081402145
12	0x3d1a3c30	0.037655056
13	0xbde3d77a	-0.11125083
14	0xbdac6ce6	-0.08419208
15	0xba770211	-0.000942261
16	0xbcb41524	-0.021982737
17	0x3ce82e15	0.028342286
18	0x3dd4e499	0.10395164
19	0xbd9120f7	-0.07086366
20	0xbdb7c06e	-0.0897225
21	0x3cea2397	0.028581424
22	0x3d97d4c4	0.07413629
23	0x3dae9998	0.085253894
24	0xbd243573	-0.040090036
25	0xbe4382de	-0.1909289
26	0xbd9b57db	-0.075851165
27	0xbceaf2be	-0.028680202
28	0x3dac5f80	0.08416653
29	0x3d09b0e2	0.033615954
30	0xbd04ef3c	-0.032454714
31	0x3df8491f	0.12123322

2.weight f4 [1, 32]
0	0x3ccc0c46	0.024908196
1	0xbd5bb532	-0.0536396
2	0x39d490bc	0.00040543627
3	0xbd0f7aef	-0.035029348
4	0xbb144a44	-0.0022627274
5	0xbb1a01bc	-0.002349957
6	0x3aa5ee53	0.0012659527
7	0x3b0c5910	0.002141539
8	0x3cf0732d	0.029351795
9	0xbda30977	-0.0796079
10	0xbacb7436	-0.0015522304
11	0xbd9135c6	-0.070903346
12	0x3b8d3faa	0.004310568
13	0xbe1622b7	-0.1466168
14	0x3a984b8d	0.0011619196
15	0xbd33e439	-0.043918822
16	0x3cfa14d4	0.03052751
17	0xbaac3e02	-0.0013141038
18	0xbd2e568c	-0.042563006
19	0x3aa370b0	0.0012469497
20	0x3d6d61d7	0.057954635
21	0x3ccd4ecd	0.02506199
22	0x3bbe1990	0.005801387
23	0xbce8bfbc	-0.028411739
24	0xbb62604a	-0.0034542256
25	0xbc2b39b4	-0.010450769
26	0xbcbaa8a2	-0.022785489
27	0xbc553219	-0.0130124325
28	0x3e166a3a	0.1468896
29	0x3ab5011e	0.0013809537
30	0x3cfbf152	0.030754719
31	0x3e23fc73	0.1601427
