models/resilience/linear/MPL/agent1.pth (torch, 40590 bytes, 5 tensors)

fc.weight f4 [128, 68]
00000000: 5082 8e3c 350f ea3d 2e29 a33c c0b6 eebd
00000010: dcd6 d7bd 2a71 0bbd de80 213d e69a 0b3d
00000020: 3dcc b4bd 44ac 81bd 52aa dcbd 89d2 e53b
00000030: 1bea fabb 5184 1ebd cb89 9d3d 9db6 48bd
00000040: 0aa4 41bc e358 443d f5ec e0bd 9d3d d5bd
00000050: 718f 8cbd 6681 033b e29c 85bd 77ad 5b3d
00000060: 6c38 8e3d 8994 c43d 9930 893d 48c6 82bc
00000070: e57c 4ebd cd3a e03d b18f 9d3c 51bf e73d
00000080: 9d92 38bd 9cc9 ddbd 853c 563d 55f2 cbbd
00000090: 5855 f7bd 5f22 d0bd 2d91 86bd b746 85bd
000000a0: 83a2 67bd 6cd6 87bc 88c1 cb3c 2136 923d
000000b0: b4d5 583d b286 db3d b846 82bd 8d25 953d
000000c0: b1a6 81bd 1495 8a3c d3b5 893d 6b65 de3d
000000d0: 56d2 063c 4ea8 d2bd 679f 383a 2fa0 4ebd
000000e0: ab6e d9bd 5d21 8bbd 7733 b8bd 178e 1b3d
000000f0: ac50 e9bd 628d c5bd fcf6 4ebd b419 d1bd
00000100: c6df cc3d 17a5 b3bd 96f9 aabc 3d0a e73d
00000110: 4f3c 893d 643c ad3c 44ec 4cbd 0a68 4f3d
00000120: c229 a1bd 284b d13d 00de 46bd 4ff9 ad3d
00000130: f8d9 ef3d 5072 8ebd 5ff4 b23d 2714 c13c
00000140: a797 f3bd 3084 dfbc 8691 e83b 3bb9 bf3d
00000150: 2414 383d f9ba 523d 95f9 b33c aba7 e6bd
00000160: 7a84 b93b a007 2abc e625 a33d 2967 df3d
00000170: 3473 98bd b4ae 8bbd 5e8a 4fbd e324 da3c
00000180: e405 f7bb d447 d63d e4fb 963c 7220 1b3d
00000190: 879b b03d 906d 7a3d 64fd 503d f2d3 833d
000001a0: 24c4 eb3d 8899 a33d 1957 373d cb14 4ebd
000001b0: bf46 d7bd 01cd 04bb 7699 0abd dd24 d8bc
000001c0: e852 d23b cbc1 35bc eaf3 5c3c ca80 a9bd
000001d0: 2c13 7ebd c065 a43d 3222 f1bc 0c11 953d
000001e0: 2869 993d 9925 573d f12b abbc 5462 6ebc
000001f0: f3ca ff3c 1e30 c23d 06b1 253d 5836 81bd
00000200: cbba 2bbd 260c e73d 9243 063d 6dfd ebbd
00000210: b282 853c f4c3 e0bd 7965 003d e474 3a3d
00000220: e2a3 1bbc 7570 f03d 6589 c63c cbf5 083d
00000230: df99 e1bd e515 c43d ac5f 1c3d 60e9 9fbc
00000240: d653 9bbd 5561 aabc 881d 1dbd f8e2 80bc
00000250: b11c 9bbc a1a8 f1bd 3150 ba3d 5fe4 f0bd
00000260: acb6 72bd da48 eb3d 2333 91bd 0052 073d
00000270: 0f05 b0bd a881 ddbd d2d8 b2bd 76d8 95bd
00000280: 6d83 e73b 55c1 f13d 3cc4 a23d 9e09 283d
00000290: 4845 d43d 258f 6f3d a5de 55bd 4e56 19bd
000002a0: 02d9 cb3d a232 debd b55b 79bc cbd5 9ebd
000002b0: ddd9 a4bd f4c2 6fbc 6765 bd3c a08f e93c
000002c0: 7ac1 b5bc b164 003d 8799 d03c 54a6 8d3d
000002d0: df30 8d3c 3c9a d7bd e9d3 be3d 3cae 383d
000002e0: 3d54 4a3d ac9c 87bb 1a67 73bd edd8 c5bd
000002f0: 4fef 86bd 1ce6 b6bb 936e eebc 337f 4e3d
00000300: f46f c53d 3e25 d43d 48c0 99bd 972a dbbd
00000310: 7ee3 f2bd 25d6 cbbd 818f e53c 43e9 e63d
00000320: 43cf f13d b452 85bd dfe7 ff3c 0eb4 323d
00000330: ab0d d13d 4805 a2bd 3b85 c0bd 50bf 16bd
00000340: 6608 9c3d c72a 95bc 1ca9 f03d fe30 a43d
00000350: 01f6 923d ecbd babd c3d2 f5bd 7270 05bd
00000360: 2f6e 2b3d bde1 123d 84b0 7f3d e7d8 4bbd
00000370: abb3 6a3d 5db4 c7bd 4da3 bbbd ae42 833d
00000380: b9ac 963d 4853 543d 4013 8e3c 5bec f13d
00000390: 9f55 97b9 0ffb 423d ede8 ecbd af70 443d
000003a0: 3154 f03d b662 e33c 39ba 4cbd 3cc3 a5bc
000003b0: 0b87 c03a 4026 a63d 07d5 dd3d 1808 60bc
000003c0: ba86 ca3d 0a0c 34bd a4b7 86bd 3141 85bd
000003d0: 1679 61bc 6a5b 793d 8edd efbd 4368 f9bc
000003e0: 7fe5 a7bc 6d52 133d fad8 d83c 628d c2bd
000003f0: d3bc 113d 3be7 aebb 2882 4ebc 1220 c63d
0.017396122 0.11428682 0.019917097 -0.116559505 -0.10539028 -0.03404347 0.039429538 0.03408327
-0.08828018 -0.06331685 -0.107746735 0.007013623 -0.007657302 -0.038700406 0.076922975 -0.04900228
-0.011818895 0.04793633 -0.10982696 -0.104121424 -0.06863297 0.002006614 -0.06524064 0.053632226
0.06944355 0.09598643 0.066987224 -0.015963688 -0.050412077 0.10948715 0.019233556 0.113157876
-0.045061696 -0.108294696 0.05230381 -0.099583305 -0.12076825 -0.10162806 -0.06570659 -0.065076284
-0.056551468 -0.016581737 0.024872556 0.071392305 0.05293818 0.107190505 -0.06361145 0.07282553
-0.06330622 0.01691679 0.06724133 0.10859188 0.008228859 -0.10286008 0.0007042796 -0.05044573
-0.10616811 -0.06793473 -0.08994191 0.037977304 -0.1139234 -0.09646107 -0.05052851 -0.102099806
0.10003619 -0.08771723 -0.020870965 0.1128125 0.06700956 0.02114696 -0.050030008 0.05063633
-0.07869293 0.10219413 -0.04855156 0.084948175 0.11711496 -0.06955397 0.08738016 0.02356918
-0.1189416 -0.027284712 0.007097426 0.09361502 0.044941083 0.051447842 0.021969596 -0.11262449
0.0056615444 -0.0103777945 0.07966213 0.10908348 -0.07443848 -0.06820431 -0.050669067 0.026628917
-0.007538544 0.10462919 0.018430658 0.03787274 0.086234145 0.061139643 0.051022902 0.0643691
0.1151202 0.07988268 0.044760797 -0.0503128 -0.105115406 -0.0020263793 -0.033837758 -0.026384765
0.0064185746 -0.011093567 0.013485888 -0.08276518 -0.062030002 0.0802722 -0.02943525 0.07278642
0.0749076 0.05252609 -0.020894976 -0.01454981 0.031224703 0.09481834 0.040452026 -0.063091934
-0.041926187 0.11281614 0.032779284 -0.115229465 0.016297672 -0.10974875 0.031346772 0.04552163
-0.009499522 0.117401995 0.024235437 0.03343753 -0.11015677 0.095744886 0.038177177 -0.019520462
-0.0758435 -0.020798365 -0.03835824 -0.015733227 -0.01893458 -0.117997415 0.090973265 -0.11762308
-0.05925624 0.11488505 -0.07089832 0.033037186 -0.08594715 -0.108157456 -0.087327614 -0.07316677
0.0070652277 0.11804453 0.07947585 0.041024797 0.10364777 0.058486123 -0.052214283 -0.037435822
0.099535 -0.10849501 -0.015219619 -0.077556215 -0.080493666 -0.014633883 0.023119641 0.028510869
-0.022186983 0.031346027 0.025463833 0.0691649 0.017235218 -0.10527465 0.093177624 0.045088038
0.049396742 -0.00413855 -0.059424497 -0.09660516 -0.06588613 -0.0055816304 -0.02910546 0.050414275
0.09640494 0.10358666 -0.07507378 -0.10701483 -0.11859797 -0.09952954 0.02802253 0.1127496
0.1180711 -0.06509915 0.031238494 0.043628745 0.10207685 -0.079111636 -0.09400412 -0.036803544
0.076187894 -0.018208874 0.11751005 0.08017157 0.07175828 -0.09118256 -0.1200309 -0.03257794
0.041853126 0.035859812 0.062424198 -0.0497674 0.05730025 -0.097511984 -0.091620065 0.064092025
0.07357163 0.051837236 0.017343163 0.11812659 -0.00028864757 0.04760271 -0.115678646 0.047959026
0.11734808 0.02775703 -0.049982283 -0.020234697 0.0014688683 0.08112764 0.10831647 -0.013673805
0.09888978 -0.043956794 -0.065779954 -0.06506575 -0.013761779 0.060878195 -0.1171218 -0.030445224
-0.020495174 0.03596728 0.02647065 -0.09499623 0.035580467 -0.0053376234 -0.012604274 0.09674086

fc.bias f4 [128]
00000000: e22c dabd dfc3 ce3d 791e 4fbd 4c8f 91bd
00000010: 5635 bfbb e858 583d 33e8 6ebd 505e 94bd
00000020: 6282 c5bc 8b40 c53d c660 bcbd 8215 7c3d
00000030: efc0 be3d e1bb 10bd 282c 813d 9cae c4bd
00000040: 5f27 cdbd 4a77 923c 1b5b f4bd 6186 93bd
00000050: 587f 88bd 3298 613d 421c d6bd ce2b 673d
00000060: fec9 813d cccf 30bc e803 ac3d 505e 3ebd
00000070: 3765 033d e7f5 afbc bbc7 e13d 33c3 97bd
00000080: e186 e13c 9610 843d 5fc5 ea3d 674d abbc
00000090: 0769 15bd 0c68 9a3d 9d2c 02bb 55ff eabd
000000a0: bbb9 c0bd 1a45 40bd 66a8 8abd 84b4 343d
000000b0: 30a9 d2bd 4fdf 0b3d ef96 983d b511 e0bc
000000c0: 1d2a 89b9 a712 003d d3b7 873c 1775 9ebd
000000d0: 8d72 04bc 5244 5abd cc40 9ebd 6bbe b83d
000000e0: da43 013d 827d e43b 1ff3 3ebd 4c39 bfbd
000000f0: 7f1d f9bc f0aa dd3b a7c6 89bd bb45 b7bd
00000100: f625 80bd bef8 263c 563c 583c 208e 8dbd
00000110: 24ab 6c3b e1c6 b73d 10ff ec3d 70e7 a2bd
00000120: 8291 cbbd 82b4 943d 662f 3b3d ac09 a43d
00000130: 243b 52bd 9588 8dbd 8cd1 733d 84a6 eb3c
00000140: d572 e73d c2c6 b9bc 8625 93bc 5dee f13d
00000150: 4295 d6bd 88cf ae3d 31fe b33d 6fea abbd
00000160: caff b23d 897f 893d 1262 e1bc b166 033d
00000170: c7d4 df3c 903a c7b9 28b8 c53b 83cc 9b3d
00000180: ba86 cebc 0989 e5bc f8f2 193d 0aab 3ebd
00000190: a6e9 903d 8db4 ccbd 8dd6 983d f1a2 d63d
000001a0: d34b ba3d 9a5e 973c 744d 373d a6c7 da3c
000001b0: 12dd 9f3d 08ca 983d f65c 3f3d 1245 adbd
000001c0: 6735 7dbd 0960 a8bd d38a 3abc 60b0 97bc
000001d0: 6335 69bd 5363 1f3b 4db3 dcbd b07a 943d
000001e0: 5b11 f63d 16b8 843d e3aa c8bd 80fc fdbb
000001f0: f4b8 e13d 56ab 96bd d79d 4f3d 5f32 a23c
-0.10653092 0.10095953 -0.05056617 -0.0710741 -0.0058352156 0.052819163 -0.05832691 -0.07244551
-0.024110023 0.09631451 -0.091981456 0.06154395 0.09314143 -0.035335425 0.0630725 -0.096036166
-0.10017275 0.017879147 -0.119314395 -0.07203365 -0.06664914 0.055076785 -0.104546085 0.05643826
0.06337355 -0.01079173 0.083991826 -0.046476662 0.032078948 -0.02147956 0.11024424 -0.07410278
0.027530136 0.06448476 0.11463427 -0.020910932 -0.036477115 0.075393766 -0.0019863017 -0.11474482
-0.09410425 -0.0469409 -0.06770401 0.044117466 -0.10286176 0.03414851 0.07450663 -0.027352193
-0.00026162053 0.03126779 0.016567146 -0.07737177 -0.008083952 -0.05328781 -0.07727203 0.09020694
0.03155885 0.0069729695 -0.046618577 -0.093371004 -0.030409573 0.006764762 -0.06727343 -0.08948847
-0.062572405 0.010191141 0.013197979 -0.06911874 0.003611275 0.0897348 0.11572087 -0.079542994
-0.09939863 0.07260992 0.0456995 0.08009657 -0.051325932 -0.069108166 0.05952601 0.028765924
0.11301199 -0.022677783 -0.017962229 0.11813042 -0.104776874 0.08535677 0.087887175 -0.08394324
0.08740194 0.067137785 -0.027512584 0.032080356 0.02732314 -0.0003799987 0.006033916 0.07607367
-0.025210727 -0.028019445 0.03758523 -0.046549834 0.07075815 -0.09995375 0.07462797 0.10480297
0.090964936 0.018477727 0.0447516 0.026706528 0.07805838 0.074604094 0.046719514 -0.0846044
-0.061818507 -0.08221442 -0.011385637 -0.01851672 -0.05693568 0.0024320676 -0.107763864 0.07249963
0.12015029 0.06480424 -0.09798219 -0.0077510476 0.11021605 -0.073568985 0.050687637 0.01979941

actor.weight f4 [4, 128]
00000000: 37d0 0d3d 55d6 a03d 6847 86bd 33cf 8a3d
00000010: d6d1 b43d 895c 80bd 541f 89b9 d52f a7bd
00000020: b115 9abc 0455 0dbd 0b50 bf3c 97f1 20bd
00000030: 877c 3e3d 95e1 b93c 23b3 6dbd cb77 61bd
00000040: fa9e 9fbc 9c62 e1bc 5410 82bd 693d 473d
00000050: d989 a43d 4d19 993d fd20 a9bd 8a47 5abd
00000060: 8441 853d 8832 c4bc ee42 693d ec3b 873c
00000070: 08fe 46bc d620 4a3d 3b60 12bd 0334 c5ba
00000080: fd76 98bb eed6 42bb fd0b eb3c fd03 da3c
00000090: f5b1 56bd 88c9 5439 2f02 283d 277c c93a
000000a0: be4d b1bd 350c f8bc 6201 efbc 1bc0 8ebc
000000b0: e463 ba3b 5a62 99bd eeaf 4bbb 1324 87bd
000000c0: c957 063d f1e0 e23c dc6e 47bd 7b65 f63c
000000d0: 0887 69bd 41a6 5c3d b6c8 603c 4369 393d
000000e0: 8b4a 713d 1bc2 a33c 15dc 39bc 3d98 7dbd
000000f0: 996c 44bb b133 82bd 71bf 8dbc e881 a53d
00000100: 3bc5 9ebd 708d 363d ba68 673d 6793 d03c
00000110: e0d9 dfbc 6a8f 88bd cc84 b2bd 87c1 e4bc
00000120: 3b0c 763c 0893 16bd ce8a 6a3c 2625 59ba
00000130: 2b1d a4bd 8033 333c f57f 55bd 40f7 8ebd
00000140: 7786 b13b df4e 7b3d 39fb 983c 56cf 6bbd
00000150: 50f7 663d 5576 a5bd 8705 053d 4a12 19bd
00000160: 9524 a2bc 3222 8fbd 6272 2cbd 24f9 6bbd
00000170: 75e2 663d 2ae3 48bd 6d05 393d f117 5c3c
00000180: ffac 3dbd d72a ab3d cae8 4ebd 759c 70bd
00000190: 4d1f 813d b740 fd3c e1d3 213d 012b 55bc
000001a0: f17a 043d 22dd 49bd 3ca0 06bd 65a8 543d
000001b0: 214f 6fbc 1eae 32bc 45e1 163b e16e 06bd
000001c0: ab0d a2b8 a4ff 703d f8e7 27bd a82d 8bbd
000001d0: c6fe 97bd 459e a6bd f2d2 4bbd 1f49 a2bd
000001e0: f468 9abd c8ee a63d 0e6d 7d3d 55c9 a03d
000001f0: 355a acbd 95e4 e23c 4903 8b3a c38b aabd
00000200: 03cb 6c3d 1869 9b3c d544 6cbc 89ba 97bd
00000210: 8b42 713d 2dc5 92bd 36f9 3d3d bc15 90bd
00000220: 0010 9e3d 24b9 af3c 9421 34bd b32a 973d
00000230: 3e89 af3d 8837 853d 0011 7fbd 8653 49bd
00000240: c488 0abd bd67 82bd 5f47 2bbc fce1 b03d
00000250: 0f1e ab3d 0221 79bd 34e6 553c 6a74 a6bd
00000260: c60c 2dbd 9daf 91bd 66f6 36bd eb96 8e3d
00000270: 2730 373d 5c66 ae3d 7d72 943d ab53 90bc
00000280: 706e 623d b2ec f2bc 7ea7 d4bc 2776 183d
00000290: 53b2 0dbc eb0e 23bd fbca b4bd b63a b73c
000002a0: d008 ab3d 2b7b 283d ca46 133c f284 b8ba
000002b0: 2466 073a c00b 5c3c ae70 3cbc b46f 723d
000002c0: abef 69bd ca92 873d a98b 2bbd 32f6 123d
000002d0: 4bde 90bd db6f 18bd b9d2 493c a7aa 30bd
000002e0: 3ad7 8c3d bfcd 34bc 15ee cc3c 7e63 fa3c
000002f0: 5537 97bd 1cf2 8fbc d45c babc ce7f 87bd
00000300: 8e8a 393d ef4b 853d f7f3 a43d b2e5 15bd
00000310: bb89 1a3d 5231 95bb 066e e3bb 1bfc a6bd
00000320: 25a3 813d 4f06 9ebc f016 acbd 310d 92bc
00000330: 09ae 163b 91dc 7c3a 1d2d 97bd 612e 57bc
00000340: bb89 86bd fdde 4d3d 6a16 993d f114 85bd
00000350: 87e6 223d fd47 3d3d 1b5f 1ebd 3d73 0f3d
00000360: 81a9 a03c 4d97 e4bc 9550 41bd 99ec 913d
00000370: 9595 523d 0831 833d cf03 d3bc 0a68 293d
00000380: aa51 0a3c d296 933b e09d eebc 5ea1 203c
00000390: 2821 173c ecb8 6bbd ee50 443b b356 0fbd
000003a0: 50da 653a 18eb 2e3d 0ad7 a43d 7b1c a23c
000003b0: ab96 8cbd a2fe 98bd 6037 1a3d d449 1abd
000003c0: 9b18 aebd 6604 91bd 4ab1 273c 60a1 7b3d
000003d0: 6537 893d b772 9d3c 7e14 a1bd 91e3 fd3b
000003e0: ae5a 61bd f2c5 463d 3427 95bd a8c9 47bd
000003f0: 7196 113d 69c5 613d e3f0 b0bc a9ee 423d
0.034622397 0.078533806 -0.065565884 0.06777801 0.088290855 -0.0626765 -0.00026154018 -0.0816342
-0.018809171 -0.034504905 0.023353597 -0.039292898 0.046505477 0.022690574 -0.058032166 -0.055045884
-0.019484986 -0.02751284 -0.063507706 0.04864255 0.08034105 0.07475529 -0.08258245 -0.05329088
0.06506637 -0.023949876 0.056948595 0.016508065 -0.012145527 0.04934772 -0.035736304 -0.0015045408
-0.0046528564 -0.002973016 0.02869224 0.02661323 -0.052415807 0.00020292972 0.041017707 0.0015372083
-0.08657406 -0.030279258 -0.029175464 -0.017425587 0.0056881774 -0.07489462 -0.0031080204 -0.065986775
0.032798562 0.027695151 -0.048689708 0.030077687 -0.05701354 0.05386949 0.013719728 0.0452664
0.05890898 0.019990018 -0.011343976 -0.061912764 -0.0029971956 -0.063575156 -0.0173032 0.08081418
-0.077524625 0.04456848 0.05649636 0.025460912 -0.02732557 -0.06667979 -0.08716735 -0.027924312
0.015017564 -0.036761314 0.01431532 -0.00082834286 -0.08013376 0.0109375715 -0.052123982 -0.06980753
0.005417641 0.061354514 0.01867448 -0.057570778 0.0563882 -0.08079211 0.032475974 -0.037370957
-0.019792834 -0.06988944 -0.04210127 -0.057610646 0.05636831 -0.049044766 0.04517119 0.013433442
-0.04630756 0.083577804 -0.050514974 -0.05874296 0.06304798 0.030914648 0.039508704 -0.013010741
0.03234381 -0.049283154 -0.032867655 0.051918406 -0.014606268 -0.010905771 0.0023022455 -0.032820586
-7.727308e-05 0.058837548 -0.040992707 -0.067958176 -0.07421641 -0.08135656 -0.04976172 -0.07924103
-0.075395495 0.08151013 0.06187158 0.07850901 -0.08415643 0.027696887 0.0010605837 -0.08327439
0.057810795 0.018971011 -0.014420708 -0.07408626 0.05890135 -0.071665145 0.046380244 -0.070353955
0.077178955 0.021450587 -0.043977335 0.07381191 0.08571099 0.06504732 -0.06227207 -0.04915192
-0.033821836 -0.06367443 -0.010454028 0.08636853 0.083553426 -0.060822494 0.013055373 -0.08127673
-0.04224851 -0.07113574 -0.044668578 0.06962379 0.044723656 0.08515617 0.072483994 -0.017618021
0.055281103 -0.02965388 -0.025958773 0.037222054 -0.008648473 -0.03980915 -0.08827778 0.022366863
0.0835129 0.041133087 0.008989045 -0.0014077707 0.00051650614 0.013430536 -0.011501474 0.05918856
-0.05711333 0.06619795 -0.041881237 0.03587932 -0.07073649 -0.03721605 0.012318307 -0.043131497
0.06876989 -0.011035382 0.02501587 0.03056502 -0.073836006 -0.017571501 -0.022749342 -0.06616174
0.04529815 0.06508624 0.08054345 -0.036596008 0.037729006 -0.0045529986 -0.006940606 -0.08153554
0.063299455 -0.019290118 -0.084028125 -0.017828556 0.0022991917 0.0009645904 -0.073816516 -0.013133616
-0.06569239 0.050261486 0.07474978 -0.06498135 0.03977063 0.04621123 -0.03866492 0.03502201
0.019612076 -0.027904177 -0.04719599 0.071252055 0.051412184 0.06405836 -0.025758652 0.041358985
0.008442322 0.004504063 -0.029128015 0.009804098 0.009224214 -0.057549402 0.0029955464 -0.034994792
0.0008768188 0.04270467 0.08048828 0.019788971 -0.06864675 -0.07470442 0.037650466 -0.037668064
-0.08500787 -0.07080917 0.01023514 0.061433196 0.06700019 0.01921974 -0.07865237 0.0077480753
-0.05501812 0.04852862 -0.07282868 -0.0487763 0.035543863 0.055119906 -0.021599239 0.047590885

actor.bias f4 [4]
00000000: 32c7 873d 5873 9c3d 09a0 663c 0628 ae3b
0.0662979 0.076391876 0.014076241 0.0053148298

critic.weight f4 [1, 128]
00000000: e1ad ebbb a92b c73c 58ec a03b 0024 623d
00000010: 7871 2bbd 9767 b4bd d41a 7f3d c1aa 0dbd
00000020: f014 4e3d c5dc d6bc 27e8 89bd b3ff 303d
00000030: 24bb 8cbc b97d 97bd 3ad6 cb3b 0688 a2bd
00000040: 4371 16b9 e52a 56bd 4d34 d33c 83d8 afbd
00000050: a598 1e3d 5911 09bd 0fd6 6c3d bd79 56bc
00000060: a6c0 253d 9133 393d e0c0 37bd 2ccf 333d
00000070: c35b 1f3d c939 e4bc cadd 3ebc 7488 8dbd
00000080: 1763 89bd 6c9f 5bbd 9b6e 17bd b9a2 acbd
00000090: 2a4e a63d 22de 5fbd 1f88 f83b 431e 633c
000000a0: d2f1 debb 3537 d2bc e5c5 0d3c c7fe bd3c
000000b0: a293 57bc 7548 6fbc 5b89 74bd 1058 533d
000000c0: 0dc1 a93c 0ee3 a4bd 1edf 083d 67cf 8c3b
000000d0: 8f58 933c 6c87 923d 5a22 a83d 69e6 23bd
000000e0: 2d6c 6dbd fd52 0f3d 2ac5 97bd fdd3 8cbd
000000f0: beb3 2ebc 88de fbbc 9f5d 163d 613e 9bbd
00000100: c24d 683d 7d27 b03d 2268 473d 5139 e9bb
00000110: f540 953d f60f ae3d c4e1 193c babb 863c
00000120: 9e85 213c 9494 e3bc 2003 22bd 853e 9cbd
00000130: 251f 09bc 9328 093d 9711 963d 1f43 5e3c
00000140: 5634 243d 4720 1ebd ab15 f8bb edfd 0f3c
00000150: 8d71 8b3c 84c5 59bd 4322 123c f2f6 ac3d
00000160: 2c58 1cbd ee81 843c cff4 a13c d832 703d
00000170: 6478 b4bd 5b82 9ebd dbaf eb3c d10d eb3c
00000180: 6bf2 d0bc 5e47 d0bc 1810 1a3c a54f 0cbd
00000190: a980 99bd 03b7 8d3d 4c34 afbd 1f52 d13c
000001a0: 0f43 afbd e1c5 a43c bf7f 09bd 621b 3bbd
000001b0: 49e2 c1ba c182 3c3d afc3 2e3d d388 fd3c
000001c0: 9e2a 9f3d 653b 9bbd f8ab acbd 299b fdbc
000001d0: f80c aebd b655 ac3d 9ea0 e23c 2c23 6cbd
000001e0: 07bb d6bc 8ff2 9b3d 0900 1b3d 297e c43c
000001f0: b96d a13c 676c 0a3d fa0a 91bd e8e2 ed3c
-0.007192359 0.024312811 0.004910987 0.055210114 -0.04185626 -0.08808821 0.062281445 -0.03458667
0.050312936 -0.026228318 -0.06733733 0.043212604 -0.01717908 -0.073970266 0.006220606 -0.07936101
-0.00014347308 -0.052287 0.025781775 -0.08586218 0.038719792 -0.03346381 0.05782133 -0.013090548
0.040466927 0.045215193 -0.044861674 0.043898746 0.03890587 -0.027859585 -0.011649558 -0.06910792
-0.06708353 -0.053618833 -0.036970716 -0.084294744 0.08120377 -0.0546552 0.0075845863 0.013862195
-0.0068037296 -0.02566109 0.008653139 0.023192776 -0.013157757 -0.014604677 -0.059701305 0.051597655
0.020721937 -0.0805112 0.033415906 0.004297185 0.017986564 0.07154736 0.08209677 -0.040014658
-0.057964493 0.034991253 -0.07410653 -0.06876371 -0.010662971 -0.03074576 0.036710378 -0.07580257
0.05671478 0.08601282 0.048683293 -0.0071174284 0.0728778 0.08499138 0.009392206 0.016446937
0.009858517 -0.027780809 -0.03955376 -0.07629112 -0.008369242 0.03348596 0.07327574 0.013565808
0.040088974 -0.038605 -0.0075709424 0.008788568 0.017021919 -0.05316688 0.008919301 0.084455386
-0.038170025 0.016175237 0.019770054 0.05864224 -0.08812025 -0.07739707 0.028770378 0.028693112
-0.025506219 -0.025424656 0.009403251 -0.034255642 -0.07495243 0.06919672 -0.08554897 0.025551854
-0.08557712 0.020113887 -0.033569094 -0.04568041 -0.001479217 0.046023134 0.042667087 0.030949032
0.077718005 -0.07579688 -0.08431238 -0.030957775 -0.08498567 0.084147856 0.027664479 -0.05765073
-0.026212228 0.07614624 0.03784183 0.02398594 0.01970564 0.033794787 -0.07082172 0.029038861
