models/resilience/linear/MPL/agent2.pth (torch, 40590 bytes, 5 tensors)

fc.weight f4 [128, 68]
00000000: 626c 3c3d 3b73 96bd 9173 f2bc 7a1c d8bd
00000010: ad8c d6bc da66 993d d45e 86bd ea7e 45bc
00000020: 50bc 7e3c 469d d33c aec3 33bd c0e7 8bbc
00000030: a311 243d 7cd3 073d 6cea 44bc 4d97 afbd
00000040: 09c9 74bd bdf9 c03d 14e0 8c3a aa4d dabc
00000050: a29f 83bd 9881 31bc 3a09 b4bd 25d8 233d
00000060: db73 a83d 7f87 f03d d09d b53d 709c f0bc
00000070: 9a4e 523c c55b ce3d 4b73 d9bd 4c06 7f3c
00000080: 0abe 45bd 9d3d cdbd 841a 363d f511 aa3d
00000090: 3236 f4bd d2ba a3bb d5f7 f33d 1eaf 4dbd
000000a0: 4252 92bc 5c21 6cbd 9efd b7bd 15d7 33b9
000000b0: d21c 9fbd 9b1b eebd 97af 82bd b30d 243d
000000c0: 21c7 143d 38e8 f3bc beac 963c 2f41 7dbd
000000d0: 7b18 96bd b98c cabd 72b4 37bd 3985 cbbd
000000e0: ebeb ebbd fbb8 743d aa47 c4bd 720f 7e3c
000000f0: e238 d13d 4bd2 6dbd 6807 3d3d f4c9 0abc
00000100: 0be4 48bc f81b 22bd 5517 883c f979 bb3d
00000110: e0ac c83c 7541 c33d d57f bdbd 224e fdbc
00000120: 88f5 9dbd 566d 813c b3c5 9d3d 42c5 e43d
00000130: 215f a33d 5266 d6bd 64ac 07bd 23ec 61bc
00000140: c028 a9bd 017b c53c 240a 643c c6fe d23c
00000150: 6a4a d3bd ad40 f6bc 052c 6dbd a273 d73b
00000160: 6a17 95bd bad0 d9bc 9f79 083c d047 cb3d
00000170: 4578 cb3d 1373 393d 0838 35bc 316d a5bd
00000180: 8ca2 f4bd 26ec d83d a030 56bd af58 44bd
00000190: 4d78 60bd 4859 a53d 28a6 88bd 9753 ef3c
000001a0: ddca 0e3d f0d8 c93d 2b59 f2bd 2b74 58bc
000001b0: 68eb 903d f1c6 dabc 50cf 2abd 4fbb 72bd
000001c0: f083 b7bd 1897 863d 3673 d0bd 270c cd3d
000001d0: a164 49bd e8fd ecbd b472 bdbd ed36 e23d
000001e0: 378a 683d 9609 5abd 9bed d9bd 9670 2dbd
000001f0: 10fa bb3d 13f6 9cbd 3909 073d 4744 823d
00000200: 6449 d6bd aaad 5ebd d94e fbbc 61ee b3bd
00000210: 0f8f e6bd 01fc 023b 6477 a5bc 4be5 813d
00000220: d0e4 433d b365 b5bc 7ead cebd be7b c5bc
00000230: 2395 913d 6286 be3d 6e2b 833d fa08 c0bd
00000240: c017 9bbd 7d5c 9c3d 6733 5cbd f751 083d
00000250: a4dc 873d fb7d c8bd a8d7 ddba 2559 233c
00000260: b8d4 4b3d b904 c93c 0c5d 9bbd fdc4 dfbd
00000270: d2cc 483c ed9e ba3d d8a2 7e3c 9a6f 953d
00000280: 1244 823d b588 f33d f546 a83d 4751 92bd
00000290: 3613 08bd c665 f3bc 70f2 be3d d325 36bd
000002a0: eca1 e2bb 1163 cc3d 5426 f4bc d81a 33bd
000002b0: ab53 66bd 2d4f f6bd c8a7 083d 6d90 793d
000002c0: b77b f7bd d034 cfbd 3956 a13d 4cc2 92bd
000002d0: f28c f03c 868b 423d fab6 bdbd 2483 f3bd
000002e0: d1ed 963d 59b5 77bd ca8d 06bd 739b c13d
000002f0: 4084 a6bd 508d 86bd 3d24 38bd 76b1 09bc
00000300: 36d4 07bd f8fb c83d 5476 05bd b76f ab3d
00000310: 042e a53d adb3 0cbd 9c64 c2bd 0c5b ab3d
00000320: f258 27bc 3183 e6bc 1e75 cfbd 9570 b3bd
00000330: 7134 b53d 17e3 f23d d3cb b43b f705 25bd
00000340: de6a e6bd 9551 43bd 43a5 b63d 3532 8dbd
00000350: e7d5 c13d 9b2a 76bd 7626 dbbc 0227 f6bd
00000360: 6fc4 663d b0ec a5bc 7e76 dcbc e2fe 34bd
00000370: 3e12 a0bc 093a 95bd c5bd a03d b9d8 00bc
00000380: 341f bdbd e57e bc3d 2769 12bd 2510 93bd
00000390: bf45 cf3c b14f abbd 0081 a23d cc74 0d3d
000003a0: 58fc 993d 97e2 10bb 7916 ba3d db9f cabc
000003b0: 57ec 9bbd ca82 4abc 2b5e a5bd adab dfbd
000003c0: 3c92 993c 6f30 823d 206d a93d 7711 d6bd
000003d0: 6192 b93b 462a e83d eb2a 9bbd bf34 863d
000003e0: e07a 9e3b e7ed ad3b 1ee3 923c 7c78 a3bd
000003f0: ddbf 36bc 45dd 93bd 6133 c9bc d871 46bd
0.0460018 -0.07346197 -0.029596122 -0.105523065 -0.026190126 0.074903205 -0.06561056 -0.012054184
0.015547827 0.02583183 -0.043887787 -0.01707828 0.040055882 0.03316067 -0.012018781 -0.0857378
-0.059762035 0.09422634 0.0010747933 -0.026648361 -0.06426932 -0.01083412 -0.08790822 0.040001053
0.08225223 0.11744594 0.08867991 -0.02937147 0.012836123 0.100760974 -0.106176935 0.015565466
-0.04827694 -0.100215174 0.04445888 0.08304206 -0.119243994 -0.004996636 0.119125046 -0.050215833
-0.01786149 -0.057649 -0.089839205 -0.00017150895 -0.07769169 -0.11626359 -0.06381147 0.040052127
0.036322717 -0.029773816 0.018392917 -0.061829742 -0.07328888 -0.09890122 -0.04484982 -0.099375196
-0.11519607 0.059746724 -0.09583981 0.015506612 0.10215928 -0.05806188 0.04614964 -0.008471001
-0.012261401 -0.039577454 0.016612688 0.09154124 0.024496496 0.09533969 -0.09252898 -0.030921046
-0.07712847 0.015799206 0.07703724 0.111704364 0.07977129 -0.10468735 -0.03312339 -0.01378921
-0.082597256 0.024106504 0.013918433 0.025756251 -0.10316928 -0.030060137 -0.05790331 0.006575064
-0.072798565 -0.026588786 0.008329778 0.099258065 0.09935049 0.04527576 -0.011060722 -0.08077467
-0.11945066 0.10591917 -0.052292466 -0.047936138 -0.054802228 0.0807367 -0.06672317 0.029214663
0.034861434 0.09855831 -0.11833414 -0.01321129 0.0707615 -0.02670619 -0.041701615 -0.059260663
-0.08960712 0.065717876 -0.10178225 0.100120835 -0.049168233 -0.11571866 -0.092503935 0.110456325
0.056772437 -0.053231798 -0.10641023 -0.0423437 0.09178555 -0.076641224 0.03296778 0.06360679
-0.10463217 -0.054364838 -0.030677246 -0.087857015 -0.11257755 0.0019986632 -0.020198531 0.06342562
0.047825634 -0.02214322 -0.10091685 -0.024106856 0.07108524 0.09302975 0.06404768 -0.09376712
-0.07572889 0.07634828 -0.05375996 0.033281293 0.06633881 -0.09789654 -0.0016925232 0.009969984
0.04976341 0.024538385 -0.07586107 -0.109262444 0.012255864 0.09112344 0.015541755 0.07296677
0.0636064 0.11891309 0.08216659 -0.07144409 -0.033221446 -0.029711615 0.09323585 -0.044469666
-0.0069162752 0.09979833 -0.029803433 -0.043726772 -0.056232136 -0.1202682 0.033363134 0.06092875
-0.120841436 -0.10117495 0.07877774 -0.071659654 0.029364083 0.04749634 -0.09263416 -0.118902475
0.07369579 -0.06047568 -0.032850064 0.09453478 -0.081306934 -0.06569922 -0.044956435 -0.008404126
-0.033161364 0.09813684 -0.03258355 0.08370917 0.080654174 -0.03435104 -0.09491846 0.08366975
-0.010214077 -0.028138729 -0.1012976 -0.08761708 0.08847893 0.1185972 0.005517462 -0.04028889
-0.11250852 -0.047685225 0.0891824 -0.06894342 0.09464627 -0.060099225 -0.026751738 -0.12019159
0.056339677 -0.020254463 -0.02691197 -0.044188388 -0.019539949 -0.0728646 0.07848696 -0.007864171
-0.09234467 0.09203891 -0.035744812 -0.07180814 0.025301812 -0.08364809 0.07934761 0.034535214
0.07518834 -0.0022107714 0.090863176 -0.024734428 -0.076134376 -0.012360284 -0.08074602 -0.109214164
0.018746488 0.06356894 0.08272767 -0.1045255 0.0056632017 0.11336188 -0.07576545 0.06553029
0.004836425 0.005307901 0.017930564 -0.07981965 -0.011154142 -0.07219938 -0.024560632 -0.048448414

fc.bias f4 [128]
00000000: a22b 69bd c101 9abd d218 84bd 58f1 da3c
00000010: 5d05 9dbc fa47 b5bd 58a5 a53d 6015 353c
00000020: 4346 35bd becb 9bbd b5a1 76bd 0d4b 8939
00000030: 3966 c33d 4533 81bd 73e2 1dbc 683e f43b
00000040: 48f9 4bbd 35cc 9fbd 3ac5 583d f035 b43d
00000050: bd53 26bd 38aa 48bd 09ab babd bdbc b2bc
00000060: 9184 b13d 9973 753d d6bf d13d 31a4 a93c
00000070: 20f5 0cbd 186e 03bd 1978 0fbd 4116 403d
00000080: f149 5b3d 7838 393d fb71 2dbd 3230 e63d
00000090: 1bf3 c23d bdd0 003d 3a34 f139 66d9 c2bd
000000a0: d544 6bbd 1154 a13c 7f0f c4bd 51c9 de3c
000000b0: 47b5 99bd 801d eabd f01a 793d 6282 dc3d
000000c0: 34b7 f33d 0a9b 6b3d 35c0 183b 76de e63d
000000d0: bce5 ddbd 7db6 653d db53 e33d 19d6 a13d
000000e0: 67c6 903d 6d32 b03d 3b67 e43d cf05 783d
000000f0: 0cea 023c f5d6 203c e687 4fbd 44c8 d1bd
00000100: b7cd 8ebd bf7c 4ebd 7221 623d 5ca9 95bd
00000110: cb7e 1e3d 67b8 e4bd 1a02 85bd 1d04 a9bd
00000120: f8b8 f43d 6661 acbd 131b d3bd b659 d63d
00000130: 5d86 aebc 95ca b13d 4d6a 8d3d 45b8 7c3d
00000140: b6a1 8fbd 512c e5bc 7f62 073d 6716 d73d
00000150: 2a2e eb3d 9c0d 2abd 9c6d e4bd 5540 d5bd
00000160: b53c a13d 4965 c7bd 7d63 ab3c 0b6d 0c3d
00000170: a755 6abc b9c7 563d 3bfc d03d 6847 0b3d
00000180: 9588 6ebd 55ff 6cbd bbc2 d1bd 55bf 1a3d
00000190: d2ad d8bd 3502 e5bc 522d c43d 206b 763c
000001a0: 6114 c03d 06b0 6f3d 5085 7abd fdac e5bd
000001b0: 72d9 46bd 5f1f 75bd 5bca 4e3d 1ca6 7e3d
000001c0: acd1 5ebd 204e 60bb 020f 1f3d f722 0f3d
000001d0: 83b5 7fbd e42a 903c 4ec3 a2bd 5de4 d2bd
000001e0: f778 8d3c 2095 ed3d d5bb a83c 1851 a9bc
000001f0: 6188 d63d 2e1f c33c 79d1 c6bd 19a8 2f3d
-0.056926377 -0.07519866 -0.064500466 0.02672641 -0.019167596 -0.08851619 0.080881774 0.0110524595
-0.04425646 -0.0760722 -0.06021281 0.00026186593 0.09540982 -0.06308607 -0.009636509 0.0074537285
-0.04979828 -0.07802621 0.052922465 0.0879935 -0.040607203 -0.04899046 -0.091146536 -0.021818513
0.08667863 0.059924696 0.10241668 0.020708175 -0.034413457 -0.032087415 -0.035026643 0.046896223
0.053537313 0.04521987 -0.04234503 0.11239661 0.09519025 0.03144907 0.00046006014 -0.09514122
-0.05743869 0.019693406 -0.09573268 0.027195605 -0.07505279 -0.11431408 0.060816705 0.10767056
0.119001776 0.057520904 0.0023307924 0.112729 -0.10834834 0.056082238 0.110999785 0.07902164
0.07069092 0.08603368 0.11152502 0.060552415 0.007990371 0.009816875 -0.050666712 -0.10243276
-0.06972831 -0.050411936 0.055207677 -0.07307693 0.038695138 -0.111679845 -0.064945415 -0.08252738
0.119493425 -0.08417015 -0.10307898 0.1046633 -0.021304304 0.086812176 0.06905041 0.06169917
-0.07013266 -0.027975233 0.033052918 0.1050232 0.114834145 -0.041516885 -0.11153719 -0.10412661
0.07872907 -0.097361155 0.020921463 0.03428368 -0.014302648 0.052436564 0.10204359 0.034003645
-0.058235724 -0.05786069 -0.1024222 0.037780125 -0.105800286 -0.027955154 0.09578957 0.015040189
0.09378887 0.05851748 -0.061162293 -0.112146355 -0.048547216 -0.05984437 0.05048595 0.062170133
-0.054399177 -0.0034226254 0.038832672 0.034945454 -0.062428962 0.017598577 -0.07947408 -0.10297463
0.017269595 0.11600709 0.020597378 -0.020668551 0.10475231 0.023818579 -0.097079225 0.04288492

actor.weight f4 [4, 128]
00000000: b67b 153d 68dc 94bd 88bd e0bc f9e4 58bd
00000010: f121 5ebc b845 d43c ca2e 1cbc 547a 153c
00000020: 02be d7bc 13b6 b03d 76f6 d3bc 2a3c 3bbd
00000030: 043a 57bd 4f62 90bd 7382 d0bc 1db8 803c
00000040: 52c4 8fbd 14ef baba 1d8d a4bd 8d70 2a3d
00000050: b5a3 643d d80f a03d b22d 433c 0f80 853d
00000060: 3fbd b2bd 65cf 8fbd b4e2 7cbd b271 18bd
00000070: 3319 61bd 45af 833d ff00 10bd 80f0 023d
00000080: 6147 abbd cc14 623d 8909 82bd c772 213d
00000090: d5ea b3bd 8fda 513c 8429 87bd 8959 653b
000000a0: 4695 5fbd eadd f8ba aa37 b2bd 7e72 a63d
000000b0: 72b7 f2bc 3659 613c 184c 96bd 0b53 77bc
000000c0: b9c1 463c fab5 79bd 1775 92bc 15ec a2bb
000000d0: 80b8 1abc 3a6b 333d 5786 95bd 53a6 623c
000000e0: c006 b0bd d63c a4bc ee4e 94bd 4f9f 693d
000000f0: 5104 bc3c d36a b1bd 32ef 293d f840 973d
00000100: e46b 0e3d 23c3 69ba 4bd4 1cbd dead 0a3d
00000110: 2c56 7d3c b161 1c3d 7a16 75bd 2279 e33c
00000120: f94d 303d 9bcb 993c f4d5 09bd e258 863d
00000130: 2532 01bd ba13 643d 837d 0b3d 0512 603d
00000140: 5fe8 adbd af2d 22bd b730 af3a 354d 3c3d
00000150: a523 363d 0f6b 9ebc a6f9 9b3d 4b9e 80bc
00000160: 3e65 c7bc edf7 99bd 02ec a5bd 4c4e b3bd
00000170: 780c ad3c b781 88bd e8cc 78bd 59fc 593c
00000180: 5349 97bc 3f02 213d 8996 3bbd afc0 77bc
00000190: f8ed a93d 01d3 c6bc 1f8b 883c 1609 bdbc
000001a0: 6ccf f13c 2f62 493d feed 18bd 230d 363d
000001b0: ff41 8e3c 368b c8bc 4a83 733c 1de7 3ebd
000001c0: 1df1 39bc a9b5 1e3c aaa6 9dbc 017a 63bd
000001d0: 1fbe ae3d 7ca2 33bd 5c7f 9ebd 9254 abbd
000001e0: acd0 f8bc 832f f6bc c6a7 823d ebd7 51bd
000001f0: b9ba 903c 97af edbc f055 3b3d b500 1fbd
00000200: 9b07 dc3c 6987 eabc 46dc fa3a 9bf6 25bb
00000210: 41bd 16bd 1d48 3c3b 2eb6 87bc db2d 953d
00000220: 9752 2f3d 3796 38bd 012c 0b3b 8c3e 61bb
00000230: cbe2 e83c 5bd8 b3bd f24e 153d 239f 063d
00000240: b259 883d ea6b b0bd 4ce7 cc3c 3e4e b13d
00000250: a07f 5ebd a1c1 913c 0db6 43bc 9499 29bd
00000260: 99b0 71bc 823f 3d3d e22b 903d 0da5 723d
00000270: 6568 50bd 135a 6bbc 770d 603c c303 243d
00000280: e673 333d 2cf9 b03d 48f0 f7bc 866b 81b9
00000290: 4c1e 003d 23f8 b1bb f727 54bd 8c1f 3e3d
000002a0: 6b2d 01bd 90d3 5d3d 928f 11bc 531f 603d
000002b0: cbbc acbd 22f8 edbb d05a f93c fda7 983d
000002c0: a4c0 97bc 4de3 0bbd e886 93bd ff98 a43d
000002d0: 5927 6dbd 613d 70bd 652b b0bd 38cc a8bd
000002e0: 8c09 4ebd a51f 493d 6c8c 23bc 83eb 053d
000002f0: 21b5 6fbd 011f abbc 1a7e 94bc 1811 883d
00000300: 067e b23d ddaf c4bc 1fbd 603b ab19 c2bc
00000310: ac88 643d 4740 333d 5017 c8bc 50a3 b03d
00000320: 2b11 bdbc 8875 a03c 3d63 403c 7891 7fbd
00000330: 2109 a83d a90b 73bd b2ab 7bbc 693a 36bd
00000340: 67d9 dc3c f72e 803d bfc8 29bc 1a1f 31bd
00000350: 2ebb ab3d 7ea8 99bd 6688 cdbc 5f54 583c
00000360: a265 ad3d 4637 94bd f09d 503d e0b5 b1bd
00000370: bf3a 693d 7e89 acbd a7e8 4c3c 1538 e53c
00000380: 807e 32bd 1eda a6bd 2d96 c9bc 3cfa 573d
00000390: aab4 733d ff93 783d 11f5 ba3c b967 143d
000003a0: 2525 a8bd 7526 a5bd 3e9e 2dbb 4e72 29bd
000003b0: 873e 3bbb 5fd1 87bd c6ce 043d 512a 273d
000003c0: e209 87bc 9879 9d3d db65 5bbc 7e78 b43d
000003d0: 2346 913d 63e2 49bd 3162 5b3c 8157 e23c
000003e0: 39a2 d33c 72ea b23c 3f2d 6d3d 6b19 32bd
000003f0: 063a 613d 3f62 42bc c220 c83c 59b4 a93d
0.036494933 -0.07268602 -0.027434126 -0.05295274 -0.013557897 0.02591215 -0.00953264 0.009123404
-0.02633572 0.08628478 -0.025874358 -0.045711674 -0.052545562 -0.07050001 -0.025452828 0.015712792
-0.07019867 -0.0014261925 -0.08034728 0.041611243 0.055820186 0.07815522 0.01191275 0.06518566
-0.08727502 -0.07021979 -0.06173964 -0.037217803 -0.054955672 0.064299144 -0.0351572 0.03196764
-0.08363224 0.055195615 -0.06349475 0.0394161 -0.08785025 0.012808456 -0.06599715 0.0034995994
-0.054585718 -0.0018987034 -0.08702023 0.081273064 -0.02962849 0.01375418 -0.073387325 -0.015095483
0.012131148 -0.060964562 -0.017878098 -0.004971991 -0.009443402 0.04380343 -0.07301014 0.0138336
-0.085950375 -0.02004854 -0.07241617 0.057036694 0.022951277 -0.08662953 0.04148788 0.07385439
0.03477086 -0.0008917322 -0.038288396 0.03385722 0.0154624395 0.038179103 -0.05983589 0.027767722
0.04304311 0.018773844 -0.033651307 0.06559922 -0.031541962 0.055682875 0.034055244 0.054704685
-0.08491587 -0.03959435 0.0013365959 0.045972068 0.044467587 -0.019338159 0.07615976 -0.01570048
-0.024340268 -0.07517991 -0.081016555 -0.08755168 0.02112411 -0.06665366 -0.06074229 0.013304793
-0.01846758 0.039308783 -0.04579786 -0.015121623 0.08297342 -0.024270536 0.0166679 -0.023075622
0.029517852 0.0491659 -0.037336342 0.044446122 0.017365454 -0.024480443 0.014862845 -0.046607126
-0.01134899 0.009686866 -0.01924451 -0.055536274 0.085323565 -0.04385613 -0.077391356 -0.0836574
-0.03037294 -0.030051952 0.063796565 -0.051231306 0.017667161 -0.029014392 0.045736253 -0.038819034
0.026859095 -0.028629022 0.0019139133 -0.002532399 -0.03680158 0.0028729506 -0.016566362 0.07284137
0.042803373 -0.04506513 0.0021235945 -0.0034369556 0.028428456 -0.08781501 0.03645224 0.03286661
0.06657733 -0.08614333 0.025012635 0.08657502 -0.05432093 0.017792525 -0.01194526 -0.04140623
-0.014751577 0.046203144 0.0703962 0.059239436 -0.05088081 -0.014364737 0.013675085 0.04004265
0.0438117 0.08641276 -0.030265942 -0.0002468491 0.031278893 -0.0054311915 -0.051795926 0.046416804
-0.031537455 0.05415684 -0.0088843275 0.054717373 -0.08434447 -0.0072622458 0.03043881 0.07453916
-0.018524475 -0.034152318 -0.07203466 0.08036994 -0.057898853 -0.058652285 -0.08602027 -0.08242077
-0.050302073 0.049102444 -0.00998221 0.032695305 -0.058522347 -0.020888807 -0.018126536 0.066438854
0.08715443 -0.02400964 0.0034292412 -0.02369388 0.055794403 0.04376247 -0.024425179 0.086248994
-0.023079475 0.019587293 0.01174241 -0.06239459 0.08204866 -0.059337292 -0.01536076 -0.044489298
0.026959134 0.06258958 -0.010362803 -0.04324255 0.08385311 -0.075028405 -0.025089454 0.013203709
0.084666505 -0.07237105 0.05093187 -0.08677268 0.05694079 -0.08424662 0.0125066405 0.027980844
-0.04357767 -0.08147071 -0.024607742 0.052728876 0.059498467 0.060688015 0.022821935 0.03623173
-0.0821021 -0.08063976 -0.0026492025 -0.041368775 -0.0028571205 -0.06631731 0.032423757 0.04081184
-0.016484205 0.07689208 -0.013390983 0.088120446 0.07093456 -0.049288165 0.01339011 0.027629616
0.02583419 0.021840308 0.05790448 -0.04348127 0.054986976 -0.011864244 0.024429683 0.08286352

actor.bias f4 [4]
00000000: c1e4 c5ba 18a4 b33c 53ff ab3d e65c acbc
-0.0015098081 0.021928832 0.083983086 -0.021040391

critic.weight f4 [1, 128]
00000000: bc40 20bb 7211 ad3d 2e12 073d 0c36 273c
00000010: 3543 4a3b 4a37 0f3d fea0 38bd 4430 8bbd
00000020: 8c7d 69ba 83f5 24bd a664 66bd 8e9b 80bb
00000030: 8138 a3bd 7303 a1bd 9c74 963d 8061 44bc
00000040: 1e64 8fbd baaa f7bc 3577 da3c e311 8d3c
00000050: 5d10 9e3c a6a8 96bd 5519 34bd 4fb0 cf3c
00000060: bb82 26bd 7e51 893d af22 0d3c 4122 3c3d
00000070: c30f 8b3d b253 a0bc 554c 8bbc d685 5d3c
00000080: 1b62 28bd d1f3 c23c 9f54 9abd 8da5 783d
00000090: a4b7 5dbc 729a d13c 3948 683d 8503 4c3d
000000a0: dc82 3abd d6bc 71bc 23c2 aabb 4e16 5e3d
000000b0: 4f5e 1f3d be0c c83c f988 2a3d fce5 28bb
000000c0: 3720 a83d 4f4a abbd 1bf1 873c a244 50ba
000000d0: d521 62bc 58c7 77bc dca0 1dbd 96f1 76bd
000000e0: ac01 233c acb5 a33d 717e 6c3d 132f 67bc
000000f0: b7eb c23c 309f 803b 9e42 b0bd 5ba6 5dbd
00000100: ff95 923d d489 9e3c 2a84 af3c c639 423d
00000110: 6753 85bb 32a6 6abd 335a 0d3d 298f 8cbd
00000120: f6f9 a93d e53c 90bd 8410 3f3d cb1c c93c
00000130: 0136 94bd 5adf 98bd 2b07 33bb 6f1a 6e3d
00000140: 39b5 13bc a4bd 173c 1f32 36bc 9a75 33bd
00000150: 0efa 8dbd af8c 9a3d c9f5 0ebd 2c5a a7bc
00000160: ecc7 66bd 5b2f 043d 618e 63bd 9f2e 15bd
00000170: aa80 7dbc 101f 25bc 0b07 b13d cfa6 7bbd
00000180: b952 29bd 1177 0a3d 0331 d2bc eade 98bc
00000190: 514e 0cbc b920 30bb a034 27bc fbd0 b03d
000001a0: e156 38bd 0536 ac3d f6db 823d cce9 df3c
000001b0: 3513 76bd 23ce fabc bbfb 7fbd 54b8 923d
000001c0: 1474 dbbc fa52 0dbd 798b 9dbd cd8c 893d
000001d0: 15cd 5f3d 15d2 8fbd afe8 45bd bf48 0c3d
000001e0: 51a1 e03c c0f7 933d 737a e8bc 85de 3abd
000001f0: 63b2 0cbd ece1 bf3a 59b7 943d dd20 a33c
-0.0024452647 0.08450593 0.032976322 0.010205757 0.0030862812 0.034964837 -0.04507541 -0.06796315
-0.00089069526 -0.0402732 -0.05624833 -0.0039247936 -0.07969762 -0.07861986 0.0734646 -0.011986136
-0.07001518 -0.030232776 0.02666817 0.017220443 0.019294912 -0.07356386 -0.04396947 0.025352625
-0.040652018 0.067049965 0.008614226 0.045931105 0.06790116 -0.019571159 -0.017004171 0.0135206785
-0.041109186 0.023797901 -0.075356714 0.060704757 -0.013532553 0.02558634 0.056709502 0.049808044
-0.045534953 -0.014754495 -0.005211131 0.05422049 0.0389083 0.024420138 0.041634534 -0.0025771847
0.082092695 -0.083637826 0.01659446 -0.00079447974 -0.0138020115 -0.015123211 -0.038483486 -0.060288988
0.009949129 0.079936355 0.05773777 -0.014110344 0.023794038 0.0039252266 -0.08606456 -0.054113727
0.07157516 0.019352831 0.021425325 0.04741838 -0.00406878 -0.057287402 0.03450985 -0.06863243
0.082996294 -0.07042865 0.04664661 0.024549862 -0.07236863 -0.07464476 -0.0027317505 0.058130678
-0.009015375 0.009261522 -0.011120348 -0.043813325 -0.0693246 0.075463645 -0.034902368 -0.02042874
-0.056343004 0.032271724 -0.055555705 -0.036421414 -0.01547257 -0.010078207 0.086439215 -0.061438378
-0.041338656 0.033804957 -0.025658136 -0.018660981 -0.008563594 -0.0026874973 -0.010205418 0.0863361
-0.04500473 0.08408741 0.063896105 0.027333163 -0.06007691 -0.030615872 -0.06249593 0.07164064
-0.026788749 -0.03450296 -0.07692618 0.06716309 0.05463894 -0.07022492 -0.048317607 0.034249064
0.027420672 0.07224989 -0.0283787 -0.045622367 -0.03434981 0.0014639474 0.07261533 0.019913131
