models/resilience/nn/PPL/agent1.pth (torch, 40580 bytes, 5 tensors)

fc.weight f4 [128, 68]
0.07382691 -0.12038748 0.09656292 0.0169542 -0.08217837 -0.09137331 0.05202668 -0.07803019
-0.10834061 0.108710825 0.049860805 0.04926651 0.07096774 -0.06968846 -0.040558685 0.09507972
0.07609241 -0.030822936 0.029124385 -0.070850715 -0.00432252 0.08321779 -0.08446859 -0.09210918
0.012535671 -0.06928876 -0.06468881 0.062117983 0.07589385 -0.09295319 -0.10217666 -0.09622814
0.114862435 -0.01111582 0.05095467 -0.107554264 -0.017102798 -0.002329987 -0.09111164 0.01722359
-0.094401576 -0.11507684 -0.06638318 0.01263813 -0.105140045 -0.030463858 -0.109712265 0.024818432
0.08966698 0.07900206 0.113610454 0.02825539 -0.11143087 0.112862036 0.014679151 0.10777958
-0.07334757 -0.040214177 -0.093834996 0.057643007 -0.022394972 0.019556327 0.06945245 0.06423081
0.021775536 0.08171901 -0.07009516 -0.104445726 -0.051137827 -0.04925086 -0.052624047 0.11324855
0.018514423 -0.061608747 0.045719724 -0.044826142 0.08098317 -0.10924124 -0.02307664 0.045485143
0.10679528 0.00050630124 0.048928693 -0.10728898 0.05890696 0.028621856 0.08637139 -0.08876828
-0.07417832 -0.06000406 -0.021111907 0.006253042 -0.05010163 0.046931867 -0.05200753 0.03180667
0.09341585 -0.09030922 -0.09630031 0.071199276 0.10032193 0.0065585 -0.0033327052 0.048438456
-0.11755348 0.10429352 0.11193315 -0.10302576 0.03636447 0.087533705 0.0732296 0.038022783
-0.0007224077 -0.0042553707 0.068855494 0.09653912 0.02347793 -0.05754806 0.01416763 -0.02174593
0.099497974 -0.10060886 0.081827864 0.00434909 0.06424607 0.078424156 -0.015008623 -0.0018728939
-0.03610252 0.021363243 -0.11419726 0.120632604 -0.11216695 0.03579541 -0.10793234 -0.023733476
0.057495207 -0.005838375 0.09940484 0.0793435 0.013231183 -0.07114535 -0.034112412 0.008917511
0.03469267 0.027893694 -0.03349857 -0.06812145 -0.080516875 0.09031266 -0.033129055 0.013174283
-0.08512982 0.10163988 0.0600791 -0.022598948 0.06157703 -0.006458315 -0.05794678 -0.06394381
0.042544227 0.018826446 0.049260378 0.04240602 0.054339785 -0.06513023 0.10861659 -0.011915373
-0.03571914 -0.056683864 0.06892156 -0.04651703 -0.11480595 -0.027409652 0.097695835 0.056861322
0.10100651 -0.04511225 -0.044022113 0.06660435 -0.04490523 0.08253167 -0.011940775 -0.016290829
0.057366036 0.0034928177 0.034358516 -0.08408475 0.09680241 0.10242802 0.07267946 -0.028946051
0.02923827 -0.011558306 0.045824375 -0.1204366 0.10459066 -0.11705163 -0.017786117 0.017925128
0.017706187 0.043578234 0.03242145 0.025299968 0.053983297 -0.029316977 0.0007539535 -0.04824094
0.0068411743 -0.05288576 0.012733253 0.036861513 -0.01741796 0.04450157 0.07339503 0.07436647
-0.009287693 -0.0641782 0.10171277 0.054594245 -0.07899748 0.06912529 -0.03056891 -0.10753634
0.0888301 -0.01999256 -0.0071649365 0.11185944 0.040137406 -0.117071584 -0.10455052 0.10034229
-0.018343722 -0.00050536287 0.08706963 -0.057315264 0.08328251 0.01614112 -0.014460191 0.06412811
-0.009135352 0.077281736 0.107038215 0.014102552 0.026718227 0.004887715 -0.06617088 -0.101048864
-0.011075641 0.095384575 -0.027819911 0.099117026 0.05936406 0.0119779855 0.071982466 0.11115734
00000000: 9032 973d b68d f6bd c8c2 c53d 89e3 8a3c
00000010: 224d a8bd ee21 bbbd ee19 553d 4bce 9fbd
00000020: afe1 ddbd c8a3 de3d d83a 4c3d aecb 493d
00000030: 8957 913d d3b8 8ebd dd20 26bd 28b9 c23d
00000040: 56d6 9b3d 6280 fcbc 4396 ee3c 2e1a 91bd
00000050: eda3 8dbb 176e aa3d defd acbd bda3 bcbd
00000060: 6a62 4d3c 44e7 8dbd 917b 84bd 6d6f 7e3d
00000070: 3c6e 9b3d 3e5e bebd ff41 d1bd 4213 c5bd
00000080: ff3c eb3d 211f 36bc d8b5 503d 6945 dcbd
00000090: 2b1b 8cbc b2b2 18bb bd98 babd 7c18 8d3c
000000a0: 9d55 c1bd 68ad ebbd e8f3 87bd 2910 4f3c
000000b0: aa53 d7bd 578f f9bc d3b0 e0bd 0650 cb3c
000000c0: 52a3 b73d d5cb a13d 99ac e83d d977 e73c
000000d0: de35 e4bd 3624 e73d d280 703c 8abb dc3d
000000e0: 4037 96bd 9fb7 24bd 902c c0bd 131b 6c3d
000000f0: a975 b7bc 9734 a03c 163d 8e3d 718b 833d
00000100: 9c62 b23c 4c5c a73d 0d8e 8fbd a4e7 d5bd
00000110: e675 51bd 45bb 49bd 508c 57bd dbee e73d
00000120: 8fab 973c 7459 7cbd 9b44 3b3d 9e9b 37bd
00000130: 81da a53d dfb9 dfbd 390b bdbc a14e 3a3d
00000140: 7cb7 da3d 4db9 043a 7469 483d 53ba dbbd
00000150: 6d48 713d 6278 ea3c 7ce3 b03d 25cc b5bd
00000160: ceea 97bd d1c6 75bd e1f2 acbc 51e6 cc3b
00000170: 5e37 4dbd a13b 403d d905 55bd b647 023d
00000180: cf50 bf3d 0af4 b8bd 1939 c5bd edd0 913d
00000190: 9675 cd3d b0e8 d63b 8469 5abb 6767 463d
000001a0: e1bf f0bd d797 d53d 353d e53d 2bff d2bd
000001b0: e9f2 143d df44 b33d 67f9 953d c7bd 1b3d
000001c0: f65f 3dba a370 8bbb 1c04 8d3d 4db6 c53d
000001d0: ca54 c03c 84b7 6bbd 591f 683c 8524 b2bc
000001e0: 98c5 cb3d 050c cebd 5e95 a73d d082 8e3b
000001f0: 7293 833d d89c a03d bae6 75bc e47b f5ba
00000200: 3ce0 13bd f801 af3c 41e0 e9bd 3a0e f73d
00000210: c9b7 e5bd 359e 123d a10b ddbd b56c c2bc
00000220: 1880 6b3d d74f bfbb c494 cb3d d87e a23d
00000230: 9bc7 583c a7b4 91bd 75b9 0bbd c11a 123c
00000240: e719 0e3d 5181 e43c cc35 09bd 4283 8bbd
00000250: 08e6 a4bd d8f5 b83d 55b2 07bd f3d8 573c
00000260: 8b58 aebd 9228 d03d 8115 763d 6e21 b9bc
00000270: 3238 7c3d 46a0 d3bb 9a59 6dbd f9f4 82bd
00000280: db42 2e3d eb39 9a3c 40c5 493d efb1 2d3d
00000290: 6593 5e3d ff62 85bd 6072 de3d b238 43bc
000002a0: 3c4e 12bd 572d 68bd bf26 8d3d a488 3ebd
000002b0: 621f ebbd 358a e0bc c114 c83d 6be7 683d
000002c0: 80dc ce3d 9fc7 38bd 8850 34bd dd67 883d
000002d0: 8cee 37bd 5d06 a93d 3ea3 43bc 5874 85bc
000002e0: a6f8 6a3d c2e7 643b 84bb 0c3d a034 acbd
000002f0: 5840 c63d c8c5 d13d f8d8 943d 4520 edbc
00000300: 1985 ef3c 0d5f 3dbc 57b2 3b3d 77a7 f6bd
00000310: a133 d63d c4b8 efbd 31b4 91bc b8d7 923c
00000320: 910c 913c 177f 323d 5bcc 043d e141 cf3c
00000330: 971d 5d3d 282a f0bc f7a4 453a 4b98 45bd
00000340: ee2b e03b bd9e 58bd 229f 503c 19fc 163d
00000350: 1cb0 8ebc 4747 363d 2250 963d 734d 983d
00000360: 682b 18bc dc6f 83bd c94e d03d 379e 5f3d
00000370: 6ec9 a1bd 8f91 8d3d a76b fabc 033c dcbd
00000380: 8eec b53d 70c7 a3bc d8c7 eabb 9016 e53d
00000390: 1f67 243d 3ac3 efbd 951e d6bd 4280 cd3d
000003a0: 9345 96bc 547a 04ba 9051 b23d 69c3 6abd
000003b0: 0590 aa3d 623a 843c 70ea 6cbc 9955 833d
000003c0: 72ac 15bc e345 9e3d da36 db3d 640e 673c
000003d0: 2fe0 da3c 2029 a03b 9984 87bd b5f2 cebd
000003e0: 9b76 35bc fd58 c33d 95e6 e3bc defd ca3d
000003f0: bb27 733d 503f 443c 8b6b 933d 76a6 e33d

fc.bias f4 [128]
-0.11168448 0.03113433 -0.08402862 0.054576535 -0.10895094 0.05552171 0.07161802 0.043826625
-0.07039572 -0.07786948 0.07845542 0.002165624 0.078323185 0.06346483 -0.11048968 0.017674478
-0.0432146 -0.049289223 0.049572494 -0.061663665 0.038062695 -0.047367852 -0.09948674 -0.0007144885
0.070340596 -0.019340493 -0.09309657 -0.06362573 -0.06870044 0.07913713 0.10337169 0.0059541385
0.01334559 -0.08659617 0.11105905 0.111357525 0.119816855 -0.097089976 0.11426684 -0.041590672
0.017412454 0.042683102 0.026891105 0.11359636 0.04798778 0.09717774 0.11836389 -0.11910543
-0.009955469 -0.019825926 -0.10027721 0.077525854 0.014454813 -0.0035784412 -0.07721685 0.06427071
-0.04634812 -0.017564267 -0.11890537 -0.016008278 0.06997484 -0.023675047 0.06129333 0.11693268
0.031684417 -0.11771875 0.06114936 -0.10951767 -0.05128901 -0.100369394 -0.010415759 0.10386052
-0.09355447 0.06613191 0.03929691 -0.10248772 -0.10627962 -0.11172933 0.011604843 0.07622568
0.020043222 0.10751728 -0.10354806 -0.028405366 0.08990001 -0.014786736 -0.0969654 -0.07236465
0.029380908 0.10161297 0.039949153 -0.08392019 0.012955251 -0.09286835 -0.07948911 -0.11741141
0.01530816 0.047614224 -0.062350113 0.059270598 -0.017781148 -0.058137253 0.01986014 -0.06296942
0.043161284 0.06573782 -0.11159516 0.02598966 0.048135966 -0.085869 0.11471575 -0.1026046
-0.007367788 0.11357097 0.056063265 0.08888489 0.06014759 -0.06710394 0.045756515 0.00061210064
0.01464947 -0.030731726 -0.060536213 -0.008250266 0.022589127 0.00946644 0.004622716 0.012543111
00000000: d5ba e4bd 6c0d ff3c 3217 acbd a58b 5f3d
00000010: ac21 dfbd bc6a 633d 78ac 923d 8c83 333d
00000020: a22b 90bd 097a 9fbd 3cad a03d 24ed 0d3b
00000030: e867 a03d d9f9 813d 6a48 e2bd 11ca 903c
00000040: cb01 31bd 7fe3 49bd 870c 4b3d 0a93 7cbd
00000050: a1e7 1b3d cb04 42bd b4bf cbbd 834c 3bba
00000060: bb0e 903d f46f 9ebc 6aa9 bebd 354e 82bd
00000070: d1b2 8cbd a612 a23d 89b4 d33d ef1a c33b
00000080: 76a7 5a3c 5559 b1bd ed72 e33d 6a0f e43d
00000090: 8a62 f53d 1cd7 c6bd bc04 ea3d fb5a 2abd
000000a0: 90a4 8e3c 7ad4 2e3d bc4a dc3c 35a5 e83d
000000b0: d68e 443d 1f05 c73d c468 f23d 8ced f3bd
000000c0: 431c 23bc fb69 a2bc 235e cdbd e0c5 9e3d
000000d0: e1d3 6c3c 4884 6abb de23 9ebd 5da0 833d
000000e0: 87d7 3dbd f0e2 8fbc a984 f3bd cb23 83bc
000000f0: f84e 8f3d 2cf2 c1bc b70e 7b3d 677a ef3d
00000100: 85c7 013d 8716 f1bd c077 7a3d cd4a e0bd
00000110: 6d14 52bd 788e cdbd dca6 2abc d3b4 d43d
00000120: 7c99 bfbd 2b70 873d ccf5 203d 15e5 d1bd
00000130: 21a9 d9bd 59d2 e4bd 3d22 3e3c 361c 9c3d
00000140: af31 a43c 0532 dc3d 0111 d4bd 5fb2 e8bc
00000150: 7f1d b83d 1144 72bc cc95 c6bd eb33 94bd
00000160: 3bb0 f03c 761a d03d b9a1 233d 59de abbd
00000170: 4342 543c c331 bebd 30cb a2bd 6575 f0bd
00000180: 14cf 7a3c 2207 433d d562 7fbd bac5 723d
00000190: c5a9 91bc 5421 6ebd bbb1 a23c 1cf6 80bd
000001a0: e3c9 303d 8da1 863d 018c e4bd 44e8 d43c
000001b0: 382a 453d 16dc afbd 17f0 ea3d 5c22 d2bd
000001c0: 7c6d f1bb e697 e83d 98a2 653d 4809 b63d
000001d0: 525d 763d ca6d 89bd 2f6b 3b3d 6175 203a
000001e0: 5504 703c 1ac1 fbbc d2f4 77bd 202c 07bc
000001f0: d50c b93c 2119 1b3c 277a 973b 9f81 4d3c

actor.weight f4 [4, 128]
0.034595214 -0.080377474 -0.07398146 -0.00300826 0.014169723 -0.02074363 -0.05698889 0.07973091
0.012017824 -0.024271151 0.06556496 0.027083784 0.05590624 -0.048514124 0.028722094 -0.07561229
0.0031621875 0.080890246 -0.035810664 -0.013430858 0.0783366 -0.048045956 0.03305584 0.07168025
-0.043786876 -0.065239385 0.08194636 -0.0050232965 -0.028118152 0.02441955 0.06161916 0.04273887
-0.049772993 0.07860688 0.06698585 -0.055437144 -0.0029088238 0.0519848 -0.031919096 0.0808053
-0.005245886 0.006388678 0.07794544 0.06643425 -0.06607459 -0.06288561 0.027828112 -0.017065011
0.055244662 -0.071719974 -0.0467309 0.058633283 0.060955416 0.01759197 -0.009484202 0.027452637
-0.027200146 0.057777546 0.02886796 0.05564589 0.018234087 -0.05474539 -0.035169046 0.04477265
-0.06301061 -0.048218947 -0.024846446 -0.05324058 -0.03849565 0.055361453 0.0078086024 -0.0045518395
0.007635533 -0.08240146 -0.07238797 0.08503489 0.047991183 0.046066638 -0.048137713 0.06079662
0.07828366 -0.07774587 -0.048918832 0.054455925 -0.06435514 -0.027368814 -0.04771685 0.029123547
-0.059759274 -0.04961788 -0.08696736 0.034805194 0.0062475284 0.039576523 0.088052094 -0.05628579
-0.0031269973 -0.04969878 -0.03916141 0.08407338 0.043582838 -0.03483878 0.028389752 -0.009891543
0.06632652 0.017396515 0.08176414 0.008550357 -0.08774001 0.0025878393 0.08308273 0.060139623
0.08816298 -0.069303244 0.085189275 -0.030998887 0.012225015 0.06385384 0.075811364 -0.047141142
0.03502808 0.068614505 0.08783067 0.01232855 -0.056837276 0.03316344 -0.02199253 0.054986704
-0.059040796 -0.08062276 -0.05472892 0.067824446 -0.07071818 -0.079863794 0.04286048 -0.02892623
-0.028621353 -0.013031554 0.037086204 0.009794987 0.022612993 0.051747702 0.055364456 0.008703025
-0.07552994 -0.03510984 -0.03229142 -0.07894434 0.027026134 -0.042061064 -0.01570761 -0.061937083
5.761693e-05 -0.07081378 0.06661836 -0.0074706296 -0.07941566 -0.066292986 0.06493203 0.01281606
-0.087194666 0.01140009 -0.013597175 0.07989032 0.06197198 0.07084016 -0.0079553295 0.072312
-0.017171526 0.050976805 -0.03160945 0.08317581 -0.016887253 -0.07798013 -0.05850698 0.011313884
0.07920933 0.014147882 -0.07818295 0.07549394 -0.08525511 0.05436986 0.047439367 -0.030601967
-0.035519574 -0.043441992 0.07516725 -0.012382887 0.047197077 -0.05321636 0.087045476 -0.033257864
-0.04776343 -0.006815662 -0.011789906 0.021339918 0.0020496158 0.018473588 -0.0050310157 -0.07281986
-0.028040504 -0.033722933 -0.036756866 -0.06286071 0.026493048 0.04477162 -0.08081717 0.06468747
-0.05532793 -0.033394482 -0.0064027514 -0.071864516 -0.069312364 -0.030968493 -0.06298296 0.06800665
-0.025831958 0.025732925 0.04542722 0.071379304 0.061511636 0.027300062 0.0330534 -0.03568541
-0.012128869 0.04129623 0.0120804645 0.06859287 0.041418504 -0.034889746 0.07455723 0.04295455
0.0402545 0.08372552 0.08142855 -0.016993694 -0.042228144 -0.048342388 -0.08725707 0.06740275
0.026704593 0.08189048 -0.02517012 0.048104957 0.08217389 0.038083747 -0.013271955 -0.0018279881
-0.01953441 -0.004645318 0.004662115 -0.045331765 0.0325623 -0.025229434 0.088366196 -0.05669957
00000000: b6b3 0d3d f29c a4bd 9783 97bd 3a26 45bb
00000010: 2028 683c 8cee a9bc 2f6d 69bd f649 a33d
00000020: 68e6 443c 4bd4 c6bc ec46 863d d0de dd3c
00000030: f1fd 643d bfb6 46bd 994a eb3c 9eda 9abd
00000040: b43c 4f3b c9a9 a53d 34ae 12bd 1a0d 5cbc
00000050: f06e a03d d6cb 44bd 8f65 073d 18cd 923d
00000060: de59 33bd 3a9c 85bd 7ed3 a73d 779a a4bb
00000070: 0a58 e6bc 820b c83c 5f64 7c3d f40e 2f3d
00000080: c4de 4bbd a5fc a03d e12f 893d 0f12 63bd
00000090: f7a1 3ebb 03ee 543d 99bd 02bd 407d a53d
000000a0: aee5 abbb 1e58 d13b dca1 9f3d ae0e 883d
000000b0: 1d52 87bd 2cca 80bd c8f7 e33c eccb 8bbc
000000c0: 3a48 623d ece1 92bd e668 3fbd 7429 703d
000000d0: 63ac 793d 091d 903c a063 1bbc 5ae4 e03c
000000e0: d7d2 debc 26a8 6c3d 807c ec3c f2ec 633d
000000f0: a75f 953c b43c 60bd 6b0d 10bd 8763 373d
00000100: b50b 81bd 3b81 45bd c68a cbbc cb12 5abd
00000110: 9dad 1dbd b1c2 623d 4edf ff3b 9927 95bb
00000120: 7e33 fa3b 19c2 a8bd 2540 94bd c626 ae3d
00000130: 6792 443d 5fb0 3c3d 0d2c 45bd e005 793d
00000140: 2f53 a03d 3a39 9fbd 1d5f 48bd 2d0d 5f3d
00000150: a1cc 83bd 9034 e0bc be72 43bd 8194 ee3c
00000160: 24c6 74bd 1e3c 4bbd f11b b2bd e48f 0e3d
00000170: 11b8 cc3b fe1a 223d a854 b43d ee8b 66bd
00000180: 4fee 4cbb f390 4bbd b767 20bd aa2e ac3d
00000190: eb83 323d 1cb3 0ebd a091 e83c 2310 22bc
000001a0: 33d6 873d 2383 8e3c f573 a73d cc16 0c3c
000001b0: 09b1 b3bd bd98 293b 4727 aa3d f754 763d
000001c0: cb8e b43d dcee 8dbd b777 ae3d 61f1 fdbc
000001d0: 6e4b 483c cdc5 823d fd42 9b3d 1217 41bd
000001e0: 9b79 0f3d c385 8c3d 91e0 b33d b0fd 493c
000001f0: 34ce 68bd 63d6 073d ae29 b4bc bd39 613d
00000200: c3d4 71bd 8c1d a5bd 6f2b 60bd 8be7 8a3d
00000210: b1d4 90bd a18f a3bd 788e 2f3d b3f6 ecbc
00000220: 5477 eabc 4d82 55bc b4e7 173d 277b 203c
00000230: e23e b93c 66f5 533d d7c5 623d 2297 0e3c
00000240: 71af 9abd 56cf 0fbd 0244 04bd 92ad a1bd
00000250: e965 dd3c 3948 2cbd 3fad 80bc bdb1 7dbd
00000260: b5a9 7138 d106 91bd 356f 883d 2fcc f4bb
00000270: ada4 a2bd 9ec4 87bd 16fb 843d 74fa 513c
00000280: 1e93 b2bd 71c7 3a3c afc6 5ebc 899d a33d
00000290: 55d6 7d3d a514 913d 1257 02bc 5018 943d
000002a0: 4dab 8cbc 0ecd 503d e978 01bd 1458 aa3d
000002b0: 2357 8abc 0cb4 9fbd 04a5 6fbd de5d 393c
000002c0: 8038 a23d 85cc 673c 621e a0bd 919c 9a3d
000002d0: 3b9a aebd eeb2 5e3d c84f 423d fab0 fabc
000002e0: f97c 11bd 3bf0 31bd 4af1 993d 98e1 4abc
000002f0: b951 413d 66f9 59bd e644 b23d 6639 08bd
00000300: 96a3 43bd eb55 dfbb 732a 41bc 0dd1 ae3c
00000310: d952 063b ec55 973c 38db a4bb 9422 95bd
00000320: 33b5 e5bc 0f21 0abd 5e8e 16bd 1ebd 80bd
00000330: f307 d93c 7262 373d 7983 a5bd dd7a 843d
00000340: 8a9f 62bd a7c8 08bd 2cce d1bb b42d 93bd
00000350: a4f3 8dbd a3b1 fdbc 36fd 80bd 1247 8b3d
00000360: 8b9d d3bc dbcd d23c e511 3a3d 502f 923d
00000370: a0f3 7b3d 61a4 df3c 0163 073d dd2a 12bd
00000380: 2ab8 46bc 3c26 293d 24ed 453c 6b7a 8c3d
00000390: 73a6 293d 8de8 0ebd 76b1 983d 1cf1 2f3d
000003a0: e7e1 243d 4978 ab3d 03c4 a63d 5c36 8bbc
000003b0: 6bf7 2cbd ab02 46bd d6b3 b2bd 740a 8a3d
000003c0: 97c3 da3c 32b6 a73d 9131 cebc b409 453d
000003d0: c94a a83d b4fd 1b3d 9d72 59bc 1a99 efba
000003e0: a106 a0bc c037 98bb a8c4 983b cdad 39bd
000003f0: 0c60 053d f5ad cebc 56f9 b43d cf3d 68bd

actor.bias f4 [4]
-0.055764824 0.0777741 0.027308065 -0.06784544
00000000: a869 64bd 0748 9f3d 2ab5 df3c 8df2 8abd

critic.weight f4 [1, 128]
-0.083532125 0.075123765 -0.08021379 -0.07395362 -0.06527411 -0.06418937 -0.053004514 -0.06753989
-0.08417597 0.03776542 0.046283446 -0.05383724 -0.045156777 -0.003216194 0.022867661 0.02809181
0.015042776 0.07990158 -0.045909517 0.019926865 0.08374483 0.037940554 -0.08761924 0.084978454
0.00045490242 -0.05372354 0.06661491 -0.01426826 -0.019719603 0.06212672 0.009216873 -0.02660099
0.012052324 0.040446818 -0.04439661 -0.07721812 0.048862804 0.08235988 -0.05112558 -0.030248959
-0.048337214 -0.0811933 -0.058256134 -0.018558525 -0.0056248675 0.023905175 0.06485351 -0.010767951
0.013802848 -0.024651032 0.006193641 0.0065000416 0.07223356 -0.057902995 -0.009384728 -0.08637966
0.01952852 0.07556686 0.073431484 -0.040574163 -0.04447119 -0.011027782 0.010892794 0.026044663
-0.05382213 -0.019657625 0.059049588 0.049425114 0.07333524 0.012589068 0.03618795 -0.049344305
0.063425444 -0.014253824 0.012748265 -0.083968796 -0.043056063 0.036254495 0.057889123 0.0170303
0.057924952 0.026253998 -0.06846326 0.0027254948 0.030820122 0.013399319 0.02314017 -0.041151714
-0.027431061 0.0650248 0.079205535 -0.082937464 -0.08047648 0.08721964 0.066644184 0.07379686
0.0062468806 -0.024229283 -0.049364552 -0.05660585 0.0669309 -0.049720902 -0.027749758 0.0019087249
-0.04670542 0.028723408 0.04246511 -0.08221542 -0.083235994 -0.07806742 0.07148685 -0.07299975
-0.06955542 -0.04527199 0.01519596 -0.05367617 0.05896627 0.061821334 -0.042048868 0.020090844
-0.040936094 0.03354917 -0.016800633 -0.044229027 -0.071656354 0.07272651 -0.011322062 0.066153236
00000000: e412 abbd 7dda 993d 2147 a4bd ff74 97bd
00000010: 6fae 85bd b775 83bd 431b 59bd 5b52 8abd
00000020: 7364 acbd eaaf 1a3d b693 3d3d 7084 5cbd
00000030: 50f6 38bd c8c6 52bb f654 bb3c cc20 e63c
00000040: fa75 763c 71a3 a33d 9e0b 3cbd aa3d a33c
00000050: 6982 ab3d 8e67 1b3d b771 b3bd 2f09 ae3d
00000060: f87f ee39 370d 5cbd 666d 883d 6cc5 69bc
00000070: 018b a1bc 9678 7e3d 5e02 173c 52ea d9bc
00000080: 1c77 453c 90ab 253d 38d9 35bd 8924 9ebd
00000090: 5d24 483d 4cac a83d 0e69 51bd aacc f7bc
000000a0: 3efd 45bd ac48 a6bd fc9d 6ebd 0c08 98bc
000000b0: cf50 b8bb c9d4 c33c ebd1 843d 0f6c 30bc
000000c0: 5725 623c f6f0 c9bc 07f4 ca3b 4dfe d43b
000000d0: 30ef 933d b12b 6dbd 67c2 19bc d2e7 b0bd
000000e0: 46fa 9f3c ccc2 9a3d 3f63 963d 1831 26bd
000000f0: 6c27 36bd dfad 34bc b077 323c 9e5b d53c
00000100: 9874 5cbd 0709 a1bc fbdd 713d fd71 4a3d
00000110: c930 963d 6142 4e3c d139 143d 411d 4abd
00000120: 33e5 813d df88 69bc 19de 503c d5f7 abbd
00000130: 8e5b 30bd 987f 143d 251d 6d3d 2183 8b3c
00000140: b742 6d3d a012 d73c 7736 8cbd 379e 323b
00000150: 7b7a fc3c d188 5b3c 7490 bd3c b38e 28bd
00000160: 1bb7 e0bc b92b 853d 8336 a23d 1edb a9bd
00000170: dad0 a4bd 36a0 b23d bf7c 883d cf22 973d
00000180: a2b2 cc3b 7d7c c6bc 7c32 4abd 89db 67bd
00000190: 1113 893d 25a8 4bbd 7653 e3bc 2e2e fa3a
000001a0: 2f4e 3fbd 5a4d eb3c e5ef 2d3d 8f60 a8bd
000001b0: a277 aabd d0e1 9fbd b367 923d e580 95bd
000001c0: 1273 8ebd 1f6f 39bd 7af8 783c 8bdb 5bbd
000001d0: 9e86 713d 5e38 7d3d 6f3b 2cbd 8e95 a43c
000001e0: 9bac 27bd db6a 093d 7ba1 89bc 7f29 35bd
000001f0: 91c0 92bd a3f1 943d 2c80 39bc 597b 873d
