models/resilience/nn/PPL/agent2.pth (torch, 40580 bytes, 5 tensors)

fc.weight f4 [128, 68]
0.11032045 0.09599167 -0.03971765 0.050225805 -0.036441807 -0.031408343 -0.026958274 -0.043492984
0.0063159643 0.11605405 -0.11426834 0.027338792 0.08482333 -0.011041076 -0.017875167 0.07097257
0.07600596 -0.0639612 0.06309552 -0.041318215 -0.03714201 -0.0845686 -0.025065748 -0.019692535
0.03537052 -0.01520676 0.03459687 -0.09614385 0.09469004 -0.045382008 -0.0076038605 -0.0034344029
0.04790162 0.021272855 0.027902067 0.10054763 -0.09799131 0.055002905 -0.074606456 0.06885273
0.031140855 -0.09217927 0.0057594962 0.024658011 0.029629515 -0.022375759 -0.020007754 0.09227431
-0.04727068 -0.11405633 -0.1143364 -0.007812432 0.0475828 -0.012666161 0.069369815 -0.03774716
0.050701797 0.054133333 -0.11628973 -0.019253483 -0.08571041 0.036347535 0.113012455 -0.014515462
-0.029349903 0.095962726 0.11735407 0.0602971 0.043143902 -0.097431704 0.110757284 -0.008313284
0.06824191 -0.036278885 -0.023343042 0.02388515 -0.009111876 -0.05112765 0.09636881 -0.08012537
0.11266389 -0.09917376 0.024289636 0.05197633 -0.01937428 0.008898169 -0.1070815 -0.06593719
0.046349686 0.08871199 -0.04435991 0.0655018 -0.0019931206 0.07138655 -0.033426274 0.0858891
0.036457922 0.01419259 -0.083292425 0.037147854 -0.0067146574 0.04450648 0.069618896 -0.015407023
0.007333887 0.11774671 0.0940635 0.047077253 -0.078451484 0.039216932 0.051367097 0.07886071
0.106771156 -0.024813805 0.07096057 -0.054830823 0.049324255 -0.09432839 0.00814254 -0.044580355
-0.08505424 0.1054478 0.121083535 0.040003754 -0.02064127 0.019016415 0.04226027 0.11593632
-0.026989253 -0.018129192 -0.016199253 0.03704901 -0.054197304 0.10073616 -0.00091625156 -0.023331665
0.011805588 -0.01656486 -0.04755121 -0.028342461 0.008954085 0.06905957 -0.0911615 -0.057423823
0.047133606 0.026815996 0.06761922 0.0073137204 0.06672403 -0.047287665 0.063646324 -0.0518379
-0.0618951 0.110085234 -0.04154116 -0.013251003 0.07934399 -0.109394036 0.054615784 -0.08266136
0.06423221 -0.06775482 0.11692604 -0.059282057 0.0669381 0.0156018315 0.035399765 0.11558942
-0.093248956 0.07903883 -0.017155055 -0.08747696 0.08382848 -0.10354958 0.010201192 0.026069418
0.08961943 -0.031487808 -0.06341126 0.06001888 -0.04880313 0.09410119 0.025721816 0.12070248
0.11975308 0.0046147383 0.023780024 0.079698965 0.108425036 0.012842657 0.059546262 -0.0135496985
-0.1199643 0.11791744 0.068805404 0.09485624 -0.005097071 -0.091592744 -0.0987812 0.0126719
-0.11597973 -0.016777055 -0.044394534 0.10272611 0.110547334 0.052008253 0.033434253 -0.09114781
0.011563843 0.08631034 -0.010754568 0.03204443 -0.081752434 0.040910043 -0.041835923 0.07695472
0.10827947 -0.055458553 0.108931065 0.11249171 0.06480278 -0.03288298 0.1133786 0.022724038
0.008954316 -0.030252637 -0.019521112 0.074322864 -0.068828814 -0.116576225 0.0973425 -0.09436864
0.050780945 0.03399022 0.06012551 0.03931999 -0.01901571 -0.08752208 0.027529817 0.023813607
-0.07943634 -0.031458057 -0.08086158 -0.118910775 0.06916921 -0.11867713 -0.02274001 -0.026186585
0.064425506 -0.117140435 0.050108556 0.06917898 -0.011433779 -0.026547022 0.117253944 -0.025333622
00000000: b0ef e13d 4897 c43d f9ae 22bd 93b9 4d3d
00000010: 0144 15bd 09a6 00bd 99d7 dcbc b325 32bd
00000020: 26f6 ce3b bfad ed3d 8505 eabd 9af5 df3c
00000030: dbb7 ad3d a1e5 34bc f16e 92bc 115a 913d
00000040: 03a9 9b3d 17fe 82bd 3938 813d 4a3d 29bd
00000050: 3822 18bd 4d32 adbd af56 cdbc 3d52 a1bc
00000060: aee0 103d c625 79bc 73b5 0d3d 11e7 c4bd
00000070: daec c13d 7ce2 39bd ce29 f9bb b813 61bb
00000080: 7d34 443d 6944 ae3c e092 e43c eaeb cd3d
00000090: abaf c8bd ba4a 613d 45cb 98bd a902 8d3d
000000a0: 1b1b ff3c 7cc8 bcbd 28ba bc3b 99ff c93c
000000b0: 99b9 f23c 5e4d b7bc 4de7 a3bc 50fa bc3d
000000c0: e79e 41bd 5d96 e9bd 3429 eabd 6eff ffbb
000000d0: 2fe6 423d bb85 4fbc c311 8e3d c49c 1abd
000000e0: b0ac 4f3d eaba 5d3d 4f29 eebd 7bb9 9dbc
000000f0: f088 afbd 27e1 143d 1373 e73d 43d2 6dbc
00000100: 356f f0bc 1b88 c43d 5557 f03d 18fa 763d
00000110: a9b7 303d 468a c7bd b7d4 e23d 7134 08bc
00000120: 6ac2 8b3d 2b99 14bd e839 bfbc caaa c33c
00000130: fa49 15bc 3a6b 51bd 035d c53d c518 a4bd
00000140: 53bc e63d 9d1b cbbd 0ffb c63c 22e5 543d
00000150: cfb6 9ebc a0c9 113c 8c4d dbbd 140a 87bd
00000160: 2bd9 3d3d a2ae b53d bdb2 35bd cf25 863d
00000170: 049f 02bb 1d33 923d fde9 08bd a0e6 af3d
00000180: e754 153d 0988 683c 3895 aabd 5928 183d
00000190: a106 dcbb 6d4c 363d 5a94 8e3d bd6d 7cbc
000001a0: 1a51 f03b 3025 f13d 5da4 c03d 14d4 403d
000001b0: 2cab a0bd efa1 203d 4e66 523d b981 a13d
000001c0: d6aa da3d 5246 cbbc c653 913d 4996 60bd
000001d0: 3b08 4a3d 3e2f c1bd 4a68 053c e499 36bd
000001e0: eb30 aebd 04f5 d73d a5fa f73d fada 233d
000001f0: e117 a9bc 50c8 9b3c 1b19 2d3d 0570 ed3d
00000200: 9118 ddbc ac83 94bc 4cb4 84bc b4c0 173d
00000210: fefd 5dbd c34e ce3d 9a30 70ba 0c22 bfbc
00000220: 3a6c 413c 07b3 87bc 0fc5 42bd 732e e8bc
00000230: 28b4 123c 1b6f 8d3d e1b2 babd 3e35 6bbd
00000240: 2b0f 413d 38ad db3c f27b 8a3d efa7 ef3b
00000250: 9ca6 883d b6b0 41bd 0159 823d fa53 54bd
00000260: b785 7dbd 5e74 e13d 1027 2abd bc1a 59bc
00000270: 1a7f a23d fb09 e0bd cdb4 5f3d 5c4a a9bd
00000280: 2d8c 833d 0ac3 8abd eb76 ef3d bed1 72bd
00000290: d816 893d d39e 7f3c 58ff 103d 25ba ec3d
000002a0: 4ff9 bebd 1cdf a13d c288 8cbc 1f27 b3bd
000002b0: 44ae ab3d cd11 d4bd e722 273c 888f d53c
000002c0: 648a b73d 5cf9 00bd c3dd 81bd 5bd6 753d
000002d0: cae5 47bd 20b8 c03d 8fb6 d23c dd32 f73d
000002e0: 1a41 f53d 3b37 973b 53ce c23c 3639 a33d
000002f0: f20d de3d 026a 523c c8e6 733d 8eff 5dbc
00000300: d8af f5bd b37e f13d d9e9 8c3d fd43 c23d
00000310: 5505 a7bb fa94 bbbd cc4d cabd cd9d 4f3c
00000320: c886 edbd 0970 89bc 0bd7 35bd 1162 d23d
00000330: a466 e23d 9b06 553d 5bf2 083d b4ab babd
00000340: 4676 3d3c 7ac3 b03d ed33 30bc 0541 033d
00000350: d26d a7bd 4a91 273d 255c 2bbd 709a 9d3d
00000360: a0c1 dd3d 8228 63bd 4017 df3d 0e62 e63d
00000370: 52b7 843d 4eb0 06bd 0a33 e83d c327 ba3c
00000380: 20b5 123c 61d4 f7bc bdea 9fbc 9636 983d
00000390: 1ff6 8cbd 84bf eebd 815b c73d 5844 c1bd
000003a0: aeff 4f3d 5439 0b3d 2b46 763d ff0d 213d
000003b0: d6c6 9bbc c73e b3bd 3686 e13c c114 c33c
000003c0: 85af a2bd 2ada 00bd c29a a5bd 7e87 f3bd
000003d0: 96a8 8d3d ff0c f3bd 4249 babc 4085 d6bc
000003e0: 85f1 833d 53e7 efbd a13e 4d3d b6ad 8d3d
000003f0: bf54 3bbc 2479 d9bc d622 f03d 7588 cfbc

fc.bias f4 [128]
-0.018975526 -0.03176381 -0.10737332 -0.024934784 0.11866182 -0.118995264 0.07266385 -0.09242293
0.03450992 -0.015644537 -0.02539445 -0.011666578 -0.0026310615 -0.05314532 -0.08544144 -0.044111595
0.015996324 -0.106011935 -0.072104104 -0.0032639566 0.014852848 -0.09424907 0.072927654 0.07517765
0.06078317 -0.03154505 -0.0729882 -0.013669346 -0.044334304 -0.010711526 -0.039222166 -0.10593349
0.06184882 0.09898391 -0.052159432 0.067542955 0.007397333 0.11454911 0.0592076 0.10731719
-0.09323164 0.010578632 0.005288025 -0.05083359 -0.08996495 0.10201827 -0.11446609 -0.073476255
0.032371603 0.061069094 0.10063457 -0.0059830025 0.042916983 0.117529064 0.07960977 -0.029184692
0.07165253 0.107698664 0.04434124 -0.09003921 -0.035921056 -0.06983761 -0.036072634 0.0067750826
0.08110398 -0.060037736 0.056854915 -0.0029688743 0.0013309256 -0.03445723 -0.06098612 -0.07630095
0.11367185 -0.081250325 0.08213217 0.07946821 0.04260838 -0.07286548 0.08114176 -0.07792405
-0.08197854 -0.0029389006 0.017196462 0.10882593 -0.022966787 -0.07843972 -0.10354667 0.010355854
-0.110439405 0.06532576 0.111874014 0.07208713 -0.10112145 0.11049388 0.10197563 -0.09965165
-0.062258992 -0.09919584 -0.1195578 0.07384755 -0.018147798 0.072692096 -0.06663854 0.011021386
-0.020588974 0.0054981722 0.094501056 0.04591587 -0.05753228 -0.09650124 0.09247278 0.07134377
-0.09159812 0.061840426 0.008951257 -0.08627379 -0.06813113 -0.07997624 0.03163689 -0.031837594
0.095598415 0.0154992845 0.06268538 0.0378033 -0.08568751 0.030367617 -0.048984386 -0.059791807
00000000: 9072 9bbc c51a 02bd 8be6 dbbd 0844 ccbc
00000010: f804 f33d cab3 f3bd c9d0 943d 3c48 bdbd
00000020: 465a 0d3d f928 80bc 0608 d0bc 2d25 3fbc
00000030: e36d 2cbb e8ae 59bd ecfb aebd 5cae 34bd
00000040: b90a 833c c91c d9bd 51ab 93bd 1be8 55bb
00000050: 5c59 733c a805 c1bd 185b 953d bdf6 993d
00000060: c6f7 783d 6235 01bd d67a 95bd 65f5 5fbc
00000070: e397 35bd 657f 2fbc 6ca7 20bd a8f3 d8bd
00000080: 3055 7d3d 14b8 ca3d 21a5 55bd f653 8a3d
00000090: 5465 f23b b998 ea3d ab83 723d 1dc9 db3d
000000a0: 3bf0 bebd 0052 2d3c 2b47 ad3b e236 50bd
000000b0: 8b3f b8bd f4ee d03d 336d eabd b87a 96bd
000000c0: 1698 043d 9623 7a3d 7f19 ce3d 100d c4bb
000000d0: b8c9 2f3d 14b3 f03d 720a a33d bc14 efbc
000000e0: 90be 923d 1e91 dc3d 299f 353d 7a66 b8bd
000000f0: f521 13bd 0507 8fbd e6c0 13bd 8301 de3b
00000100: d819 a63d 21ea 75bd b3e0 683d 7291 42bb
00000110: 7472 ae3a 0623 0dbd 95cc 79bd ac43 9cbd
00000120: c9cc e83d 9266 a6bd e934 a83d 3bc0 a23d
00000130: 2086 2e3d 7f3a 95bd a72d a63d a596 9fbd
00000140: 5de4 a7bd 929a 40bb 98df 8c3c 21e0 de3d
00000150: d824 bcbc 01a5 a0bd 4710 d4bd 9aab 293c
00000160: 0e2e e2bd 83c9 853d 341e e53d 6ba2 933d
00000170: c318 cfbd 9e4a e23d 99d8 d03d 2a16 ccbd
00000180: 4903 7fbd 3027 cbbd b8da f4bd 623d 973d
00000190: b1aa 94bc 98df 943d c979 88bd 0b93 343c
000001a0: 35aa a8bc 032a b43b c589 c13d 4812 3c3d
000001b0: f8a6 6bbd 71a2 c5bd 5e62 bd3d af1c 923d
000001c0: cc97 bbbd 634c 7d3d 4ba8 123c 50b0 b0bd
000001d0: 5588 8bbd 95ca a3bd af95 013d 2368 02bd
000001e0: 1ac9 c33d b6f0 7d3c 3161 803d a2d7 1a3d
000001f0: ef7c afbd 82c5 f83c daa3 48bd 41e8 74bd

actor.weight f4 [4, 128]
0.060185693 0.043665815 0.012047404 0.03316619 0.002936958 0.008853264 0.0052562156 -0.064241156
0.06260052 0.015896447 -0.03585685 -0.0774139 0.03218261 0.08213282 0.02037425 -0.07946621
-0.07444013 -0.04359952 0.034951456 -0.0454548 0.063586116 -0.0075943293 -0.08512493 -0.08081167
0.0631885 -0.044204824 -0.00072480546 -0.05121487 -0.066188164 0.023275286 0.08275204 0.059738755
0.0017446254 0.04044542 0.0061374856 0.04960784 0.039029356 0.07086763 -0.013822479 -0.06956016
-0.05883675 0.05754349 -0.057212494 0.013227029 -0.05399405 0.011206 0.006883832 0.070347056
-0.06572325 -0.028629988 0.031953584 0.0071672583 -0.015693195 -0.042226538 0.021008775 0.06752821
0.017418953 -0.06498588 -0.07547259 0.06695437 -0.010491385 0.04365717 0.08457429 -0.018953484
-0.011931063 -0.06929321 0.034636334 -0.014793771 0.07689399 -0.037448592 0.035956968 -0.012199745
0.08601976 0.027919555 -0.059163865 -0.012237597 -0.036112312 -0.02067865 0.024864689 -0.025166837
0.022678787 0.06912627 -0.05362315 0.008582891 -0.08203967 -0.050887655 0.012231173 -0.070051655
0.0061846287 -0.08599469 -0.014378029 -0.018138656 -0.04484915 -0.055021193 0.022484312 -0.07721701
0.022757018 0.07967044 0.036783583 -0.020388655 -0.022700273 -0.06170847 0.059688773 -0.06581837
-0.07846032 0.0141416695 -0.033150382 0.06808929 -0.009491578 -0.017522002 -0.026622634 0.036261838
-0.058347158 -0.0514684 0.038035095 -0.02694223 0.037762247 -0.02098041 0.061098367 -0.08402914
0.019788135 0.0055313134 -0.049908042 0.048153266 -0.025063587 0.06923486 -0.07383974 0.061105557
0.05165755 -0.061447732 -0.0493731 0.066154234 0.02009309 0.047303066 -0.042541936 0.009143051
0.035722174 0.08448666 -0.011187966 -0.08569095 0.0753067 0.029798506 -0.026310539 0.057302132
0.00014232915 0.06370435 -0.039779175 0.08176466 -0.036730483 0.03225428 0.024176104 -0.071146265
-0.053287327 -0.020343604 0.038278654 -0.06263999 0.063230984 0.076344736 -0.07391004 0.046471655
0.028232982 -0.06858525 0.042858478 -0.060301054 -0.032943655 -0.04084182 -0.050693348 0.019556453
-0.027008219 -0.014947307 0.00043917302 -0.033365343 0.07387096 0.01638138 -0.0043417923 -0.059005585
-0.07135397 -0.06456962 -0.032093793 -0.05479962 -0.046975404 -0.085879326 0.086826704 0.05049357
0.06886914 0.08255502 0.05419507 0.030465078 -0.016567022 -0.02895183 -0.08120631 0.0056373314
0.017042527 0.040286016 0.058846645 -0.052668914 -0.08286877 0.022825586 -0.043675136 0.03907257
-0.0030983374 0.062016726 0.03425234 -0.074592784 0.07394662 -0.06741381 0.08763805 -0.00029174282
0.084313475 0.08065204 -0.006179993 -0.029307675 0.044890188 0.040867534 0.0810035 0.01422822
0.071782336 -0.0868253 -0.048682816 0.018895224 0.00970822 0.060486928 0.04351881 0.037961822
0.052290257 -0.08014125 -0.0087954225 -0.065567814 0.025717856 -0.020182727 0.007955747 -0.018302144
-0.05423217 0.04078245 -0.04114982 -0.044753965 -0.034421142 -0.08632725 -0.087483324 -0.03352649
-0.0035445674 0.019859325 0.05533989 0.0074445554 -0.025144098 -0.064494565 -0.0740957 0.06224167
0.03955028 -0.010182722 0.025772907 0.0796878 -0.02891008 0.018062066 0.060045432 0.034354106
00000000: 4685 763d edda 323d 7a62 453c 45d9 073d
00000010: fb79 403b 480d 113c 553c ac3b de90 83bd
00000020: b434 803d 4439 823c a2de 12bd 2e8b 9ebd
00000030: ead1 033d 4035 a83d e6e7 a63c 2ebf a2bd
00000040: 1174 98bd 6995 32bd 4229 0f3d d02e 3abd
00000050: 7039 823d dad9 f8bb fb55 aebd 9780 a5bd
00000060: f968 813d 1e10 35bd df00 3eba afc6 51bd
00000070: a98d 87bd d0ab be3c e779 a93d a0b0 743d
00000080: eaab e43a 19aa 253d f61c c93b 9731 4b3d
00000090: 3fdd 1f3d 0c23 913d ae77 62bc 8f75 8ebd
000000a0: cefe 70bd b9b2 6b3d a657 6abd 2eb6 583c
000000b0: dd28 5dbd 5f99 373c c591 e13b 1e12 903d
000000c0: e999 86bd 7089 eabc c3e1 023d 52db ea3b
000000d0: 048f 80bc bcf5 2cbd 981a ac3c 3b4c 8a3d
000000e0: 31b2 8e3c 5117 85bd 6091 9abd 5f1f 893d
000000f0: 0fe4 2bbc dcd1 323d 4935 ad3d 5644 9bbc
00000100: 817a 43bc 99e9 8dbd d4de 0d3d 9361 72bc
00000110: 997a 9d3d b263 19bd 9d47 133d 70e1 47bc
00000120: 212b b03d 8db7 e43c cf55 72bd 3480 48bc
00000130: 81ea 13bd 4666 a9bc 08b1 cb3c af2a cebc
00000140: ddc8 b93c 1392 8d3d f3a3 5bbd 419f 0c3c
00000150: 6a04 a8bd 936f 50bd 4265 483c 3e77 8fbd
00000160: 6da8 ca3b fc1d b0bd d391 6bbc 8597 94bc
00000170: beb3 37bd e75d 61bd 0531 b83c f423 9ebd
00000180: ed6c ba3c 412a a33d 62aa 163d 1c06 a7bc
00000190: ecf5 b9bc 05c2 7cbd 377c 743d c8cb 86bd
000001a0: ceaf a0bd 76b2 673c b2c8 07bd 6672 8b3d
000001b0: 9082 1bbc 4d8a 8fbc b617 dabc 4b87 143d
000001c0: 6efd 6ebd 87d0 52bd b0ca 1b3d f4b5 dcbc
000001d0: 96ac 1a3d 1cdf abbc 4842 7a3d 7817 acbd
000001e0: ba1a a23c 0540 b53b 606c 4cbd 5c3c 453d
000001f0: 2752 cdbc 02cb 8d3d 4a39 97bd d249 7a3d
00000200: de96 533d 9eb0 7bbd 733b 4abd df7b 873d
00000210: 449a a43c dcc0 413d 7440 2ebd bccc 153c
00000220: 6a51 123d 5807 ad3d bb4d 37bc bd7e afbd
00000230: 663a 9a3d ff1b f43c 3389 d7bc a4b5 6a3d
00000240: 313e 1539 6d77 823d 7def 22bd 3b74 a73d
00000250: b472 16bd 101d 043d f70c c63c 22b5 91bd
00000260: d043 5abd a1a7 a6bc 14ca 1c3d 6549 80bd
00000270: 3f7f 813d a15a 9c3d 265e 97bd 1059 3e3d
00000280: db48 e73c 6c76 8cbd 5f8c 2f3d 3dfe 76bd
00000290: edef 06bd c149 27bd d4a3 4fbd db34 a03c
000002a0: 5740 ddbc 8de5 74bc ce40 e639 19aa 08bd
000002b0: a849 973d 3e32 863c 9845 8ebb d7af 71bd
000002c0: 0822 92bd 143d 84bd c874 03bd 9175 60bd
000002d0: 4869 40bd 80e1 afbd 33d2 b13d 58d2 4e3d
000002e0: 440b 8d3d 9b12 a93d a6fb 5d3d e691 f93c
000002f0: 90b7 87bc 632c edbc 7e4f a6bd 5db9 b83b
00000300: c59c 8b3c f302 253d 2e09 713d 5cbb 57bd
00000310: 1ab7 a9bd b9fc ba3c b3e4 32bd 8f0a 203d
00000320: 7a0d 4bbb 4005 7e3d 2f4c 0c3d 1ac4 98bd
00000330: 5371 973d 4010 8abd 947b b33d 0ff5 98b9
00000340: 8bac ac3d e62c a53d 8a81 cabb a616 f0bc
00000350: c6de 373d b764 273d 2ae5 a53d 7b1d 693c
00000360: 9e02 933d 76d1 b1bd a267 47bd 28ca 9a3c
00000370: 3a0f 1f3c 24c1 773d c840 323d db7d 1b3d
00000380: 4f2e 563d 1821 a4bd ad1a 10bc 6b48 86bd
00000390: 41ae d23c 3f56 a5bc d258 023c 61ee 95bc
000003a0: 8d22 5ebd 800b 273d b78c 28bd ef4f 37bd
000003b0: 2ffd 0cbd 57cc b0bd 752a b3bd 1353 09bd
000003c0: f94b 68bb 06b0 a23c 15ac 623d 75f1 f33b
000003d0: fffa cdbc ba15 84bd 7dbf 97bd 1ff1 7e3d
000003e0: 79ff 213d 6ed5 26bc b421 d33c 5b33 a33d
000003f0: d5d4 ecbc e6f6 933c 33f2 753d e4b6 0c3d

actor.bias f4 [4]
-0.08034937 0.024621356 -0.0852954 -0.046490934
00000000: 368e a4bd bab2 c93c 5baf aebd 476d 3ebd

critic.weight f4 [1, 128]
0.0473744 -0.00409695 -0.037668135 -0.02241113 0.054576866 0.044856396 -0.07748546 0.07807355
0.021784542 0.05802777 -0.07576557 -0.07925996 -0.0724371 0.018522779 -0.042932376 0.004597931
0.08776735 0.078725055 -0.019669037 0.048268177 -0.06397692 0.083291374 0.07208188 -0.047743306
-0.014192538 0.032361005 0.041491866 -0.057587985 0.03893853 -0.0330921 -0.0058330162 0.088256
0.0141940275 0.08161725 -0.0851537 0.03103226 -0.046941157 0.045833834 0.0041184607 0.045232773
0.008127215 -0.07815129 -0.06789073 0.08186359 0.04836339 0.027139876 0.08421763 0.036406666
0.061593678 0.06156262 -0.086662985 0.0706241 0.049255915 0.03845988 0.082677595 -0.040610924
0.041820895 0.022241138 0.060455374 -0.046155274 0.035853155 0.030036997 0.062012546 0.07236758
0.046565212 -0.0700648 0.08782088 -0.05267862 0.044773303 -0.05464955 0.053425416 0.07219206
-0.044281404 -0.04773099 0.02302853 0.013099394 -0.07442588 0.08073381 -0.06045347 0.028556196
-0.01835424 -0.04172956 -0.067121536 0.0393079 0.0019917 0.08206464 0.033037204 -0.081678845
0.0741737 -0.05627933 0.018783676 -0.06109459 0.008677458 -0.050347876 -0.06363153 0.054935873
-0.06854112 -0.046688255 0.008032076 -0.05210094 -0.050341044 -0.07832983 0.071659885 -0.008562482
-0.03971106 -0.020116778 -0.069177 0.06191073 0.087882034 -0.06941773 -0.053806014 0.010457323
-0.032563 -0.0031352767 -0.004809729 0.023788456 0.006412807 -0.047804408 0.005230093 -0.050554026
0.010191176 -0.08442449 -0.025181986 -0.05631815 -0.052638907 -0.009639419 0.074286014 -0.063845865
00000000: a90b 423d b53f 86bb e749 1abd 8c97 b7bc
00000010: fe8b 5f3d 57bb 373d b2b0 9ebd 06e5 9f3d
00000020: 7f75 b23c 87ae 6d3d fb2a 9bbd 0c53 a2bd
00000030: e759 94bd 15bd 973c dcd9 2fbd 3eaa 963b
00000040: 5ebf b33d 9a3a a13d f620 a1bc dab4 453d
00000050: 5506 83bd ab94 aa3d aa9f 933d 7c8e 43bd
00000060: d287 68bc f98c 043d 60f3 293d 61e1 6bbd
00000070: 027e 1f3d 958b 07bd e322 bfbb 90bf b43d
00000080: 118e 683c f226 a73d 1065 aebd 5e37 fe3c
00000090: 5f45 40bd 42bc 3b3d 27f4 863b 0046 393d
000000a0: 0328 053c c90d a0bd 4c0a 8bbd 19a8 a73d
000000b0: b118 463d 7254 de3c 4b7a ac3d 281f 153d
000000c0: a749 7c3d 1629 7c3d 5d7c b1bd 5ea3 903d
000000d0: 92c0 493d 1b88 1d3d df52 a93d a457 26bd
000000e0: 634c 2b3d 0c33 b63c 0ea0 773d 500d 3dbd
000000f0: c2da 123d 2610 f63c de00 7e3d 7435 943d
00000100: 2abb 3e3d 227e 8fbd 6fdb b33d 89c5 57bd
00000110: 3664 373d 35d8 5fbd 9cd4 5a3d 6ed9 933d
00000120: 6b60 35bd 9281 43bd 54a6 bc3c d79e 563c
00000130: 996c 98bd c557 a53d 0f9e 77bd afee e93c
00000140: a25b 96bc 9dec 2abd 0477 89bd 5201 213d
00000150: 2e87 023b 8211 a83d 0552 073d 3d47 a7bd
00000160: 61e8 973d 2885 66bd 39e0 993c 523e 7abd
00000170: e62b 0e3c 9339 4ebd 3f51 82bd 7004 613d
00000180: 495f 8cbd 2f3c 3fbd f898 033c cc67 55bd
00000190: 6932 4ebd 646b a0bd 6bc2 923d a749 0cbc
000001a0: 10a8 22bd f1cb a4bc acac 8dbd 1b96 7d3d
000001b0: 7ffb b33d e22a 8ebd b263 5cbd 3155 2b3c
000001c0: c860 05bd 3779 4dbb ee9a 9dbb 02e0 c23c
000001d0: 8622 d23b 8ece 43bd 3361 ab3b bd11 4fbd
000001e0: e4f8 263c bfe6 acbd 744a cebc dcad 66bd
000001f0: e59b 57bd a7ee 1dbc 4423 983d 9fc1 82bd
