models/hybrid/linear/PPL/agent1.pth (torch, 40580 bytes, 5 tensors)

fc.weight f4 [128, 68]
0	0x3d7ea7be	0.06217169
1	0x3cf60518	0.030031726
2	0x3d855d5b	0.06511947
3	0x3daaeb16	0.0834562
4	0x3d02021e	0.0317403
5	0x3b937b66	0.004500794
6	0xbdbab56d	-0.091166355
7	0xbd8eee5d	-0.06979058
8	0x3df4a229	0.11944992
9	0x3adc2394	0.0016795271
10	0xbc4a4ba9	-0.01234714
11	0x3c9abf22	0.018889967
12	0xbd23fc5f	-0.0400356
13	0xbc84cb6e	-0.016210284
14	0x3d40dd44	0.047086015
15	0xbd00b3a1	-0.031421307
16	0x3d14fd42	0.036374338
17	0xbdbdb079	-0.09262175
18	0x3decacfa	0.1155643
19	0x3d8e40bf	0.06945943
20	0x3d29f4c1	0.04149318
21	0x3d11a84a	0.035560884
22	0xbd274026	-0.04083266
23	0xbdec99ea	-0.11552794
24	0x3dd30838	0.10304302
25	0x3c8d685a	0.017261673
26	0x3c8ad72c	0.016948305
27	0x3d9e7a25	0.07738141
28	0xbdba5b8b	-0.09099492
29	0x3b570e3b	0.0032814879
30	0x3d89a4b7	0.0672087
31	0x3dab48af	0.08363473
32	0xbde2debe	-0.11077641
33	0xbdb04419	-0.086067386
34	0xbd6ea6a9	-0.05826441
35	0xbd5f4dfb	-0.054517727
36	0xbd5049f1	-0.050851766
37	0xbaed1abb	-0.0018089631
38	0xbcce4fff	-0.02518463
39	0x3dab64a7	0.08368807
40	0xbdc14d01	-0.094385155
41	0xbdb6b263	-0.08920743
42	0x3ca73661	0.020411672
43	0xbc57c310	-0.013169065
44	0xbca107f6	-0.019657116
45	0xbd3b0e4b	-0.045667928
46	0x3df77e83	0.12084677
47	0x3d064dda	0.03278909
48	0xbc8e8f2b	-0.017402252
49	0xbdbeab49	-0.09310014
50	0xbd6a46d8	-0.057196468
51	0x3dbef7ff	0.09324645
52	0xbda74951	-0.08168281
53	0xbdd0c3d5	-0.10193602
54	0x3d394348	0.04523018
55	0x3d731cbf	0.059353586
56	0x3b9dba6c	0.004813483
57	0xbdf661ed	-0.120303966
58	0xbd9fa104	-0.07794383
59	0xbd95189e	-0.07280086
60	0xbb80d7a2	-0.0039319554
61	0x3b5a6512	0.0033324403
62	0xbddda1d8	-0.10821885
63	0xbdc5045c	-0.09619972
64	0x3c235bd0	0.00997062
65	0xbbee8b32	-0.007279777
66	0xb9944f7f	-0.0002828799
67	0x3d2dd9b6	0.042443953
68	0xbc697d58	-0.014251076
69	0xbd9cb27f	-0.07651233
70	0xbc8cc924	-0.017185755
71	0xbdae7f8b	-0.08520421
72	0xbda2e091	-0.07952989
73	0x3def89df	0.11696219
74	0xbd2076d6	-0.03917583
75	0xbd05fcff	-0.03271198
76	0x3d31e4ee	0.043431215
77	0x3cadccfa	0.021215905
78	0xbda1ccfc	-0.07900426
79	0x3de872b3	0.11350002
80	0xbd13242d	-0.03592317
81	0x3d266b10	0.040629447
82	0xbdb229c5	-0.08699373
83	0xbdcb821b	-0.09936925
84	0xbd80ef04	-0.062955886
85	0x3dc59ae6	0.09648685
86	0x3d479444	0.04872538
87	0x3d8c0b7b	0.06838127
88	0xbdabd47f	-0.0839014
89	0xbdae1866	-0.085007474
90	0x3debf131	0.11520613
91	0xbddb19b4	-0.10698262
92	0xbd6fdc2e	-0.05855959
93	0xbd81cfbf	-0.063384525
94	0x3d584e7d	0.052809227
95	0xbde05e6a	-0.10955508
96	0x3dd6687e	0.10469149
97	0xba55b64b	-0.0008152469
98	0xbda2f84c	-0.07957515
99	0xbda094b0	-0.0784086
100	0x3d534c62	0.051586516
101	0xbd821615	-0.06351868
102	0xbd9aecd3	-0.07564702
103	0x3d2148cf	0.039376076
104	0x3d15af4f	0.03654414
105	0x3daee864	0.08540419
106	0xbc2955cf	-0.0103354
107	0x3d621c18	0.055202574
108	0x3c948f51	0.018134745
109	0xbdc8ab0d	-0.0979825
110	0xbd92a9d1	-0.07161296
111	0xbc923495	-0.017847339
112	0x3dec0175	0.115237154
113	0xbc3d5b98	-0.011557482
114	0x3d90c7a2	0.07069327
115	0x3c98a7c3	0.018634683
116	0xbdf0254b	-0.11725863
117	0xbbce1f62	-0.006290362
118	0xbdac9caa	-0.08428319
119	0xbda27ffc	-0.07934567
120	0x3daf89d5	0.08571211
121	0xbdf6c622	-0.120495096
122	0xbdd164d4	-0.102243096
123	0xbc21cb72	-0.009875165
124	0xbd8d7f05	-0.06908993
125	0x3bef0438	0.007294204
126	0xbddfc377	-0.10925954
127	0xbdd92db5	-0.10604421
128	0xbd35eaa5	-0.044413228
129	0xbd30e721	-0.04318917
130	0x3db19209	0.08670432
131	0xbdae37f7	-0.08506768
132	0x3dd83284	0.1055651
133	0x3d1d137b	0.038348656
134	0x3dd0334b	0.10166033
135	0x3d5adf09	0.05343536
136	0x3d094e58	0.03352198
137	0x3d9cc52f	0.07654797
138	0x3dd872e8	0.10568792
139	0xbdd950fd	-0.106111504
140	0xb81fd4bb	-3.8106675e-05
141	0x3d7f3408	0.06230548
142	0x3dc89d25	0.09795598
143	0x3dc48d10	0.09597218
144	0xbdcfb26d	-0.10141454
145	0xbd9ea20d	-0.077457525
146	0xbd7b943e	-0.06142067
147	0xbdcd756f	-0.10032164
148	0x3d90d2ed	0.07071481
149	0xbcc93c7a	-0.02456497
150	0x3df58f8f	0.11990272
151	0xbd10f997	-0.035394277
152	0xbcfd78f3	-0.030941462
153	0x3d924897	0.07142752
154	0xbdf409d7	-0.11915939
155	0xbaa38241	-0.0012474732
156	0x3d113d07	0.03545859
157	0xbd9a4baf	-0.07533967
158	0x3d5b806d	0.053589273
159	0xbd09673e	-0.033545725
160	0xbda58afa	-0.08083148
161	0x3db2d939	0.08732838
162	0x3dc2ded5	0.09515158
163	0xbdbd449d	-0.092416026
164	0x3d70916b	0.05873243
165	0x3d866998	0.06563109
166	0xbd8fbc33	-0.07018318
167	0x3cbfaf98	0.02339916
168	0xbbbfd92d	-0.005854747
169	0x3d3fc824	0.04682173
170	0x3df6abcd	0.12044487
171	0x3dc336b1	0.09531916
172	0x3cb3705e	0.021904167
173	0xbc9b1dd9	-0.01893513
174	0x3be5668f	0.0070007513
175	0x3deec7b3	0.11659183
176	0xbc8d1138	-0.017220125
177	0x3debbc91	0.115105756
178	0xbd9884e8	-0.07447225
179	0xbdcdcb89	-0.10048587
180	0xbd3fe487	-0.0468488
181	0x3db9505b	0.0904853
182	0x3b68111a	0.0035410584
183	0x3d18e8b8	0.037331313
184	0x3dabc7b1	0.083876975
185	0xbbd71c90	-0.006564684
186	0xbd28f9ce	-0.041253857
187	0x3db66079	0.089051194
188	0xbdab65d9	-0.08369035
189	0x3db6825a	0.08911581
190	0x3d1f9284	0.038958088
191	0x3dab650b	0.08368882
192	0xbd873c70	-0.066033244
193	0xbbfe42dc	-0.007759435
194	0x3da153d6	0.078773186
195	0x3caef05b	0.021354845
196	0xbd65b3a8	-0.056079537
197	0x3d5cecd2	0.053936787
198	0x3d96d3b2	0.073645964
199	0xbd23268f	-0.039831694
200	0xbdb86932	-0.090044394
201	0xbdec277a	-0.11530967
202	0xbdb0c926	-0.08632116
203	0xbdddaae5	-0.10823611
204	0xbd1ff62f	-0.03905314
205	0xbcc67489	-0.02422549
206	0x3d99c271	0.0750779
207	0x3d3a4575	0.045476396
208	0x3dd0dead	0.10198722
209	0xbc2bc568	-0.010484077
210	0x3d513023	0.051071297
211	0x3dabf859	0.08396978
212	0xbd01286d	-0.031532694
213	0xbdaa1486	-0.08304696
214	0xbc905345	-0.017617831
215	0xbd731b3b	-0.05935214
216	0xbd5068af	-0.050881084
217	0x3c701296	0.014652869
218	0xbc00cf63	-0.007861945
219	0x3dbe2e4e	0.09286176
220	0x3db05b36	0.08611147
221	0xbd163e35	-0.03668042
222	0xbd223ebe	-0.039610617
223	0xbd761e0e	-0.060087256
224	0xbaf6e354	-0.001883606
225	0x3aca5c27	0.001543884
226	0x3db56fd6	0.08859222
227	0xbd3acad2	-0.04560358
228	0xbdedcccd	-0.11611328
229	0xbd7a2e69	-0.061079416
230	0xbb8b02e3	-0.0042422875
231	0xbc6b7e2b	-0.0143733425
232	0xbd273037	-0.040817466
233	0x3ddc042f	0.107429855
234	0x3d0beb59	0.034159992
235	0xbd3a0db9	-0.045423243
236	0x3b27ed18	0.0025623497
237	0xbde85b7d	-0.11345575
238	0xbc1e9287	-0.0096784895
239	0xbcf8d0fb	-0.030373087
240	0x3cc40980	0.023930311
241	0x3cbc8560	0.023012817
242	0xbce4c574	-0.027926184
243	0x3cad79b9	0.021176206
244	0x3d116d16	0.035504423
245	0x3a97ab79	0.0011571489
246	0xbd60c862	-0.0548786
247	0xbd7dd49d	-0.061970342
248	0x3d0f975e	0.035056464
249	0xbd1ac92f	-0.03778952
250	0xbdccfaaa	-0.10008748
251	0x3d1a585a	0.037681915
252	0xbd3a08ff	-0.045418736
253	0x3d93d444	0.07218221
254	0xbc6f6491	-0.014611379
255	0xbd8b6325	-0.0680602

fc.bias f4 [128]
0	0xbd0f68a0	-0.035011888
1	0x3cb0018a	0.021485109
2	0x3db72c4a	0.08943994
3	0xbd3e42a0	-0.046450257
4	0xbc302887	-0.01075185
5	0xbda7f42d	-0.0820087
6	0xbca56e55	-0.020194212
7	0xbccee50f	-0.025255708
8	0x3dbfcbe4	0.09365061
9	0xbd8763c4	-0.06610826
10	0xbd0e1ce9	-0.03469554
11	0x3cd0df1b	0.02549701
12	0x3d9b61f3	0.07587042
13	0x3df2c9c4	0.1185489
14	0x3b62f9be	0.0034633721
15	0xbdb5ca9f	-0.088765375
16	0x3c3a05d4	0.011353929
17	0xbcb6c00e	-0.022308376
18	0xbd84fd8e	-0.06493674
19	0x3d3b0f5f	0.045668956
20	0xbd6aa976	-0.057290517
21	0x3d966fc6	0.07345538
22	0x3d11d2f5	0.035601575
23	0x3a3d8e83	0.0007231014
24	0x3df2e60c	0.11860284
25	0xbdca9bd0	-0.09893
26	0xbd9840e6	-0.074342534
27	0xbcf29dde	-0.029616293
28	0x3dcb0c7d	0.09914491
29	0xbdddaf51	-0.108244546
30	0xbd8cf7af	-0.068831794
31	0xbdb82b54	-0.08992639
32	0x3dee009c	0.1162121
33	0xbd4d2bcf	-0.050090607
34	0xbd32975f	-0.04360139
35	0x3da4126c	0.08011326
36	0x3d8129be	0.0630679
37	0xbd4a6e47	-0.049421575
38	0x3cc06777	0.023486836
39	0xbdb4943f	-0.08817338
40	0xbd34f805	-0.044181842
41	0x3b9efc4e	0.0048518544
42	0x3df6583b	0.120285474
43	0x3cc8bfc5	0.024505505
44	0x3db02b22	0.08601977
45	0x3d84a006	0.064758345
46	0xbdbcc048	-0.09216362
47	0xbdc93903	-0.09825327
48	0xbdacee5b	-0.084439
49	0x3d36c852	0.044624634
50	0x3db9063c	0.09034392
51	0x3d867c6b	0.065666996
52	0xbce7752c	-0.028254114
53	0x3c695ec1	0.0142437825
54	0x3d23f8cb	0.04003219
55	0x3d156789	0.036475692
56	0xbda56732	-0.080763236
57	0x3de2b375	0.11069385
58	0x3daa6c81	0.08321477
59	0xbc7019d9	-0.0146546
60	0x3d81d1ba	0.0633883
61	0x3d2af200	0.041734695
62	0x3d1424af	0.036167797
63	0xbd65f517	-0.05614194
64	0x3d90bd8d	0.07067404
65	0xbd127f3e	-0.03576588
66	0x3c1e6db5	0.009669711
67	0x3dd879dd	0.105701186
68	0x3d63f238	0.05565092
69	0xbc276dd1	-0.010219053
70	0x3d3c2b06	0.045939468
71	0x3d3508ca	0.044197835
72	0x3d41bfc6	0.04730203
73	0xbd9a9ed3	-0.075498246
74	0xbdc40862	-0.095719114
75	0xbd4b95ce	-0.04970341
76	0xbbdc7136	-0.006727363
77	0x3dc2caa1	0.09511305
78	0x3d85f939	0.06541676
79	0x3de6f520	0.11277223
80	0xbdb7ca82	-0.08974172
81	0xbde5b1d4	-0.11215559
82	0x3d8a3514	0.06748405
83	0xbcd19b44	-0.025586732
84	0x3d400e7d	0.046888817
85	0xbddcea9e	-0.10786937
86	0xbd18db55	-0.037318546
87	0xbd4ed64f	-0.05049735
88	0x3d42aaaf	0.047526058
89	0x3df67506	0.12034039
90	0x3d94bef4	0.07262984
91	0xbdb6c3b4	-0.08924046
92	0x3bd95fd6	0.006633739
93	0x3c12fdb6	0.008971622
94	0xbdc06b70	-0.09395492
95	0x3d742118	0.059601873
96	0x3c59e098	0.013298176
97	0x3af9f20f	0.0019069331
98	0xbd79caa0	-0.060984254
99	0xb93b263c	-0.00017847953
100	0x3d8ad341	0.06778575
101	0x3dded7f5	0.10881034
102	0xbdba82d0	-0.09106982
103	0xbcbb81a6	-0.02288897
104	0x3da21e1f	0.079159014
105	0x3d33904c	0.043838784
106	0x3dc4f7ba	0.096175626
107	0x3cbf65cf	0.023363976
108	0x3d6b6d35	0.057477195
109	0x3d4a6ca8	0.04942003
110	0x3d9458c1	0.07243491
111	0xbd89040d	-0.06690226
112	0x3d0cb1b6	0.034349166
113	0x3dc6a092	0.09698595
114	0xbdd11ba8	-0.10210353
115	0x3b0c1f70	0.0021381043
116	0x3cb964df	0.022631107
117	0xbdb24c83	-0.08706
118	0xbdc7ec8f	-0.09761917
119	0x3d48faad	0.049067188
120	0x3cd0ab70	0.025472373
121	0xbd99d283	-0.07510855
122	0x3dbf2ca4	0.093346864
123	0x3d6f33ed	0.05839913
124	0xbd3aa22b	-0.04556481
125	0x3de99330	0.11405027
126	0x3d85dcfa	0.065362886
127	0x3cbf24a5	0.023332903

actor.weight f4 [4, 128]
0	0x3d7695a6	0.06020131
1	0x3b6653e1	0.003514521
2	0x3b93b157	0.0045072245
3	0xbd21d57d	-0.03951024
4	0xbcf9ebb0	-0.030507892
5	0xbc816007	-0.01579286
6	0xbd0d0c02	-0.03443528
7	0x3d55c558	0.052190155
8	0xbc9f0a93	-0.019414222
9	0xbd012733	-0.031531524
10	0x3c391843	0.011297288
11	0xbd149516	-0.036274992
12	0xbafff578	-0.0019528111
13	0xbd862e39	-0.06551785
14	0x3d0a6c10	0.033794463
15	0x3da6ea0e	0.08150111
16	0x3d52eae0	0.051493526
17	0x3d9a01b2	0.075198546
18	0xbc3d87ae	-0.011567993
19	0x3c878cd7	0.01654665
20	0x3c99620e	0.018723514
21	0x3d314b3a	0.043284632
22	0xbcde6e1a	-0.02715211
23	0xbd40d12c	-0.04707448
24	0xbcc12ec7	-0.023581875
25	0x3d8cd2a8	0.06876117
26	0xbc643afd	-0.0139300795
27	0xbd978821	-0.073990114
28	0x3d647b79	0.055781815
29	0xbcfc3bdc	-0.030790262
30	0xbbfc8f42	-0.0077075073
31	0x3cc44392	0.023958001
32	0xbdb3d7d6	-0.08781402
33	0x3da66156	0.08124034
34	0x3d8ebaec	0.06969246
35	0x3d12153e	0.03566479
36	0xbda8daa8	-0.0824483
37	0xbcdc410d	-0.026886487
38	0x3d6ff94c	0.058587357
39	0xbcfe47d8	-0.031040117
40	0xbc9c8ce5	-0.019110152
41	0x3d3ed1e6	0.046586893
42	0xbd77253a	-0.060338236
43	0xbcba61e9	-0.022751765
44	0x3d2ceb8d	0.042216826
45	0xbca4a6c8	-0.020099059
46	0x3d8628c2	0.06550743
47	0x3d6f7f22	0.058470853
48	0x3cb79fd6	0.022415083
49	0xbdafc23c	-0.08581969
50	0xbd29c487	-0.04144719
51	0x3d98cc93	0.074608944
52	0xbd0db3b9	-0.034595225
53	0x3da70c3f	0.08156633
54	0xbb59a54e	-0.0033210102
55	0xbdaff17f	-0.085909836
56	0xbc4b9f7b	-0.01242816
57	0xbc7e0ad9	-0.015505516
58	0x3d1ee0a5	0.038788456
59	0xbcc08664	-0.023501582
60	0xbd4cf118	-0.050034612
61	0x3d037f64	0.03210391
62	0xbc9c21ba	-0.01905905
63	0xbd828b8a	-0.06374271
64	0x3c096342	0.008385481
65	0x3c8b4f43	0.017005568
66	0x3d62a21e	0.05533039
67	0x3d5bd521	0.053670052
68	0x3cc5726e	0.024102416
69	0x3c7bb010	0.015361801
70	0xbd8c78a1	-0.06858946
71	0xbcd3d6e6	-0.025859307
72	0x3d2ec495	0.042667944
73	0x3d34ad27	0.044110443
74	0x3d03fe94	0.032225206
75	0xbd945d72	-0.07244386
76	0xbd1a9038	-0.037735194
77	0x3d514926	0.05109515
78	0x3dadf916	0.08494775
79	0x3d0b4692	0.034002848
80	0x3d54c321	0.051943902
81	0x3c98e945	0.01866592
82	0xbbe18d20	-0.0068832785
83	0x3c1910d3	0.00934239
84	0x3a486a6c	0.00076452526
85	0x3d967f59	0.073485084
86	0xbd643942	-0.055718668
87	0x3bda8bd1	0.0066694994
88	0x3bd3fb8f	0.006469197
89	0xbd903ae6	-0.07042484
90	0x3d85d0fb	0.065340005
91	0xbd4ed1b0	-0.050492942
92	0x3ba88f5b	0.0051440424
93	0xbd03505b	-0.032059055
94	0x3d287d24	0.04113497
95	0x3d303793	0.04302175
96	0xbd2f7448	-0.042835504
97	0x3d97c594	0.07410732
98	0xbd7ca298	-0.0616785
99	0x3d505b47	0.0508683
100	0x3d8e5d4f	0.06951391
101	0xbc869a4a	-0.016430993
102	0xbca6e0cf	-0.020370869
103	0x3d354d2d	0.044263054
104	0x3da0cdd6	0.0785176
105	0x3d560063	0.052246463
106	0xbd746b5e	-0.059672706
107	0xbc5c79e4	-0.013456795
108	0x3d87d483	0.0663233
109	0xbda5ecfb	-0.08101841
110	0xbd8348ef	-0.06410395
111	0xbcd27a2b	-0.02569302
112	0xbd8c829d	-0.0686085
113	0xbce9da92	-0.028546605
114	0xbcdfed07	-0.027334703
115	0x3d092402	0.033481605
116	0x3bf1eadf	0.007382735
117	0xbd63a3fa	-0.055576302
118	0xbc5f28e0	-0.013620585
119	0x3c2d6990	0.01058425
120	0x3ccb4e87	0.024817718
121	0xbb32d568	-0.0027287845
122	0xbc30c0e4	-0.010788176
123	0x3cac3567	0.021021558
124	0x3c6a9a0a	0.014318952
125	0x3d9118ac	0.07084784
126	0x3d828919	0.063738056
127	0x3d2cf9f3	0.042230558
128	0xbcb1f54b	-0.02172341
129	0xbd15a1c6	-0.036531232
130	0x3bb80b5e	0.0056165894
131	0x3cc4154f	0.023935942
132	0x3d984a38	0.07436031
133	0x3d7c05c9	0.061528955
134	0x3d10739c	0.035266504
135	0x3d4c30f4	0.049851373
136	0xbd836d7c	-0.06417367
137	0x3bd997a7	0.006640393
138	0xbd9fd865	-0.07804946
139	0x3d7897cf	0.06069165
140	0x3c15160e	0.0090994965
141	0x3d3ff962	0.04686869
142	0x3cc8d9a7	0.024517847
143	0xbc555523	-0.013020786
144	0x3d29003e	0.041259997
145	0x3c58b99e	0.013227848
146	0x3baafe5e	0.005218311
147	0x3c87de4e	0.016585495
148	0x3d0a1be8	0.03371802
149	0x3d656392	0.05600316
150	0x3da3a194	0.07989803
151	0x3d6bdda5	0.057584424
152	0xbd16b7cb	-0.036796372
153	0xbc724bb6	-0.014788559
154	0xbda4fcff	-0.08056068
155	0xbcd6f918	-0.026241824
156	0xbd65ff51	-0.05615169
157	0x3da3528d	0.0797473
158	0x3c0678c6	0.008207506
159	0xbd6b3eba	-0.057432868
160	0x3c2495c9	0.010045477
161	0x3ce20a0b	0.02759268
162	0xbd46a385	-0.048495788
163	0x3c034a6e	0.008013351
164	0x3d140d5a	0.036145546
165	0x3d10c765	0.035346407
166	0x3d89487c	0.067032784
167	0x3ce55023	0.027992314
168	0x3ba57673	0.0050495206
169	0x3da893ce	0.082313165
170	0x3d35cbdd	0.044383872
171	0xbd2ecdeb	-0.042676847
172	0xbd1e6b5d	-0.03867661
173	0xbcbcdb1d	-0.0230537
174	0xbd111e99	-0.03542957
175	0x3c8719db	0.016491821
176	0x3d1856b4	0.03719206
177	0x3b1971d6	0.0023413799
178	0xbcdb3540	-0.02675879
179	0xbc675c03	-0.014121058
180	0xbd0a2680	-0.033728123
181	0x3ccee02d	0.02525338
182	0x3c91c39a	0.017793465
183	0x3d23ac22	0.03995908
184	0x3d07629d	0.03305303
185	0x3d91987d	0.07109163
186	0xb9ae25b4	-0.00033215957
187	0xbd8128a7	-0.06306582
188	0x3dab7089	0.08371074
189	0xbd3c0167	-0.045899775
190	0x3d04b0f9	0.032395337
191	0x3d411db2	0.04714746
192	0x3d8bbce9	0.06823141
193	0xbd54bc15	-0.05193718
194	0x3cdc2281	0.026871921
195	0xbd3d9496	-0.04628428
196	0x3d9d856f	0.07691466
197	0xbd40af20	-0.047042012
198	0x3d8fc59a	0.070201114
199	0xbcc8a3af	-0.024492113
200	0xbcf75381	-0.030191185
201	0xba63f176	-0.0008695343
202	0xbc9b8468	-0.018984035
203	0x3d8907b6	0.06690924
204	0xbd8acf96	-0.06777875
205	0x3c221c21	0.009894402
206	0xbd31c4eb	-0.043400686
207	0xbd31851f	-0.043339845
208	0xb9e3c864	-0.00043446117
209	0x3ccb205a	0.0247957
210	0x3d97700d	0.07394419
211	0xbd9943a0	-0.074836016
212	0x3da47f8b	0.080321394
213	0xbd5452d2	-0.051836796
214	0xbdac2df2	-0.08407201
215	0xbd1a485c	-0.037666664
216	0xbda191f7	-0.07889169
217	0xbca24617	-0.019808812
218	0x3c9469a8	0.018116787
219	0xbd8738d7	-0.06602638
220	0xbcd04b3b	-0.025426498
221	0x3c91edd7	0.017813606
222	0x3bcea172	0.006305867
223	0x3c9ad598	0.018900678
224	0x3d2a4b47	0.041575696
225	0xbdb2d942	-0.08732845
226	0xbd4ae7b0	-0.04953736
227	0x3d75a265	0.059969325
228	0xbda46433	-0.08026924
229	0x3c53bb28	0.0129230395
230	0x3cf562ff	0.029954432
231	0xbda8a80a	-0.08235176
232	0x3d88eb33	0.06685486
233	0x3c3fbc18	0.01170256
234	0x3d0609c3	0.032724153
235	0x3da11b6b	0.07866558
236	0x3c239e3e	0.009986458
237	0xbd6c5110	-0.057694495
238	0xbd68b19c	-0.056810006
239	0x3adb736c	0.0016742772
240	0xbd2ad673	-0.04170842
241	0x3c8dfd55	0.017332712
242	0x3d45c8a9	0.048287068
243	0x3d010e39	0.031507704
244	0x3c9426a4	0.018084832
245	0x3c804967	0.015660001
246	0xbc93b1aa	-0.018029053
247	0x3c6a2410	0.0142908245
248	0x3d88b2e6	0.06674747
249	0xbd9b5814	-0.07585159
250	0xbd2758e2	-0.04085625
251	0x3d0ed53e	0.034871332
252	0xbd4b37e6	-0.049613856
253	0x3c984982	0.018589739
254	0xbc9ed162	-0.01938695
255	0xba9a215c	-0.001175921

actor.bias f4 [4]
0	0x3d552a40	0.052042246
1	0xbd55918a	-0.05214075
2	0x3c352b9b	0.01105776
3	0x3dac281c	0.08406088

critic.weight f4 [1, 128]
0	0xbd8a180b	-0.06742867
1	0x3b8e6b68	0.0043463
2	0xbda7467a	-0.08167739
3	0x3dad7295	0.084691204
4	0xbd2806e6	-0.041022204
5	0x3d6d9905	0.05800726
6	0x3db2bb3a	0.08727117
7	0x3d196252	0.03744728
8	0xbc8ab9b5	-0.016934255
9	0x3d8f175b	0.069868766
10	0xba9eb594	-0.0012108558
11	0x3bbf795d	0.005843325
12	0xbd6b73c5	-0.057483453
13	0xbcfe6307	-0.03105308
14	0xbc8b1845	-0.016979346
15	0xbd278dec	-0.04090683
16	0xbcf32ca4	-0.029684372
17	0x3cedcb58	0.029027626
18	0xbcd51644	-0.026011594
19	0xbce2b00b	-0.027671834
20	0xbb4a7f52	-0.0030898643
21	0xba8065d4	-0.0009795972
22	0xbd66d308	-0.0563536
23	0x3d13b3a2	0.036059983
24	0xbd83d8bd	-0.06437824
25	0xbc81d7ac	-0.01584991
26	0x3d5cdfbc	0.053924307
27	0xbd89a6e2	-0.067212835
28	0x3d3b5125	0.045731682
29	0xbd958117	-0.073000126
30	0x3d8f1ff6	0.06988518
31	0xbc94eea5	-0.0181802
32	0x3da3f5e7	0.080058865
33	0x3cdd13eb	0.026987037
34	0xbd762276	-0.06009146
35	0x3da73d3e	0.08165978
36	0xbd2e9ff1	-0.042633
37	0xbd00a960	-0.03141153
38	0xbdb42467	-0.08796006
39	0x3daf144f	0.085487954
40	0xbda7b943	-0.08189633
41	0x3d3c4517	0.045964327
42	0x3da79c97	0.08184164
43	0x3c910b30	0.01770553
44	0xbdaf0ee3	-0.08547761
45	0xbcdb52fe	-0.026772972
46	0x3d5a781d	0.053337205
47	0x3cfe624f	0.031052737
48	0x3cd87755	0.02642409
49	0xbc70a885	-0.014688616
50	0xbd03827e	-0.03210687
51	0xbda0f5c9	-0.0785938
52	0xbd47ffa2	-0.048827775
53	0xbd7c5f7d	-0.061614502
54	0x3d217d05	0.03942587
55	0x3d4c0d72	0.04981751
56	0x3d2c69ab	0.04209296
57	0xbdb0836c	-0.08618817
58	0x3d96d0f1	0.07364071
59	0x3db071f1	0.086154826
60	0xbd935fe2	-0.071960226
61	0xbceadbcd	-0.028669262
62	0x3d5c5218	0.05378923
63	0xbbbe2f2f	-0.0058039646
64	0x3d33c4e2	0.043888934
65	0xbda7d5f2	-0.08195104
66	0x3d5013fe	0.050800316
67	0x3cc315df	0.02381414
68	0x3d85fcc9	0.065423556
69	0x3d3ef39c	0.046619043
70	0xbcb03279	-0.021508442
71	0x3d8c32a0	0.068455935
72	0xbc8bffef	-0.017089812
73	0xbd4b79df	-0.049676772
74	0xbda84437	-0.08216136
75	0xbd8bf1b5	-0.06833211
76	0xbd46bc91	-0.048519675
77	0xbd82aea1	-0.06380964
78	0xbd01ecca	-0.03171996
79	0xbd610ae3	-0.054942023
80	0xbcd3c46e	-0.0258505
81	0x3d6e4b92	0.05817754
82	0x3d8fd9d9	0.07023973
83	0x3b368cef	0.0027855
84	0xbbe109e4	-0.006867634
85	0xbda8c442	-0.08240558
86	0xbd8f4a99	-0.0699665
87	0xbd305007	-0.04304507
88	0x3d82b16d	0.063814975
89	0xbce1f13c	-0.02758085
90	0x3cb324e9	0.021868186
91	0xbb620249	-0.0034486225
92	0x3c7262e0	0.014794081
93	0x3aad63d6	0.0013228606
94	0xbd3377e1	-0.043815497
95	0x3d4f3754	0.050589874
96	0x3a2e769a	0.0006655246
97	0x3cc84cbd	0.024450654
98	0xbd765eb9	-0.06014893
99	0x3d4e0193	0.05029447
100	0x3b93d01a	0.0045108916
101	0xbbfe3990	-0.007758327
102	0xbd68c4d3	-0.05682833
103	0x3d330408	0.043705016
104	0xbd31e8e7	-0.043435004
105	0x3db24e77	0.08706372
106	0xbcfbcccf	-0.030737309
107	0x3bf90130	0.0075990185
108	0xbda529b2	-0.080645934
109	0x3b018412	0.0019762558
110	0xbd1abe55	-0.03777917
111	0x3d12fb41	0.035884146
112	0xbd4e5fc1	-0.050384287
113	0xbd311b49	-0.04323891
114	0xbb4d9650	-0.003137011
115	0x3c4cea3c	0.012507018
116	0xbdb46165	-0.08807639
117	0xbd0e4e1a	-0.034742452
118	0xbbaa10b9	-0.005189982
119	0x3d15b321	0.036547784
120	0x3d99456f	0.074839465
121	0x3d4e4798	0.050361246
122	0xbdafe8d1	-0.08589328
123	0x3d9b318e	0.07577811
124	0xbd910f76	-0.07083027
125	0xbd24d0fc	-0.040238366
126	0xbb284033	-0.0025673031
127	0x3d9cd1af	0.076571815
