models/hybrid/linear/PPL/agent2.pth (torch, 40580 bytes, 5 tensors)

fc.weight f4 [128, 68]
0.03575251 0.023855887 -0.04644186 0.02317202 0.077715985 0.067950115 0.06764801 0.09552171
0.03417005 -0.08014602 0.060641002 -0.04374305 0.0426211 0.0018176131 -0.0456726 0.08780645
0.04352603 -0.07144904 -0.09835065 -0.11657579 -0.06885334 -0.042117864 -0.078347065 0.051454734
-0.08151719 0.026313685 -0.025939355 0.029921545 0.04675014 0.050258268 0.01361838 0.10119714
-0.071541786 -0.038112957 0.094260514 0.045799393 0.08826895 -0.07413728 0.004846968 0.09558563
-0.10052078 0.10550952 0.02859464 -0.10091863 -0.10866923 0.028064149 0.0040322817 0.070766225
-0.03851157 0.046228543 0.049841795 -0.024658127 0.003987655 0.097654656 0.020808527 -0.08311768
-0.022617236 -0.093555756 -0.03232277 -0.08417506 -0.008427719 0.08181123 -0.09261334 -0.119098306
0.031130493 -0.10336629 0.119309425 0.020352447 -0.11479356 -0.024730505 -0.022028182 0.10979509
0.10608204 0.0813194 0.11723028 0.11959642 -0.07991173 -0.041700758 0.02428073 0.04160899
0.03406543 0.041045833 -0.0737925 0.083399 -0.034077097 0.029146662 -0.07668744 0.07278872
0.07131693 -0.040343475 0.06113042 -0.06290846 -0.09788557 -0.05550094 -0.068001084 0.077988416
-0.11907629 -0.045396645 0.04922804 0.056361876 -0.0728055 -0.0077378065 -0.08952732 0.00028992008
-0.014003451 0.11016643 -0.097810365 0.102162525 0.068296865 -0.06867804 -0.10942113 0.020616159
0.082077615 0.018267669 0.037014693 0.11426172 -0.021341087 -0.04520089 0.039590564 0.11201371
0.09304305 0.074272536 0.08307566 0.029043082 0.062292818 0.0028916257 0.089607045 0.11586873
-0.027037784 0.018076558 0.047773495 0.060604025 0.042009037 -0.020676702 -0.10763529 0.048975144
-0.105824366 -0.05350356 -0.045339976 -0.08826015 -0.08365519 0.0020005426 0.08327296 0.10417399
-0.09008062 0.089668356 -0.10021192 -0.03483703 -0.07508498 0.05603942 0.051745843 -0.057267204
0.063816436 -0.08019054 -0.021900626 0.09539305 -0.120228395 -0.099667676 -0.12002174 -0.020787183
0.01529323 0.12069709 -0.0825757 -0.11702337 0.1140075 -0.02932756 -0.11476723 0.09699205
-0.05355014 0.07180377 -0.0350021 0.015844425 0.074330635 0.051506482 0.11883342 -0.110528715
-0.056708056 -0.012546391 0.11430061 -0.0675896 0.075711414 -0.05109937 0.021602768 0.029100964
0.118636474 0.030935204 -0.10387609 0.024878815 -0.07987354 0.109924 0.012879478 -0.11021021
0.024223484 0.08337088 -0.022531843 -0.011239055 0.11344803 -0.098875225 -0.0830745 -0.0055183265
-0.07488466 0.060067814 -0.102868795 0.015268922 -0.078965195 -0.11887357 0.057865866 0.012435257
0.07375622 -0.0477305 0.06664668 -0.11603536 0.06404431 0.000975074 0.043660577 0.07901763
-0.069192074 0.053413168 -0.008408218 -0.008338032 0.07794752 -0.09403679 -0.0913115 0.01481196
-0.11397222 0.05187651 -0.063392416 0.004690443 -0.009984645 -0.0041858503 -0.06596861 -0.017259823
-0.06972625 0.06634986 -0.10331847 -0.06500014 0.012436055 -0.06672439 0.040830698 0.11961442
-0.116853826 -0.06487861 0.037840806 -0.023854611 -0.013771446 -0.102872446 0.020389466 0.045327816
-0.06794724 0.063896075 0.11954908 0.045854915 0.09765748 -0.060870018 -0.0936403 0.08168537
00000000: 3971 123d 6c6d c33c d239 3ebd 40d3 bd3c
00000010: 8f29 9f3d 6e29 8b3d 0a8b 8a3d e3a0 c33d
00000020: e5f5 0b3d 9923 a4bd b362 783d ea2b 33bd
00000030: 7693 2e3d fa3c ee3a 3113 3bbd ded3 b33d
00000040: 5a48 323d e053 92bd 116c c9bd 4abf eebd
00000050: fb02 8dbd c883 2cbd 6d74 a0bd 33c2 523d
00000060: 7cf2 a6bd cc8f d73c c57e d4bc 071e f53c
00000070: 137d 3f3d 9ddb 4d3d a01f 5f3c 7240 cf3d
00000080: 8084 92bd 551c 1cbd a80b c13d 2598 3b3d
00000090: 5ac6 b43d 49d5 97bd 51d3 9e3b 66c2 c33d
000000a0: d7dd cdbd 6015 d83d 4e3f ea3c 6dae cebd
000000b0: f98d debd c9e6 e53c 3b21 843b e2ed 903d
000000c0: 4fbe 1dbd 245a 3d3d e926 4c3d d7ff c9bc
000000d0: e0aa 823b 2aff c73d a576 aa3c 9a39 aabd
000000e0: c847 b9bc 299a bfbd e264 04bd f963 acbd
000000f0: 6a14 0abc a58c a73d 10ac bdbd d0e9 f3bd
00000100: 6005 ff3c b5b1 d3bd 8058 f43d 2dba a63c
00000110: e318 ebbd a197 cabc 7274 b4bc 40dc e03d
00000120: 8a41 d93d c98a a63d 6e16 f03d f8ee f43d
00000130: c3a8 a3bd 6ace 2abd 62e8 c63c 306e 2a3d
00000140: 3188 0b3d ad1f 283d 8620 97bd 18cd aa3d
00000150: 6d94 0bbd fbc4 ee3c 4e0e 9dbd 4112 953d
00000160: 9c0e 923d 333f 25bd e463 7a3d 27d6 80bd
00000170: 3b78 c8bd f454 63bd 2744 8bbd 64b8 9f3d
00000180: 45de f3bd d5f1 39bd 57a3 493d b6db 663d
00000190: 0d1b 95bd 6d8d fdbb 195a b7bd 6a00 9839
000001a0: bb6e 65bc f09e e13d cd50 c8bd 963a d13d
000001b0: 3adf 8b3d 12a7 8cbd 2f18 e0bd 38e3 a83c
000001c0: 4f18 a83d 14a6 953c b89c 173d 0c02 ea3d
000001d0: 81d3 aebc 9224 39bd b729 223d 7267 e53d
000001e0: 5b8d be3d 331c 983d 9223 aa3d c2eb ed3c
000001f0: c126 7f3d 6e81 3d3b e683 b73d 964c ed3d
00000200: 587e ddbc 4a15 943c 24ae 433d ed3b 783d
00000210: ab11 2c3d 3062 a9bc e46f dcbd 299a 483d
00000220: 72ba d8bd 8d26 5bbd 69b6 39bd bdc1 b4bd
00000230: 6a53 abbd 891b 033b 038b aa3d 2c59 d53d
00000240: 307c b8bd 0ba4 b73d e83b cdbd 46b1 0ebd
00000250: 27c6 99bd 9789 653d 73f3 533d 0491 6abd
00000260: 31b2 823d f03a a4bd f168 b3bc 6e5d c33d
00000270: 4e3a f6bd 911e ccbd f5cd f5bd e249 aabc
00000280: 7590 7a3c 0930 f73d 731d a9bd f3a9 efbd
00000290: c47c e93d 5a40 f0bc 150b ebbd c5a3 c63d
000002a0: 6457 5bbd db0d 933d 5d5e 0fbd 2bcc 813c
000002b0: a93a 983d 76f8 523d f05e f33d e15c e2bd
000002c0: b546 68bd 618f 4dbc 7016 ea3d 6b6c 8abd
000002d0: 960e 9b3d 934d 51bd 4af8 b03c 2565 ee3c
000002e0: aef7 f23d d36b fd3c fdbc d4bd a8ce cb3c
000002f0: bd94 a3bd d61f e13d 7204 533c e4b5 e1bd
00000300: 5470 c63c 5abe aa3d b394 b8bc 0324 38bc
00000310: 7157 e83d 187f cabd f722 aabd 14d3 b4bb
00000320: 215d 99bd ab09 763d e0ac d2bd 802a 7a3c
00000330: 81b8 a1bd fc73 f3bd c204 6d3d 40bd 4b3c
00000340: 800d 973d 0f81 43bd 0e7e 883d f2a3 edbd
00000350: aa29 833d 1c9c 7f3a 6fd5 323d ffd3 a13d
00000360: 93b4 8dbd c4c7 5a3d 9fc2 09bc 3e9c 08bc
00000370: f3a2 9f3d 5c96 c0bd 8601 bbbd ddad 723c
00000380: 446a e9bd 777c 543d e2d3 81bd 4ab2 993b
00000390: a396 23bc 7529 89bb 8d1a 87bd 7964 8dbc
000003a0: a3cc 8ebd 6fe2 873d a298 d3bd cb1e 85bd
000003b0: 98c0 4b3c cca6 88bd 173e 273d 68f8 f43d
000003c0: 0f51 efbd 14df 84bd f6fe 1a3d bf6a c3bc
000003d0: a2a1 61bc caae d2bd cf07 a73c a9a9 393d
000003e0: ec27 8bbd f2db 823d 26d6 f43d 5dd2 3b3d
000003f0: a500 c83d d752 79bd 7cc6 bfbd a94a a73d

fc.bias f4 [128]
0.05923153 0.08279529 -0.00012159035 -0.10403596 0.09120031 -0.102177516 0.008336108 0.033913404
0.03215288 -0.026359787 -0.027954863 -0.004567695 -0.028806876 -0.017834475 -0.033622015 -0.08010369
0.00089434977 0.014611575 0.015526553 -0.0933429 -0.021985153 -0.011340913 -0.09063904 -0.022859162
0.02378872 -0.00318826 0.10506925 0.08461837 0.112213895 0.052840125 0.01328455 -0.02836979
0.045128763 0.03653476 0.015522948 0.11745277 0.013440263 0.106446065 0.12097358 0.10850951
-0.11964347 0.03714587 0.059683476 0.114985876 -0.004689776 -0.08279175 -0.079223864 0.11357008
-0.007465441 -0.017846337 0.0064946576 0.0261572 -0.10205617 -0.02804996 -0.023007827 -0.046503123
-0.07192867 -0.080125965 -0.01476939 0.02120135 -0.03215653 -0.0614877 0.028211178 -0.10637586
0.112407796 0.0856064 -0.012025947 0.06022842 -0.028558448 0.106494635 -0.013894363 0.03530637
-0.093469344 0.021876615 -0.0013153782 -0.04876554 0.035122424 -0.040236585 -0.0030465508 0.039471664
0.010414485 0.061063528 -0.11179128 -0.098717414 -0.09584213 0.08981977 -0.06352743 -0.011137667
0.10973017 0.029814858 -0.04797532 0.045390487 -0.10998526 0.020288764 -0.07387576 0.0802591
-0.042739145 -0.10579557 0.033079784 -0.049964163 -0.1066319 0.030118614 -0.10664964 -0.044392075
-0.08117111 -0.101621315 -0.036207154 -0.05791122 -0.083145276 -0.10844011 -0.11579173 -0.10370851
-0.110189 -0.062417045 0.04863178 0.061126385 -0.101665094 -0.025334178 0.10259723 0.066888325
0.11815744 0.07173271 -0.098460674 0.016800111 0.062286142 0.010539934 0.09697596 -0.06892067
00000000: c39c 723d 9490 a93d 52fe feb8 ce10 d5bd
00000010: 3ac7 ba3d 7242 d1bd 2c94 083c c8e8 0a3d
00000020: bdb2 033d 7bf0 d7bc 9901 e5bc 9aac 95bb
00000030: 66fc ebbc 9b19 92bc 3db7 09bd 670d a4bd
00000040: cc72 6a3a 6365 6f3c 1563 7e3c 902a bfbd
00000050: 351a b4bc 3dcf 39bc f6a0 b9bd 2343 bbbc
00000060: 90e0 c23c 20f2 50bb 8c2e d73d 654c ad3d
00000070: 66d0 e53d e36e 583d 71a7 593c c367 e8bc
00000080: f0d8 383d 79a5 153d f653 7e3c 148b f03d
00000090: 8d34 5c3c 6500 da3d ffc0 f73d 3c3a de3d
000000a0: a307 f5bd 4526 183d a976 743d b77d eb3d
000000b0: b1ac 99bb b98e a9bd 1f40 a2bd 6e97 e83d
000000c0: a8a0 f4bb 7b32 92bc 23d1 d43b a047 d63c
000000d0: d302 d1bd 08c9 e5bc e97a bcbc 0f7a 3ebd
000000e0: 574f 93bd 1519 a4bd 50fb 71bc 74ae ad3c
000000f0: 91b6 03bd 87da 7bbd 211b e73c 96db d9bd
00000100: 0f36 e63d 6952 af3d 7a08 45bc 13b2 763d
00000110: 68f3 e9bc dc19 da3d 2fa5 63bc 6a9d 103d
00000120: db6c bfbd 9636 b33c c568 acba 60be 47bd
00000130: 88dc 0f3d 1ecf 24bd a4a8 47bb 0aad 213d
00000140: 84a1 2a3c c01d 7a3d d4f2 e4bd 5b2c cabd
00000150: e148 c4bd 6df3 b73d ab1a 82bd c37a 36bc
00000160: 36ba e03d 4a3e f43c c581 44bd 60eb 393d
00000170: f43f e1bd 9f34 a63c 2d4c 97bd e25e a43d
00000180: 3e0f 2fbd 59ab d8bd ab7e 073d 39a7 4cbd
00000190: d361 dabd 50bb f63c 206b dabd 77d4 35bd
000001a0: 0a3d a6bd d61e d0bd f44d 14bd 5134 6dbd
000001b0: 1248 aabd d915 debd 3724 edbd 2165 d4bd
000001c0: c5aa e1bd 04a9 7fbd 1e32 473d a95f 7a3d
000001d0: ca35 d0bd 9f89 cfbc 7f1e d23d bffc 883d
000001e0: 87fc f13d 99e8 923d c0a5 c9bd 63a0 893c
000001f0: c11f 7f3d b0af 2c3c 559b c63d 4826 8dbd

actor.weight f4 [4, 128]
0.03963531 0.08516304 -0.01748812 -0.03566443 -0.05435228 0.010159869 0.04559193 -0.0749257
0.030980898 0.01157051 -0.01821904 0.002308371 0.060503546 -0.05108628 -0.0495779 -0.031545065
0.06036821 0.067430265 0.05125868 -0.050905757 0.06351069 -0.0031917146 -0.06853262 0.007861367
-0.056920398 0.011611102 -0.06312606 0.032723553 -0.036275107 -0.045215994 0.019798072 0.04541362
-0.019289903 -0.043671876 -0.068734996 0.030373788 0.017208932 0.0071345433 0.054684535 0.057362754
0.023739405 7.938233e-05 -0.0553273 0.016219836 -0.0054235873 0.07329371 -0.03079609 0.03829625
-0.06334431 0.046392556 -0.05254971 0.027245015 -0.08355754 -0.04085123 -0.007296958 -0.035611715
0.0132863205 0.08006899 -0.08666267 -0.041044552 -0.011001512 -0.008829519 -0.010040358 -0.0749477
-0.05869176 -0.0654802 0.06400926 0.078292914 0.021421475 -0.0025079134 0.051990986 0.05918172
0.07296742 0.07958797 -0.07768923 -0.0500038 0.065048605 0.083244905 0.059429593 -0.013280668
-0.05855387 -0.074681 0.038950197 0.0775784 -0.063244276 -0.050584555 -0.068303615 -0.03545439
-0.06300134 -0.028488062 -0.0554361 0.086683206 0.07892376 0.04873241 0.068395235 0.029515482
0.0058191936 -0.080671646 0.062245246 -0.058785766 -0.054846507 0.022489153 0.069076985 -0.05962082
-0.075502224 0.08167798 0.030137759 0.06286278 -0.01733842 -0.0055527743 -0.018618915 0.07023799
0.044627253 0.002085183 -0.0022255485 0.08695984 0.0038477173 -0.068847045 -0.031198174 -0.021874744
0.036844485 0.08574705 0.020364892 -0.08522694 0.03532909 -0.07361477 0.08811408 -0.08833702
0.03478443 0.03946641 0.06180339 0.011341756 -0.0418101 0.044333458 -0.009287962 -0.02826673
-0.083684705 0.0120347645 -0.062032614 0.029427495 -0.081753656 -0.004945052 -0.009162214 -0.025776124
-0.083816595 -0.0822939 -0.0810466 -0.035107166 -0.047166415 0.043887686 -0.015655976 -0.07187917
0.017937215 0.06866284 0.06179387 -0.04159404 -0.021527965 -0.06964363 -0.035062563 -0.054620635
-0.05059947 -0.0324397 -0.02204215 -0.08341303 -0.032709237 0.082829125 -0.01599067 -0.03717382
0.014910635 0.007147195 0.0042425245 -0.03729072 -0.03629624 0.02886497 0.08665245 0.0017565809
-0.027770313 0.02065007 0.013730195 -0.029333375 -0.025846217 0.028865708 -0.059950188 0.0837442
-0.0051090633 -0.07180829 -0.0883372 0.039282948 -0.058483187 -0.039306898 -0.07287071 0.06594026
-0.06971252 0.022012033 0.005287149 -0.08601965 -0.039028656 0.012772036 -0.08470641 -0.046048228
0.07793293 0.04375977 0.0188358 0.07320471 0.022513222 -0.05480241 0.024912855 0.08681133
0.004830261 0.073441625 0.043242708 0.016674463 -0.043596447 0.030184548 -0.060458012 -0.06822591
-0.011915947 0.06809175 -0.084326625 -0.017006526 0.03763439 0.024934651 0.0088423835 0.011379464
0.047160197 0.05845844 -0.08301793 0.069722906 -0.08361114 0.041384436 0.04038257 -0.05533128
-0.08078147 -0.059040368 0.079231426 0.08276991 0.050638467 0.032473776 0.048792325 0.069302335
-0.050015215 -0.035964716 0.029059608 -0.08715486 0.016777257 -0.03894779 0.07039505 0.037310377
-0.004600852 -0.065128095 0.050643176 0.059908275 -0.03162582 -0.06999192 0.036578964 0.08306698
00000000: a358 223d f669 ae3d 3f43 8fbc de14 12bd
00000010: 7fa0 5ebd 9475 263c 9bbe 3a3d a572 99bd
00000020: a7cb fd3c 3d92 3d3c 1940 95bc 0a48 173b
00000030: 91d2 773d d93f 51bd 3212 4bbd 6635 01bd
00000040: a844 773d e118 8a3d 9ff4 513d 8e82 50bd
00000050: e511 823d 162c 51bb d55a 8cbd f7cc 003c
00000060: 5d25 69bd 7e3c 3e3c 3c48 81bd 2209 063d
00000070: 3595 14bd 6834 39bd 912f a23c a203 3a3d
00000080: dc05 9ebc 48e1 32bd efc4 8cbd 73d2 f83c
00000090: bff9 8c3c e3c8 e93b e4fc 5f3d 35f5 6a3d
000000a0: 2479 c23c 107a a638 e19e 62bd 76df 843c
000000b0: 59b8 b1bb 031b 963d 1548 fcbc 87dc 1c3d
000000c0: a9ba 81bd 1f06 3e3d 5d3e 57bd f030 df3c
000000d0: 3720 abbd 9f53 27bd 521b efbb 97dd 11bd
000000e0: deae 593c 36fb a33d 337c b1bd 551e 28bd
000000f0: b03f 34bc b0a9 10bc 5080 24bc 2e7e 99bd
00000100: c566 70bd 7c1a 86bd 4917 833d 0958 a03d
00000110: 177c af3c ce5b 24bb 80f4 543d 8868 723d
00000120: f16f 953d 05ff a23d 881b 9fbd c9d0 4cbd
00000130: 3438 853d 4e7c aa3d 726c 733d 2997 59bc
00000140: 2fd6 6fbd 5af2 98bd 3e8a 1f3d 6de1 9e3d
00000150: 3786 81bd c031 4fbd c4e2 8bbd 9f38 11bd
00000160: d906 81bd cc5f e9bc f710 63bd f786 b13d
00000170: c8a2 a13d a39b 473d cd12 8c3d 74ca f13c
00000180: efae be3b 2d37 a5bd dff4 7e3d 58c9 70bd
00000190: bba6 60bd 2c3b b83c 3c78 8d3d f634 74bd
000001a0: e9a0 9abd c946 a73d 76e3 f63c 34be 803d
000001b0: 4d09 8ebc 0cf4 b5bb b286 98bc efd8 8f3d
000001c0: 11cb 363d 91a7 083b 82da 11bb 0018 b23d
000001d0: fc29 7c3b aeff 8cbd 5093 ffbc aa32 b3bc
000001e0: 3eea 163d 269c af3d 46d4 a63c 768b aebd
000001f0: 3cb5 103d 57c3 96bd 2875 b43d 0aea b4bd
00000200: 1e7a 0e3d 88a7 213d 8d25 7d3d c6d2 393c
00000210: 1141 2bbd 0097 353d 892c 18bc a18f e7bc
00000220: e362 abbd 762d 453c e915 7ebd ee11 f13c
00000230: 766e a7bd 1a0a a2bb 1c1d 16bc 7328 d3bc
00000240: 09a8 abbd b489 a8bd c3fb a5bd 88cc 0fbd
00000250: 9231 41bd 93c3 333d f640 80bc 6335 93bd
00000260: 11f1 923c 1a9f 8c3d 921b 7d3d 835e 2abd
00000270: 6a5b b0bc 52a1 8ebd c39d 0fbd e3b9 5fbd
00000280: 6441 4fbd 7edf 04bd bd91 b4bc 73d4 aabd
00000290: 1ffa 05bd 51a2 a93d defe 82bc 9343 18bd
000002a0: bc4b 743c 0433 ea3b e004 8b3b 27be 18bd
000002b0: 5eab 14bd 3b76 ec3c d776 b13d 133d e63a
000002c0: 917e e3bc 562a a93c 9df4 603c 8c4c f0bc
000002d0: 72bb d3bc c777 ec3c 548e 75bd 1482 ab3d
000002e0: ee69 a7bb 3a10 93bd 22ea b4bd 28e7 203d
000002f0: 118c 6fbd 4500 21bd 3d3d 95bd b00b 873d
00000300: 70c5 8ebd 9452 b43c d23f ad3b 122b b0bd
00000310: 83dc 1fbd cd41 513c 8e7a adbd 119d 3cbd
00000320: 4d9b 9f3d 723d 333d 894d 9a3c 5aec 953d
00000330: a66d b83c 7e78 60bd 0b16 cc3c 23ca b13d
00000340: 2b47 9e3b 9068 963d 441f 313d e298 883c
00000350: 3092 32bd 9645 f73c d2a2 77bd 07ba 8bbd
00000360: 1b3b 43bc b073 8b3d 70b3 acbd 4551 8bbc
00000370: 8526 1a3d c143 cc3c a5df 103c ee70 3a3c
00000380: 0d2b 413d 1e72 6f3d 4e05 aabd e2ca 8e3d
00000390: 513c abbd ba82 293d 3268 253d 0da3 62bd
000003a0: c170 a5bd 50d4 71bd 1644 a23d 4583 a93d
000003b0: 486a 4f3d 3903 053d 76da 473d 62ee 8d3d
000003c0: c1dc 4cbd bd4f 13bd 6a0e ee3c 3f7e b2bd
000003d0: 7570 893c b887 1fbd 482b 903d c4d2 183d
000003e0: bec2 96bb e161 85bd 386f 4f3d 6162 753d
000003f0: 138a 01bd ec57 8fbd d3d3 153d 051f aa3d

actor.bias f4 [4]
0.03872627 -0.039693978 0.038115982 -0.041355982
00000000: 709f 1e3d 2796 22bd 811f 1c3d e464 29bd

critic.weight f4 [1, 128]
0.041610252 -0.08369716 0.07351653 0.07313287 0.027120076 -0.06680327 -0.069118485 0.076863326
0.07562828 -0.009362142 -0.01837067 -0.056674965 -0.064734094 0.0032505593 0.06867377 0.08152079
0.05664095 -0.053797677 0.0006372599 -0.012923849 0.0021966076 0.07372417 0.046644207 -0.022391401
0.018250117 -0.039553426 0.025369754 0.0768412 0.0067055654 -0.056481663 0.06861263 0.013638831
-0.06720891 0.05300799 0.04982677 0.028416516 -0.047200724 -0.07564383 -0.033542108 0.020477556
0.078495376 0.00016579955 -0.042178217 0.05438398 -0.06225366 -0.050243754 0.04590279 0.01392367
-0.048948295 0.047255456 0.029391315 -0.052626904 0.06587144 0.011528747 -0.03880139 0.0753106
0.03258497 -0.019653156 0.016085476 0.071336254 -0.044539277 0.071248844 -0.006914949 -0.05817006
0.037269447 0.08209117 -0.012235196 -0.0733781 0.0058382996 -0.056782175 -0.063795306 0.023333576
0.0361628 -0.03104187 -0.046006262 -0.059101596 -0.07538093 -0.07618275 0.0015161904 -0.047058277
0.03234632 -0.050669935 -0.034543596 -0.006042142 -0.08114709 -0.0367062 -0.016467068 -0.05945487
0.043353338 -0.014583953 -0.021289216 0.08410294 0.047553696 -0.046889137 -0.038956568 0.0026274987
0.0017885356 0.020800797 -0.07983474 0.037931673 -0.07519719 -0.06175135 0.034398977 0.026085071
0.048021197 0.06670694 -0.07855234 0.029013734 -0.016094994 0.0747266 0.076434545 0.03593113
-0.028476631 -0.014811654 0.007989252 0.046718333 -0.08434217 -0.06540431 0.06594155 0.05056937
-0.015282912 0.057417132 -0.078097634 0.04480223 -0.022588044 -0.0690096 0.07985378 0.0695816
00000000: 836f 2a3d 6b69 abbd d68f 963d b0c6 953d
00000010: ec2a de3c 27d0 88bd fe8d 8dbd 856a 9d3d
00000020: 00e3 9a3d ab63 19bc 167e 96bc 0224 68bd
00000030: 4f93 84bd 5607 553b d5a4 8c3d 5ff4 a63d
00000040: 5700 683d f45a 5cbd ca0d 273a 8dbe 53bc
00000050: f6f4 0f3b b3fc 963d ff0d 3f3d 2c6e b7bc
00000060: 4581 953c c602 22bd 3bd4 cf3c eb5e 9d3d
00000070: 5cba db3b 5159 67bd c784 8c3d 6775 5f3c
00000080: d3a4 89bd e81e 593d 2817 4c3d c1c9 e83c
00000090: 8c55 41bd 27eb 9abd 7363 09bd 8cc0 a73c
000000a0: 2fc2 a03d 7ada 2d39 11c3 2cbd bcc1 5e3d
000000b0: b2fd 7ebd 65cc 4dbd 9004 3c3d 1b20 643c
000000c0: 027e 48bd f08e 413d 0ec6 f03c 4f8f 57bd
000000d0: 9be7 863d 12e3 3c3c 35ee 1ebd 723c 9a3d
000000e0: d177 053d a8ff a0bc b0c5 833c be18 923d
000000f0: d16e 36bd eaea 913d cc96 e2bb bb43 6ebd
00000100: d9a7 183d 6a1f a83d 2276 48bc 4247 96bd
00000110: 354f bf3b 6d94 68bd 1da7 82bd 0e26 bf3c
00000120: 721f 143d 854b febc 1071 3cbd 8414 72bd
00000130: 5161 9abd b405 9cbd e8ba c63a 2ec0 40bd
00000140: 937d 043d 478b 4fbd 967d 0dbd 29fd c5bb
00000150: 7230 a6bd 3e59 16bd f2e5 86bc f386 73bd
00000160: 4593 313d 88f1 6ebc b966 aebc 2a3e ac3d
00000170: aac7 423d d30e 40bd ec90 1fbd 1d32 2c3b
00000180: 4c6d ea3a 6f66 aa3c 6580 a3bd 3e5e 1b3d
00000190: fc00 9abd fcee 7cbd f1e5 0c3d 5cb0 d53c
000001a0: e0b1 443d a69d 883d 0de0 a0bd 36ae ed3c
000001b0: a6d9 83bc 420a 993d b789 9c3d 852c 133d
000001c0: d347 e9bc 94ac 72bc 5ae5 023c b95b 3f3d
000001d0: 96bb acbd b2f2 85bd 5d0c 873d d421 4f3d
000001e0: 2e65 7abc 3a2e 6b3d a7f1 9fbd 8b82 373d
000001f0: 900a b9bc e854 8dbd 618a a33d cc80 8e3d
