data/learning/hybrid/nn/model_nn_MPL.pth (torch, 11040 bytes, 3 tensors)

0.weight f4 [32, 68]
0.11540066 0.10499763 0.07063057 0.048173603 0.045155454 0.10235078 0.011317075 -0.041962415
0.11196708 0.030298535 0.07558301 0.093948595 0.09795678 -0.10436283 0.011076133 -0.09734266
0.012613468 0.09116984 -0.100348316 -0.0035754787 0.08855505 -0.0378425 -0.029199427 -0.031084342
-0.026393725 -0.029838234 -0.09121755 0.11976861 0.018499821 -0.09475977 -0.09839338 0.0814639
-0.060675442 0.03999286 0.014367354 0.03463025 -0.05898112 0.110225506 0.066476226 0.06223613
0.09348062 -0.02090039 0.063505225 -0.07459666 -0.028812606 -0.044253472 -0.05657287 -0.05714042
-0.10756787 -0.016720532 0.025150187 0.043532927 0.079248846 -0.044300728 0.015173019 0.00025740798
-0.08873467 -0.099300615 0.10130545 0.08147599 -0.023640897 -0.102644704 0.008417802 0.023771785
-0.09654223 0.022909282 0.053349778 0.004842569 0.019123826 -0.059425954 -0.1170019 -0.06460307
-0.05031463 0.11173053 -0.11079738 0.09028856 -0.08256775 -0.09333423 -0.034211118 0.075255044
-0.0013758013 -0.09295568 -0.060703874 -0.11907111 0.0048089726 0.09417331 -0.11477294 0.032632325
-0.01246824 -0.074338995 0.040851988 0.08478006 -0.072182104 0.1148898 0.052989643 -0.024644913
-0.10023413 0.035796493 0.032336894 0.015803298 -0.052879702 -0.08183009 0.03169433 0.08026151
-0.03394355 0.11923918 -0.013324586 0.02654247 0.08567432 0.041854948 0.04987023 -0.11413362
0.0026657614 0.06662874 0.112061836 0.054187182 -0.06325904 0.08128768 0.07259103 0.052054685
0.01788014 -0.015862366 0.09011913 0.117268115 -0.07218453 0.014069949 -0.07351687 -0.03122842
-0.09049317 0.071139164 -0.021865062 -0.023955567 0.043403167 -0.009216062 -0.012480847 -0.11662299
-0.07918526 -0.11665281 -0.024823157 -0.12931584 -0.11030639 -0.015156149 -0.0064152787 -0.09081659
0.011319287 -0.10638964 0.019807968 -0.0042763175 -0.035579737 -0.092545584 -0.06892646 -0.10170358
0.06924196 0.07674557 -0.033418007 -0.093536474 -0.019101461 -0.1126971 0.029523188 -0.026957408
-0.008387644 -0.022751449 0.054489825 0.1134513 -0.1010239 0.02847627 -0.14097759 -0.03028377
-0.026898628 -0.00046449734 -0.057504807 -0.030821012 -0.07290934 -0.117292866 -0.11116168 0.014173288
0.056269962 -0.02527428 -0.030828234 0.09970747 -0.026597157 0.046128765 -0.0033775726 -0.04539169
-0.03855279 -0.046249516 0.048603516 0.090938136 -0.08210677 0.04740528 0.09660808 -0.0413447
0.05781284 0.030596465 -0.08890033 -0.010205014 -0.06456689 0.021742444 -0.11359391 0.0028558755
-0.04972636 -0.029937187 0.024662621 0.057522863 0.062826514 -0.05328442 -0.064956136 -0.080486886
-0.099102706 -0.10634501 0.11991948 -0.10348946 0.08652875 -0.00010764124 0.03668045 -0.011670328
0.08520386 0.06034792 0.008670064 0.10154436 0.050061718 0.1086509 0.107692756 0.08619313
0.108993314 -0.039739218 0.06888626 0.114602655 0.017176222 0.061123222 0.1059724 0.108324915
-0.06239855 -0.021748474 -0.05688566 0.038239975 -0.050163243 -0.047522895 -0.10211094 0.08276454
0.053763803 0.08453383 -0.09457306 -0.08591908 0.08317256 -0.10024691 -0.04782042 -0.10305987
0.10106908 0.08097891 -0.011033992 0.032207947 -0.0025576574 -0.105804004 -0.057322673 -0.071430914
00000000: 2e57 ec3d ff08 d73d c3a6 903d af51 453d
00000010: edf4 383d 499d d13d 416b 393c c8e0 2bbd
00000020: ff4e e53d a234 f83c 44cb 9a3d 1f68 c03d
00000030: 909d c83d 2ebc d5bd ab78 353c 975b c7bd
00000040: b8a8 4e3c 41b7 ba3d 6b83 cdbd 9452 6abb
00000050: 5a5c b53d bd00 1bbd a333 efbc 97a4 febc
00000060: a737 d8bc 506f f4bc 44d0 babd 3f49 f53d
00000070: f08c 973c 6911 c2bd 7882 c9bd 8cd6 a63d
00000080: d086 78bd 8ecf 233d 0d65 6b3c 73d8 0d3d
00000090: 3096 71bd e9bd e13d b024 883d 50eb 7e3d
000000a0: c472 bf3d 4b37 abbc 070f 823d 22c6 98bd
000000b0: 6a08 ecbc 2143 35bd f4b8 67bd 130c 6abd
000000c0: 8b4c dcbd 7ff9 88bc c407 ce3c 954f 323d
000000d0: 384d a23d ae74 35bd 4198 783c b7f4 8639
000000e0: 86ba b5bd 1f5e cbbd 3b79 cf3d e2dc a63d
000000f0: 8eaa c1bc 6337 d2bd d2ea 093c 0cbd c23c
00000100: efb7 c5bd 3fac bb3c 4c85 5a3d 6aae 9e3b
00000110: 92a9 9c3c a168 73bd b19e efbd 9d4e 84bd
00000120: b716 4ebd fad2 e43d bde9 e2bd 35e9 b83d
00000130: 4819 a9bd 0426 bfbd f520 0cbd 511f 9a3d
00000140: 3b54 b4ba 8c5f bebd a0a4 78bd 8edb f3bd
00000150: 9694 9d3b f0dd c03d 130e ebbd 79a9 053d
00000160: 9747 4cbc 0b3f 98bd 6a54 273d 2ba1 ad3d
00000170: 36d4 93bd 584b eb3d ab0b 593d 21e4 c9bc
00000180: 8d47 cdbd 589f 123d b173 043d eb75 813c
00000190: 6398 58bd 8996 a7bd ead1 013d 2660 a43d
000001a0: 6408 0bbd ac33 f43d 5d4f 5abc 986f d93c
000001b0: 0576 af3d 1870 2b3d ba44 4c3d e3be e9bd
000001c0: 0eb4 2e3b a674 883d ad80 e53d 61f3 5d3d
000001d0: f58d 81bd 287a a63d 9baa 943d 4b37 553d
000001e0: 5f79 923c cbf1 81bc 6190 b83d 442a f03d
000001f0: 7cd5 93bd a585 663c 0390 96bd bed2 ffbc
00000200: 7c54 b9bd 69b1 913d 5c1e b3bc 773e c4bc
00000210: 85c7 313d f7fe 16bc 777c 4cbc 09d8 eebd
00000220: e22b a2bd abe7 eebd ef59 cbbc 5f6b 04be
00000230: 51e8 e1bd 7f51 78bc 4237 d2bb 0cfe b9bd
00000240: 8874 393c d0e2 d9bd 5244 a23c 5a20 8cbb
00000250: 0fbc 11bd 8a88 bdbd 5129 8dbd f749 d0bd
00000260: bbce 8d3d c82c 9d3d 52e1 08bd 0d90 bfbd
00000270: ab7a 9cbc bdcd e6bd 9dda f13c c8d5 dcbc
00000280: 546c 09bc 3f61 babc b930 5f3d 2859 e83d
00000290: 9ee5 cebd 1147 e93c 6e5c 10be ab15 f8bc
000002a0: 835a dcbc c787 f3b9 298a 6bbd 597c fcbc
000002b0: 7e51 95bd 3e37 f0bd bca8 e3bd 1437 683c
000002c0: 557b 663d 020c cfbc 7e8b fcbc 6e33 cc3d
000002d0: 48e2 d9bc 84f1 3c3d 445a 5dbb a3ec 39bd
000002e0: 88e9 1dbd 2270 3dbd 7b14 473d c63d ba3d
000002f0: 9827 a8bd 0a2c 423d 75da c53d 0f59 29bd
00000300: 28cd 6c3d 70a5 fa3c 6011 b6bd ee32 27bc
00000310: a53b 84bd 361d b23c eda3 e8bd a429 3b3b
00000320: dead 4bbd d53e f5bc 4409 ca3c 189d 6b3d
00000330: 30ab 803d c440 5abd b907 85bd 4fd6 a4bd
00000340: 5cf6 cabd 6acb d9bd 5898 f53d 48f2 d3bd
00000350: fc35 b13d 73bd e1b8 3d3e 163d e734 3fbc
00000360: 5d7f ae3d 612f 773d e20c 0e3c 7df6 cf3d
00000370: 840d 4d3d 5d84 de3d 058e dc3d 0686 b03d
00000380: e337 df3d 97c5 22bd 3d14 8d3d ccb4 ea3d
00000390: 26b5 8c3c 585c 7a3d 0f08 d93d 74d9 dd3d
000003a0: 9f95 7fbd db29 b2bc f000 69bd 85a1 1c3d
000003b0: f977 4dbd 5ea7 42bd 8a1f d1bd 7580 a93d
000003c0: 6f37 5c3d 1320 ad3d 85af c1bd 58f6 afbd
000003d0: 6056 aa3d 404e cdbd 58df 43bd 0e11 d3bd
000003e0: 4efd ce3d 45d8 a53d ebc7 34bc 7bec 033d
000003f0: 5f9e 27bb c5af d8bd 2ecb 6abd 5f4a 92bd

0.bias f4 [32]
-0.027862484 -0.05992494 -0.0652897 -0.03070172 0.007448224 -0.0037092713 -0.041181576 -0.054047056
0.03416879 -0.09502415 0.032757178 -0.07579344 0.0286668 -0.12726063 -0.046309903 0.014439113
0.057226207 -0.057685163 0.012935004 -0.04860171 -0.1541401 0.0990831 -0.10046086 0.011046931
-0.072844364 0.00882609 -0.13465706 -0.10705305 -0.17772307 -0.055443387 0.09408595 -0.068056196
00000000: dd3f e4bc db73 75bd 9bb6 85bd 2c82 fbbc
00000010: 3b10 f43b 3f17 73bb 03ae 28bd 7260 5dbd
00000020: 93f4 0b3d 069c c2bd 642c 063d 9739 9bbd
00000030: a3d6 ea3c 9c50 02be 74af 3dbd 0892 6c3c
00000040: 0766 6a3d 4747 6cbd 57ed 533c 9612 47bd
00000050: e7d6 1dbe 15ec ca3d 6cbe cdbd 30fe 343c
00000060: 6d2f 95bd 4e9b 103c 8ae3 09be a13e dbbd
00000070: 09fd 35be 9b18 63bd 22b0 c03d 0c61 8bbd

2.weight f4 [1, 32]
-0.08791666 -0.049108326 0.09844624 0.045023095 -0.06150449 -0.049671765 0.09739801 -0.044871394
-0.05260824 -0.019676842 -0.0003172213 0.0009730368 0.019864375 -0.06501853 0.13374722 0.10020568
0.15139128 0.05885737 -0.16956487 -0.08898091 -0.030173538 0.051467538 -0.023871817 0.08076259
-0.13972156 0.0004113028 0.0010691365 0.019161528 0.041499607 0.011685909 0.061273005 -0.012957976
00000000: a60d b4bd d025 49bd 2f9e c93d 236a 383d
00000010: 22ec 7bbd 9f74 4bbd 9c78 c73d 11cb 37bd
00000020: bd7b 57bd 5431 a1bc b950 a6b9 6513 7f3a
00000030: 9dba a23c 6f28 85bd 08f5 083e a338 cd3d
00000040: 5106 1b3e 6d14 713d 6aa2 2dbe a03b b6bd
00000050: 7f2e f7bc a0cf 523d d48e c3bc db66 a53d
00000060: 2b13 0fbe 21a4 d739 4522 8c3a a3f8 9c3c
00000070: 7efb 293d 4176 3f3c 67f9 7a3d b14d 54bc
