data/learning/hybrid/nn/model_nn_PPL.pth (torch, 19992 bytes, 3 tensors)

0.weight f4 [64, 68]
00000000: a2bd 463d 5c68 85bd 479e 92bd ba14 743d
00000010: c99c 913c 9532 f73d ed56 563d 368a 72bd
00000020: ecde 803d 8a58 813b 4d58 703d b79d de3c
00000030: 07b1 98bd ef27 7c3d 0cda 13bd a6a0 ed3d
00000040: e9df cebd fdea e03c 76e7 3dbd 08ca c8bd
00000050: f7cb 5abd 89b5 273c 2c35 b1bd 053c ce3d
00000060: b9ba 0dbd 97f1 f63d 57e9 20bd d762 94bd
00000070: 5489 17bd d1e8 1f3e 7b56 b13d 204d fabc
00000080: 4277 e9bd ef14 913d bba4 99bd 41cd ee3d
00000090: bee0 a33d aada cabc 38d1 96bd 5db0 c73c
000000a0: e619 9a3c ff13 47bc 0ab2 0ebd 57b0 b23c
000000b0: 67ae 90bd 411f 9fbd 5e5b c1bd bb19 493e
000000c0: 08d9 e1bd 3967 8dbd 03ea 27bd d730 89bd
000000d0: e8ff d83d 5c64 133d 8840 e6bd c579 913c
000000e0: 7f3f 6d3d f52a 3fbd b30c ad3d 9153 a3bd
000000f0: b47c 6ebd 2af5 d8bd c344 15bd ba81 c73c
00000100: 5966 013d 5e10 a1bd 0023 ebbd 1a07 dcbd
00000110: 3be6 703d aaf2 fdbc 132a 0f3d cf07 3abd
00000120: ec80 b5bd dbe6 033d 5b6d 0dbd 819f 943c
00000130: 4522 e1bd 28d1 bbbd dea8 04bc 90d5 273d
00000140: a419 b4bd 3dc0 33bd b06d 60bd 326c d73d
00000150: 31af 39bd 9e7f 2bbd 319e 4c3d 4831 f7bd
00000160: e5a0 84bc a896 6abd 6a0f e53d 6613 b33d
00000170: 52e6 f63c 7558 a2bd b07c 513d 0693 153d
00000180: 0908 36bd 4b7b 1a3e d0d9 aa3d 2a19 da3c
00000190: 2502 1cbe 5b74 ccbb 258d cebd ba5c b23d
000001a0: 7ec1 a3bd 331c 863d adaf 6abd a972 4c3d
000001b0: c227 a5bc 68c9 db3c 6ebb bdba 9fd6 623d
000001c0: 560f c63d fb0c 84bc 59f6 6f3d 29d1 a03d
000001d0: f8a6 403d efb9 26bd 7721 a53d 9c87 be3b
000001e0: 9e82 023d ae12 313d bbd2 0e3b 2abe 953d
000001f0: 41e6 72ba 8260 663d 9dc3 6a3d 7c9f a3bd
00000200: 865c 173d aa8b f2bb 8bd6 c23c 7c46 76bd
00000210: 08bb c43d 6df5 9bbd 463b 943c 19ed e3bb
00000220: 7fdb 533d 1175 99bd 87ff f8bd 6462 bdbd
00000230: e73a e33d 666d 81bd c2ff d93d 89c9 9bbd
00000240: c2c5 813d 4d84 c83c 8266 8bbc 016e 163d
00000250: b7a5 b0bd 335b c63c 4162 9b3d 1803 84bc
00000260: e254 403d a32f cf3d 5b95 543b 5ef4 44bc
00000270: fbdc dcbd b652 d4bd 08f7 5ebd 1d95 073e
00000280: b875 a3bd e4db 1d3d a305 9abd bb9a d6bd
00000290: 5457 f73d b2cf 13be ae09 ed3d bca2 493d
000002a0: 7cf7 863d 8d15 033e 5b0a 863d a261 923d
000002b0: beb5 b73d ebc0 e93a 7329 0cbe e53a cf3d
000002c0: 5286 87bc 490f 223d f3d1 8f3d 11fa f0bd
000002d0: 8892 9f3d 2122 ed3d e052 533d 8c3b 683b
000002e0: 070e e7bd 1a71 313c 562d 6d3d 7dc4 c63c
000002f0: ad20 41bd 639d abbb 5433 aa3d 1962 bf3d
00000300: de34 ee3d d876 b2bd e41e 053d 0849 6dbd
00000310: e1b9 a9bd a811 8cbd 9b9b e1bd 3a32 a8bc
00000320: ef24 cdbd ba19 47bd 123f 1b3d 6605 42bd
00000330: 47f4 813d 895c a93d 1dbf 89bd 1f4b 983d
00000340: 95b7 0abc 865e 553d eb8e 80bd ac03 a13d
00000350: 5c62 a33d 6d5a eb3c 7a23 463c 7ac8 f73d
00000360: 560f cbbd add4 0cbd 87c8 8a3c d21a 353d
00000370: 626c c73c 36ea 2b3d 0fa0 b23c f11e 95bd
00000380: 5049 b73d a1ad dfbd 796c 37bc 12b1 5fbe
00000390: 555f 3eb9 cffd 44bd 0035 f7bc 671f 2839
000003a0: 5164 9ebd b839 433d 17dd d93d e32a 9dbd
000003b0: 7aa4 b33d 3b01 4f3d dde2 693d aa05 9f3c
000003c0: 43f3 263d 7f18 89bc fd80 593b 16c0 c4bd
000003d0: 7f44 88bc 3513 1fbe 03ad ea3d 9a48 da3d
000003e0: d375 44bd 3a3f 37bd 1187 e73c 958b 45bd
000003f0: 018a ccbd d53b 5c3c 1af7 25bd 2dd0 8c3d
0.04852069 -0.065140456 -0.07159095 0.05959008 0.017774956 0.12070195 0.052328993 -0.05921384
0.06292519 0.0039473223 0.05867796 0.027174814 -0.0745564 0.06156152 -0.036096618 0.11602907
-0.10101301 0.027455801 -0.046363316 -0.098041594 -0.053417172 0.010236152 -0.0865272 0.100700416
-0.0346019 0.12057798 -0.03928503 -0.07245415 -0.0369962 0.15616156 0.08659073 -0.030554354
-0.113997 0.07084071 -0.07502123 0.11660243 0.080018505 -0.02476247 -0.07364124 0.024376089
0.018811177 -0.0121507635 -0.03483776 0.021812601 -0.070645146 -0.07769633 -0.09441255 0.19638722
-0.110277236 -0.06904454 -0.040994655 -0.066987686 0.10595685 0.035984382 -0.11242777 0.01775826
0.057921883 -0.046671826 0.08449688 -0.079749234 -0.058224395 -0.10593636 -0.03644253 0.02435385
0.031591747 -0.0786445 -0.11481285 -0.10743542 0.058813315 -0.0309995 0.034952234 -0.045417603
-0.088624805 0.032202583 -0.034528118 0.018142464 -0.109928645 -0.09170753 -0.008096902 0.040975153
-0.08793953 -0.043884505 -0.054792106 0.105186835 -0.04533309 -0.041869752 0.04995555 -0.120699465
-0.016190002 -0.057272583 0.111845806 0.08743934 0.030139122 -0.07927028 0.051144302 0.036517166
-0.044441257 0.15086095 0.08342326 0.026623327 -0.15235193 -0.0062394566 -0.10085515 0.087090924
-0.0799589 0.06548347 -0.057296444 0.049914036 -0.02016056 0.026829436 -0.0014475414 0.05538046
0.09670894 -0.01611947 0.058584545 0.07852394 0.047034234 -0.040704664 0.080630235 0.0058145057
0.031862848 0.043230705 0.0021793086 0.073116615 -0.0009265878 0.05624438 0.057315458 -0.079894036
0.03695347 -0.007401903 0.023783943 -0.060125813 0.09605986 -0.07615171 0.01809467 -0.0069557545
0.051723 -0.07493032 -0.12158113 -0.09247282 0.11095219 -0.06319694 0.10644485 -0.07606799
0.063365474 0.024477148 -0.017016653 0.036726 -0.086253576 0.024213409 0.075871 -0.016114756
0.04695595 0.10116508 0.0032437656 -0.012021152 -0.10784336 -0.10367338 -0.054434806 0.13240476
-0.079814374 0.038539782 -0.07520606 -0.10478731 0.120772034 -0.14434698 0.11574112 0.04922746
0.06590173 0.1280119 0.06544944 0.07147528 0.089702114 0.0017833983 -0.13687687 0.10118655
-0.016543541 0.03956536 0.070224665 -0.117664464 0.077916205 0.11578775 0.051592708 0.0035435883
-0.112819724 0.010830188 0.057904564 0.024263615 -0.047150303 -0.005237268 0.08310571 0.093448825
0.11631177 -0.08714074 0.032500163 -0.057930976 -0.08287407 -0.06839305 -0.110160075 -0.020531762
-0.1001681 -0.04860852 0.037901945 -0.04736843 0.0634542 0.08269603 -0.06725905 0.07436203
-0.008466621 0.052092098 -0.062772594 0.078620285 0.07977745 0.028729642 0.012093419 0.12098785
-0.099150345 -0.03438251 0.016941322 0.04421503 0.024343673 0.041971408 0.021804838 -0.07281292
0.0894953 -0.10921789 -0.0111952955 -0.2184489 -0.00018155326 -0.048093613 -0.03017664 0.00016033427
-0.077339776 0.047662467 0.10637873 -0.076741956 0.08771606 0.050538283 0.05710112 0.01941188
0.040759336 -0.016735313 0.0033188455 -0.0960695 -0.016634224 -0.1553467 0.114587806 0.10658379
-0.04796393 -0.044738032 0.028262647 -0.04822882 -0.0998726 0.013441999 -0.040518858 0.06875644

0.bias f4 [64]
00000000: a6fc f03c 6081 393c 0061 3ebd a268 073d
00000010: 026c 9b3d f3d3 b03d 3504 09bd 1599 a23d
00000020: 9a2c 9b3d d5b6 69bd 89ef 2ebd 374e 2c3e
00000030: a770 23be db3d 3ebd bd0e a1bd 85f4 c0bc
00000040: f8a4 18bd c506 a53b 6682 eebc 2374 9f3d
00000050: fc3b c73c 649e 623d bcdf 94bc f0a4 c13d
00000060: 6bf2 3a3e b528 0abe 8af0 b4bd 8bd4 093d
00000070: ef30 013c b299 f33d ca53 a93d 01dd f3bd
00000080: 9b89 b6bd 0a11 bcbd d5a9 44bc 35e4 c9bc
00000090: afe5 a23d 923d c93d fbc6 da3c e679 183d
000000a0: 1d17 55be 51c9 e8bd 19a5 37bd 5fb9 d03d
000000b0: dd80 07be 782e 413b 39bb a43d be05 a8bd
000000c0: 1ffe acbd d247 29bd 66b9 22be 2103 64bd
000000d0: 9835 89bd 82a7 bfbd 48e8 1dbc a1af 8a3d
000000e0: 7c47 4c3d 172f d2bc 8ab1 033d ac21 e23b
000000f0: e0f8 9f3d 703c d3bd e0db 0fbd 1e15 ba3c
0.029417347 0.011322349 -0.046479225 0.03305877 0.0758896 0.08634176 -0.033451278 0.07939354
0.075768664 -0.057059128 -0.042708907 0.16826712 -0.15960942 -0.04644571 -0.07864139 -0.023554096
-0.0372667 0.0050362074 -0.029114913 0.07785823 0.024320595 0.055326834 -0.018173091 0.094552875
0.18256538 -0.13492091 -0.08834942 0.033649962 0.007885202 0.118945494 0.082679346 -0.119073875
-0.08912965 -0.091829374 -0.012003382 -0.02464495 0.07953965 0.09826197 0.02670621 0.037225626
-0.20809598 -0.11366523 -0.044835184 0.10191607 -0.13232751 0.002947716 0.080435224 -0.0820422
-0.08446907 -0.04132826 -0.15891036 -0.055667046 -0.06699675 -0.093581215 -0.0096379 0.0677178
0.04987286 -0.02565722 0.032151736 0.0069009867 0.07811141 -0.10314262 -0.0351218 0.022715148

2.weight f4 [1, 64]
00000000: 1f92 653d dd8e 023d 9404 d03d db0c 36bd
00000010: ed95 75bb 8dda 413e 7680 87bb d618 583c
00000020: 46d1 833c 90ad 9d3d c9b0 b1bd c3c0 393e
00000030: 35c0 d13c 955b 1ebd 8036 d43d 960e c13c
00000040: deb2 41be 0c4c 7c3d 1f61 d0bc 2992 db3d
00000050: 61d3 bd3c af6e 3abb 9b97 ecbd f98c e8bc
00000060: dba0 233e 438a 13bc 79e0 86bc 7f22 d73b
00000070: 98c4 9d3b 35f2 303e a2a7 583d 363a 013d
00000080: 79d2 20bd d161 1fbc 3b97 c93d 36fd aebc
00000090: d907 fabc f850 19be 9ecb c8bd 8147 b63d
000000a0: 9257 12bd fc2d 78bd d67c 4e3d f6b4 733d
000000b0: 8b7e 3f3c 95c1 463b 009a d8bd bcd5 25bc
000000c0: 873f 6cbd abfb de3d 0278 753d a387 1d3a
000000d0: f138 19bd 5086 a7bd 6aef 0f3d f742 263e
000000e0: 2ef8 46be 2810 15be c47b c23a 4e1f 183d
000000f0: fea3 373d ee55 abbd 198a df3d a3ea 6fbc
0.056047555 0.031874526 0.10157123 -0.044445854 -0.0037473396 0.18931027 -0.004135187 0.013189515
0.016091 0.0769912 -0.08676297 0.18139939 0.025604347 -0.03866156 0.103619576 0.023566525
-0.18915889 0.06159596 -0.025436936 0.10721237 0.023172082 -0.002844732 -0.11552354 -0.028387534
0.1597933 -0.009005132 -0.016464459 0.0065653916 0.0048146956 0.17279895 0.052894242 0.031549655
-0.039263222 -0.009727911 0.09843298 -0.021360975 -0.03052132 -0.14972293 -0.09804462 0.08900357
-0.035728045 -0.06059073 0.05041202 0.05949875 0.011687885 0.0030327786 -0.10576248 -0.010121759
-0.057677772 0.108878456 0.0599289 0.0006009286 -0.03740782 -0.08179915 0.035140432 0.16236483
-0.1943061 -0.14556944 0.001483791 0.03713923 0.04483413 -0.08365999 0.10915012 -0.014643344
