models/hybrid/linear/MPL/agent2.pth (torch, 40590 bytes, 5 tensors)

fc.weight f4 [128, 68]
0	0x3c7765e4	0.015099976
1	0x3df3405f	0.11877512
2	0x3c79ed05	0.015254264
3	0xbd18a0c9	-0.03726271
4	0x3d751a2e	0.05983942
5	0x3dd0307e	0.10165499
6	0x3d769bb4	0.060207084
7	0x3da4712c	0.08029398
8	0x3d8e9c97	0.06963461
9	0x3dc0a5bb	0.094066106
10	0xbd9d5f29	-0.07684166
11	0xbcf80c21	-0.030279221
12	0xbde0053b	-0.10938498
13	0x3da97c4e	0.08275662
14	0xbdaa97a7	-0.08329707
15	0x3dbe89be	0.09303616
16	0x3d2ea452	0.042637177
17	0xbded79d6	-0.11595504
18	0xbd998469	-0.07495958
19	0x3dd13cfe	0.102167115
20	0x3d795a03	0.060876857
21	0x3ce61b3c	0.028089158
22	0xbd55e392	-0.05221898
23	0xbc9085d2	-0.017641935
24	0x3de28a21	0.11061502
25	0xbdad2740	-0.08454752
26	0x3d228ede	0.03968703
27	0xbd54b052	-0.051925965
28	0xbd5116a4	-0.051046982
29	0x3be5c1f0	0.0070116445
30	0xbdc60f05	-0.096708335
31	0xbd9f882f	-0.07789647
32	0xbdab766d	-0.08372197
33	0xbd28ccc2	-0.041210897
34	0x3d983f54	0.07433954
35	0xbdad81a2	-0.08471991
36	0xbd6e892a	-0.05823628
37	0xbcd425ce	-0.025896933
38	0x3c879745	0.016551623
39	0x3d77ed11	0.06052882
40	0xbd69e2d2	-0.05710108
41	0x3cef3571	0.029200288
42	0xbd2229ae	-0.03959053
43	0xbdb82494	-0.08991352
44	0xbd82834a	-0.06372698
45	0xbcfb1b20	-0.030652583
46	0x3d6463c6	0.055759214
47	0xbd924ecd	-0.07143936
48	0x3d7b8e91	0.06141526
49	0xbd6bac58	-0.057537407
50	0xbdcaab61	-0.09895969
51	0xbdd03434	-0.10166207
52	0xbcbdfc9c	-0.023191743
53	0x3daa72b4	0.08322659
54	0xbdf0b6c7	-0.11753612
55	0x3d5568b6	0.052101813
56	0xbd67e12b	-0.05661122
57	0xbd1c6525	-0.038182396
58	0xbdad7f12	-0.08471502
59	0x3d07bbc6	0.03313806
60	0xbc0f6450	-0.008751944
61	0x3bea5218	0.0071508996
62	0x3d8c3fc7	0.06848102
63	0x3d7c550b	0.06160454
64	0x3cc69bce	0.024244215
65	0x3df11dcd	0.11773262
66	0x3c33a3f8	0.010964386
67	0xbc813802	-0.015773777
68	0xbd806e69	-0.06271059
69	0x3d80a914	0.06282249
70	0xbde903a8	-0.113776505
71	0x3df70af5	0.12062637
72	0x3da3c25f	0.07996058
73	0xbd887f6f	-0.06664931
74	0x3d0abe1d	0.033872712
75	0xbbf35d18	-0.007426869
76	0xbd89041f	-0.06690239
77	0xbd8290df	-0.06375288
78	0x3df2a458	0.11847752
79	0xbb8a1f83	-0.0042151823
80	0xbdae79b9	-0.085193105
81	0x3d7b1718	0.06130132
82	0x3d2e5a7b	0.042566758
83	0x3ccd3f50	0.025054604
84	0xbd796ff2	-0.060897775
85	0xbd95f14f	-0.073214166
86	0xbd661d91	-0.05618054
87	0x3df4a7d1	0.11946071
88	0xbdbcdf4a	-0.092222765
89	0x3de1bd80	0.110224724
90	0xbb8965ba	-0.004193035
91	0xbdcc7511	-0.09983266
92	0xbd5addc1	-0.053434137
93	0x3bc49815	0.005999575
94	0x3cec430c	0.028840564
95	0x3ca4795e	0.020077404
96	0x3d2c7ecf	0.04211312
97	0x3de4ef1d	0.1117842
98	0xbd031426	-0.032001637
99	0x3de526d2	0.11189045
100	0x3d5ab1d2	0.05339224
101	0x3ddf184e	0.108933076
102	0x3cb3638b	0.021898052
103	0x3d223daa	0.03960959
104	0xbc5d14d7	-0.013493738
105	0xbdd33181	-0.103121765
106	0xbd6b572c	-0.05745618
107	0x3c90d6bb	0.017680516
108	0x3dc53e87	0.09631067
109	0xbc19f9fc	-0.00939798
110	0x3b96da74	0.0046036784
111	0x3d2a54ad	0.04158466
112	0x3c34aed1	0.011028008
113	0x3d3fe2e8	0.046847254
114	0xbd923e83	-0.071408294
115	0x3df5f39a	0.12009354
116	0xbd968a2e	-0.073505744
117	0xbd969fd2	-0.07354702
118	0xbd13e8b1	-0.036110584
119	0xbdcad7b2	-0.09904422
120	0xbd608346	-0.054812692
121	0x3be91519	0.0071131107
122	0xbd8d3747	-0.06895309
123	0xbc947eab	-0.018126806
124	0xbd23003d	-0.03979515
125	0xbd8159ed	-0.0631598
126	0xbd03e3de	-0.032199733
127	0xbdeb03d3	-0.11475339
128	0xbd72a0fe	-0.059235565
129	0xbd626d41	-0.055279974
130	0x3dadf106	0.08493237
131	0x3db93871	0.090439685
132	0x3d3ef544	0.046620622
133	0x3d287246	0.041124605
134	0x3be563f0	0.007000439
135	0xbded98ba	-0.11601396
136	0x3d2a86d7	0.0416325
137	0xbddc12c4	-0.10745767
138	0x3dd5d3b5	0.104407705
139	0x3da5ae2b	0.080898605
140	0x3c7d3e51	0.015456752
141	0xbcf968ed	-0.03044554
142	0xbd42c4fd	-0.047551144
143	0x3dae5675	0.08512584
144	0xbd98a6a3	-0.074536584
145	0xbde6dd3d	-0.112726666
146	0x3d3497b7	0.04409
147	0xbd87e938	-0.0663628
148	0xbd9a0d3f	-0.07522058
149	0x3d9ebbbb	0.077506505
150	0x3bd9f5fd	0.0066516385
151	0x3dc33975	0.095324434
152	0xbdf24226	-0.11829023
153	0x3d8e1093	0.06936755
154	0x3de840be	0.113404736
155	0x3d9541d6	0.07287948
156	0xbcf374be	-0.029718753
157	0x3c8ca46a	0.017168242
158	0x3da1d06f	0.07901084
159	0x3daac653	0.083386086
160	0xbcfcdd1a	-0.030867148
161	0xbd9fb683	-0.07798483
162	0x3d74f4a9	0.05980364
163	0xbdf35784	-0.11881927
164	0xbb3e8857	-0.0029072964
165	0xbc9018a3	-0.017589873
166	0xbc943182	-0.018090013
167	0xbdda28cf	-0.10652315
168	0x3dd158b6	0.102219984
169	0x3d6e9ae2	0.058253177
170	0xbd05e272	-0.03268666
171	0x3d25b52e	0.04045599
172	0xbd725d63	-0.05917109
173	0x3ddace05	0.10683826
174	0xbdb26734	-0.08711091
175	0xbd11384b	-0.035454076
176	0xbdd20fb4	-0.102569014
177	0xbc26b648	-0.010175295
178	0xbd9755e8	-0.07389432
179	0xbdf05594	-0.11735073
180	0xbdb6e44c	-0.08930263
181	0x3da8b6b7	0.08237975
182	0xbd25a957	-0.0404447
183	0xbd6bb1e4	-0.057542697
184	0x3d988ce6	0.07448749
185	0xbd8b9914	-0.06816307
186	0xbdad5fcb	-0.08465537
187	0x3da943d5	0.08264891
188	0xbde8e6ad	-0.11372123
189	0x3dbc9fa3	0.09210136
190	0x3db859b2	0.09001483
191	0x3c8d6d34	0.017263986
192	0x3d6fdfa0	0.058562875
193	0x3d12be9d	0.035826314
194	0xbda21c15	-0.079155125
195	0x3ceb90f0	0.028755635
196	0xbdb6e00d	-0.08929453
197	0x3bb8c235	0.0056383857
198	0xbd33165b	-0.04372249
199	0x3d1b7514	0.03795345
200	0x3c036c3d	0.0080214115
201	0x3c931562	0.017954532
202	0x3d1f2e04	0.038862243
203	0xbd5c53fa	-0.053791024
204	0x3dbb239c	0.09137651
205	0x3de1b5ea	0.110210255
206	0xbd96293d	-0.07332084
207	0x3d526708	0.05136779
208	0x3dd2fcd4	0.103021294
209	0x3dcfa847	0.10139518
210	0xbd54c15c	-0.051942214
211	0x3ce17e16	0.027525943
212	0xbdbbbef5	-0.091672815
213	0x3d68cf2c	0.0568382
214	0x3d533c4a	0.051571168
215	0x3d2aa3be	0.041660063
216	0xbdd51f18	-0.10406321
217	0x3c9706b9	0.018435823
218	0xbcd6cadb	-0.026219776
219	0x3d09dd29	0.03365818
220	0x3d5ddafa	0.05416391
221	0xbcb09475	-0.021555165
222	0x3ddccee6	0.1078165
223	0x3dd12b69	0.10213358
224	0x3dbcdd82	0.09221937
225	0xbc984ee8	-0.018592313
226	0xbdec144b	-0.11527308
227	0xbdefb8d2	-0.117051736
228	0x3dd8f8c2	0.10594322
229	0x3d9893b6	0.074500486
230	0xbce16b61	-0.027517023
231	0xbdd7ce5b	-0.10537406
232	0x3dab5ffd	0.08367918
233	0x3d21a651	0.039465252
234	0x3d7063e7	0.058689024
235	0x3dbd8deb	0.09255584
236	0xbdd6f69d	-0.104962565
237	0x3d4f7a4c	0.05065374
238	0x3daa72f7	0.08322709
239	0x3d843809	0.06456
240	0xbd75588a	-0.05989889
241	0x3d4c9f38	0.04995653
242	0xbdad045c	-0.08448097
243	0xbdd0f02a	-0.10202058
244	0x3d3349dc	0.04377161
245	0xbd972fba	-0.0738215
246	0xbd821fa2	-0.0635369
247	0xbc828212	-0.015931163
248	0xbc7f6bf8	-0.015589707
249	0xbcdde3d0	-0.027086169
250	0xbc74098a	-0.014894852
251	0xbde8280d	-0.11335764
252	0xbd354f0e	-0.044264846
253	0xba7ec6ae	-0.00097189366
254	0x3d69ca6d	0.057077814
255	0xbdb18791	-0.08668435

fc.bias f4 [128]
0	0xbb7296ee	-0.003701623
1	0xbbd2fe91	-0.006439038
2	0xbdf7ff01	-0.12109185
3	0xbca9dc1a	-0.020734835
4	0xbd31a028	-0.043365628
5	0x3da789e7	0.081806
6	0x3d8a15cf	0.06742441
7	0x3be1541b	0.006876481
8	0xbdcbf567	-0.09958916
9	0xbcd57ff1	-0.026061984
10	0x3b2d7670	0.00264683
11	0x3c608519	0.013703608
12	0x3dde8a43	0.10866215
13	0xbc1594e7	-0.009129739
14	0x3da358d6	0.079759285
15	0x3c51b2c7	0.0127989715
16	0x3db0e2b8	0.08636993
17	0x3de7aef9	0.1131267
18	0xbd37c53b	-0.044865828
19	0x3d673761	0.056449298
20	0xbde93a52	-0.11388077
21	0xbd834689	-0.06409938
22	0x3db9f4f0	0.09079921
23	0x3d09908e	0.033585124
24	0x3d5db4ff	0.05412769
25	0x3de99b9d	0.11406634
26	0x3df5ee18	0.120083034
27	0x3cbd432a	0.023103315
28	0xbbdda934	-0.0067645553
29	0xbdc7a00b	-0.09747323
30	0x3dbe6134	0.09295884
31	0x3d80273e	0.06257485
32	0xbda2aa2d	-0.07942615
33	0xbda82f70	-0.08212173
34	0xbdb87246	-0.09006171
35	0xbdf2af97	-0.11849897
36	0xbdd370ce	-0.1032425
37	0x3d82ef64	0.063933164
38	0xbc9ff83b	-0.019527545
39	0x3d8b5638	0.06803554
40	0x3d3d24fb	0.046177845
41	0xbc543b87	-0.012953646
42	0xbbf13c47	-0.007361922
43	0xbd97a8aa	-0.07405217
44	0x3de3aef4	0.11117354
45	0xbdc3b2b8	-0.09555572
46	0x3dce66d9	0.100782104
47	0x3d70d243	0.05879427
48	0xbd99e83c	-0.07514998
49	0xbdeb0e85	-0.11477379
50	0x3d68c25d	0.056825984
51	0x3d126299	0.03573856
52	0x3d57c730	0.052680194
53	0xbd8edd2c	-0.06975779
54	0x3caa9324	0.020822115
55	0x3d37bb9b	0.04485665
56	0xbd00ee28	-0.031477123
57	0xbd4670b7	-0.048447337
58	0x3d11da33	0.03560848
59	0x3cd101e9	0.025513606
60	0x3d6c3ae8	0.057673365
61	0xbc27b3c7	-0.010235733
62	0xbde4b16b	-0.11166652
63	0x3d0727df	0.03299701
64	0xbdd5a48f	-0.10431778
65	0x3d63c38f	0.05560642
66	0xbd70eba9	-0.058818493
67	0x3c94edeb	0.018179854
68	0xbc8d2bd5	-0.017232815
69	0xbdc837f6	-0.09776299
70	0x3d424193	0.047425818
71	0xbdde9c1c	-0.10869619
72	0x3c9b2a50	0.018941075
73	0xbdc3583b	-0.09538313
74	0xbdc5f674	-0.09666148
75	0xbcee51eb	-0.029091796
76	0xbdd33573	-0.10312929
77	0x3de4a86a	0.11164935
78	0x3dacc782	0.084364906
79	0xbdcafefb	-0.09911915
80	0xbd777a2b	-0.060419243
81	0x3cdad5c1	0.026713254
82	0xbd6ce00d	-0.05783086
83	0xbd404693	-0.046942305
84	0x3d480cbd	0.048840273
85	0xbdd0e6d5	-0.10200278
86	0x3c7a9c83	0.015296104
87	0x3d26f454	0.040760353
88	0x3b842053	0.0040321737
89	0x3da4d139	0.080477186
90	0xbd5fa634	-0.054601863
91	0x3df0640b	0.11737832
92	0xbc910917	-0.01770453
93	0xbdd326fb	-0.10310169
94	0x3dce17e3	0.1006315
95	0x3d8de29b	0.06927987
96	0xbc9bcf7c	-0.019019835
97	0xbd82aa5a	-0.06380148
98	0xbdd4892c	-0.10377726
99	0xbdc5a880	-0.096512794
100	0xbd4ce3aa	-0.050021805
101	0x3db2882d	0.0871738
102	0x3da05274	0.07828227
103	0x3c327fd3	0.0108947335
104	0x3da36ac1	0.07979346
105	0xbc84d3ee	-0.016214337
106	0x3d6e4b10	0.058177054
107	0x3dad4ade	0.084615454
108	0xbb2a4ed6	-0.0025986931
109	0xba833c6c	-0.0010012514
110	0x3cceb6f2	0.02523372
111	0x3cfe378c	0.031032346
112	0xbd6cf2d3	-0.057848763
113	0xbde9996b	-0.11406215
114	0xbdf80348	-0.12110001
115	0x3da6a3d0	0.081367135
116	0x3d31733f	0.043322798
117	0x3d5d9130	0.05409354
118	0xbd0f36a1	-0.034964208
119	0x3b274de0	0.0025528595
120	0xbd82a86f	-0.063797824
121	0xbcc00df9	-0.023444163
122	0x3dba46fe	0.09095572
123	0xbd01b310	-0.031664908
124	0x3c9b32b2	0.018945072
125	0x3da83546	0.08213286
126	0x3df455a7	0.119303994
127	0xbdcbbd47	-0.09948211

actor.weight f4 [4, 128]
0	0xbcf58cc8	-0.029974356
1	0xbd95f038	-0.07321209
2	0x3d830b1d	0.06398604
3	0xbdae3fcf	-0.08508264
4	0x3d6700af	0.056397136
5	0x3d37062e	0.044683628
6	0xbcebc3fd	-0.028779978
7	0x3dae60c0	0.08514547
8	0xbda60c8b	-0.08107861
9	0x3d87ed05	0.06637005
10	0x3c89356e	0.01674911
11	0x3d703d97	0.058652487
12	0x3d73f642	0.05956102
13	0x3dab669f	0.08369183
14	0xbc01d11b	-0.00792339
15	0x3d2c2ca1	0.04203475
16	0x3d777653	0.060415577
17	0x3c0429d7	0.008066616
18	0x3d27f4d0	0.041004956
19	0x3cad5bd1	0.021161946
20	0x3d784224	0.06060995
21	0x3cf69d9c	0.03010445
22	0xbd0e8bfd	-0.034801472
23	0x3c835cef	0.016035525
24	0xbc4b5cf9	-0.012412303
25	0x3d894264	0.06702116
26	0x3d19cf87	0.03755143
27	0xbd6f73b4	-0.058459952
28	0xbd50fd15	-0.051022608
29	0xbd503eeb	-0.050841253
30	0xbdb1c24e	-0.08679639
31	0xbd032309	-0.032015834
32	0xbcead336	-0.028665166
33	0x3da1e128	0.07904273
34	0x3d8c0735	0.06837312
35	0x3d722425	0.0591165
36	0xbd5feb75	-0.05466791
37	0x3d892232	0.06695975
38	0x3d0afaa2	0.03393043
39	0xbc99d90e	-0.018780258
40	0xbc61d1d6	-0.013782939
41	0xbdad944f	-0.08475553
42	0x3d6dbdbb	0.05804227
43	0x3c8d5aeb	0.017255267
44	0xbcd29e26	-0.025710177
45	0x3da34d44	0.079737216
46	0xbd719189	-0.058976684
47	0xbd9ec40a	-0.07752235
48	0xbd506d2a	-0.050885357
49	0x3c5746c5	0.013139431
50	0xbc1be06a	-0.009513954
51	0x3da11b76	0.07866566
52	0x3d1e5e27	0.03866401
53	0x3cecd9cd	0.02891245
54	0xbda8b061	-0.082367666
55	0xbd388305	-0.045046825
56	0xbca3f6cf	-0.020015148
57	0x3cd96033	0.02653513
58	0x3dab642b	0.08368715
59	0xbdb460f6	-0.08807556
60	0xbd444ad3	-0.04792292
61	0xbd393e55	-0.04522546
62	0x3d03fd7b	0.03222416
63	0xbca5c845	-0.020237098
64	0xbd7828bf	-0.060585734
65	0xbdae32f9	-0.08505816
66	0x3bfa7693	0.0076435297
67	0xbd97c887	-0.074112944
68	0x3cd9e30d	0.026597524
69	0x3d0650c8	0.032791883
70	0xbc1b5f0f	-0.009483113
71	0xbd9591cf	-0.073032014
72	0x3d43f183	0.047837745
73	0x3daf36de	0.08555387
74	0x3d6911db	0.056901794
75	0xbd02f9c0	-0.03197646
76	0xbca03767	-0.019557668
77	0x3d955f6e	0.072935924
78	0x3d6625fe	0.056188576
79	0x3c7fac39	0.015605026
80	0xbd9b1e7f	-0.07574176
81	0xbda105a2	-0.078624025
82	0x3d7ed136	0.062211238
83	0xbdaa6df5	-0.08321754
84	0x3cf73d45	0.030180583
85	0x3ca0a906	0.019611847
86	0xbbb0d1a7	-0.0053960863
87	0x3d82473e	0.063612446
88	0x3cebdeb4	0.028792717
89	0x3d81e2ff	0.06342124
90	0xbdad9ab2	-0.084767714
91	0x3ab32c97	0.0013669905
92	0x3c27f6fc	0.010251757
93	0xbd97de76	-0.07415478
94	0xbcca2d42	-0.024679784
95	0x3d238dbf	0.0399301
96	0xbd369403	-0.04457475
97	0x3d95a845	0.073074855
98	0x3dac7be6	0.08422069
99	0xbd376ade	-0.04477965
100	0x3cd4a789	0.025958793
101	0xbd1c4012	-0.03814704
102	0xbd9a0567	-0.07520562
103	0x3d5971e9	0.05308715
104	0xbd4f69c0	-0.05063796
105	0x3aed2596	0.0018092867
106	0x3bedeef9	0.007261154
107	0x3da5fac6	0.08104472
108	0x3d68ee15	0.056867678
109	0x3c6fe67b	0.014642353
110	0xbc1dea70	-0.009638414
111	0x3d590bbc	0.052989706
112	0xbd6fb40d	-0.05852132
113	0x3ced0977	0.028935177
114	0xbd30874c	-0.04309778
115	0xbc7f3950	-0.015577629
116	0x3d44ac4c	0.048015878
117	0xbc230424	-0.009949718
118	0xbd935070	-0.071930766
119	0x3d20b8de	0.039238803
120	0xbc4e69ca	-0.012598464
121	0x3db1dc34	0.086845785
122	0xbd3e29ce	-0.046426587
123	0xbd73966f	-0.059469637
124	0x3cf60bd2	0.030034933
125	0xbd6dfd85	-0.058103103
126	0xbd19f5a5	-0.03758778
127	0xbd156757	-0.036475506
128	0xbc975654	-0.018473782
129	0xbd996510	-0.07489979
130	0x3cd6c1eb	0.026215514
131	0xbda02d2f	-0.07821118
132	0xbb9ac3e1	-0.0047230576
133	0x3d6784dd	0.056523193
134	0x3d6181b2	0.055055328
135	0xbd9016ca	-0.07035597
136	0x3d229f1d	0.039702523
137	0x3da13a4f	0.078724496
138	0x3d5ab917	0.05339917
139	0xbd1fe9ac	-0.039041206
140	0x3d509a83	0.050928604
141	0x3ad5aae0	0.0016301535
142	0x3d4457a9	0.04793516
143	0x3d5385b5	0.051641185
144	0x3d1a028e	0.037600093
145	0xbd0bf4f4	-0.034169152
146	0xbd45c3e4	-0.04828252
147	0xbd1f9780	-0.03896284
148	0xbcb5cebc	-0.022193305
149	0xbd309ed7	-0.04312023
150	0x3d396789	0.045264754
151	0x3c496cab	0.012293975
152	0x3d70bf65	0.058776278
153	0xbd8431cd	-0.06454811
154	0xbdb48a05	-0.08815388
155	0x3cf6d6c4	0.030131705
156	0xbd363bf9	-0.044490788
157	0x3cf2088e	0.029545095
158	0xbbf847f7	-0.0075769383
159	0x3cc4a0c8	0.024002448
160	0xbd8ea9fd	-0.069660164
161	0xbda07d9e	-0.078364596
162	0x3c8daf98	0.017295644
163	0x3c6c3c03	0.014418605
164	0x3cd18dcc	0.02558031
165	0xbd63a8f3	-0.055581044
166	0xbd20ebc5	-0.039287347
167	0x3d52fe7e	0.051512234
168	0x3d813cf6	0.063104555
169	0x3dab0ecc	0.08352432
170	0x3c3d2c63	0.011546227
171	0xbd472f0b	-0.048628848
172	0xbd0f5540	-0.03499341
173	0xb99cd7eb	-0.0002991551
174	0x3d0351b3	0.032060336
175	0xbd2e650e	-0.042576842
176	0x3d07494b	0.033028882
177	0x3c69bb39	0.014265829
178	0x3d979971	0.074023135
179	0xbd871ab9	-0.06596894
180	0x3d2be25e	0.041963927
181	0x3c34deca	0.011039445
182	0xbd87a85f	-0.06623911
183	0xbd88cdb8	-0.06679863
184	0x3da8145c	0.08207008
185	0xbd4f97e0	-0.05068195
186	0xbd404cea	-0.04694835
187	0xbd429d5f	-0.047513362
188	0x3cec3d85	0.028837929
189	0x3c9d3afa	0.019193161
190	0xbd10cbc0	-0.03535056
191	0x3d178981	0.03699637
192	0x3d55ee31	0.05222911
193	0xbc4bb2a0	-0.012432724
194	0xbcd7484b	-0.02627959
195	0x3d757e45	0.059934873
196	0x3cc91fa0	0.024551213
197	0x3d232bcf	0.0398367
198	0xbdb11937	-0.086473875
199	0xbda8e1e3	-0.082462095
200	0x3d91b42f	0.071144454
201	0x3db326f7	0.08747666
202	0xbd8cc0ba	-0.06872697
203	0xbd996bce	-0.07491265
204	0x3d6bd9ae	0.057580642
205	0x3c816bc1	0.015798451
206	0xbdafba53	-0.085804604
207	0x3d896aee	0.06709848
208	0x3d6ad5f4	0.057332948
209	0xbd8c6b06	-0.068563506
210	0xbb93417d	-0.004493891
211	0xbd24ad43	-0.040204298
212	0x3d88308e	0.06649886
213	0xbbef16ea	-0.0072964327
214	0x3c27afbc	0.010234769
215	0xbd80e60c	-0.06293878
216	0xbd255848	-0.040367395
217	0x3d9d7cdf	0.07689833
218	0xbd0872dc	-0.033312663
219	0x3c964270	0.018342227
220	0xbd3b67ff	-0.045753475
221	0x3c761ace	0.015021039
222	0x3bc30b52	0.005952277
223	0xbb65fa3a	-0.0035091774
224	0xbce0ce1a	-0.027442027
225	0xbd274a95	-0.04084261
226	0x3d991f47	0.07476669
227	0x3d9c313a	0.07626577
228	0xbd54226d	-0.051790643
229	0x39e85d52	0.00044320017
230	0x3d492405	0.049106617
231	0x3d9ec7fe	0.07752989
232	0xbc905117	-0.017616792
233	0x3c014e87	0.0078922575
234	0x3d11df2d	0.035613228
235	0xbbdf306e	-0.006811193
236	0x3da9ef21	0.08297563
237	0xbd7f3052	-0.06230194
238	0xbc8a58c5	-0.016888032
239	0x3cefd2be	0.029275294
240	0xbd90ce62	-0.070706144
241	0x3d4bbe01	0.04974175
242	0x3d4196d1	0.04726297
243	0x3cc0e571	0.023546906
244	0x3da5f0f7	0.08102601
245	0xbd673317	-0.056445207
246	0x3b948c8c	0.004533356
247	0x3c9262d6	0.017869394
248	0xbc8918ab	-0.016735395
249	0x3c94fa86	0.018185865
250	0xbd50430d	-0.050845195
251	0x3d884870	0.06654441
252	0xbd2b0e04	-0.041761413
253	0xbc07745e	-0.00826749
254	0xbd291618	-0.041280836
255	0x3c41e45a	0.011834228

actor.bias f4 [4]
0	0x3d05fcbb	0.032711726
1	0x3d423eac	0.04742305
2	0x3c281bc7	0.010260529
3	0x3c428bcc	0.0118741505

critic.weight f4 [1, 128]
0	0x3d1ff728	0.039054066
1	0xbcbe0eff	-0.02320051
2	0xbd6ccb34	-0.057810977
3	0xbd5de480	-0.054172993
4	0xba88684c	-0.001040706
5	0x3ca75059	0.020424055
6	0xbd86f058	-0.06588811
7	0xbd692325	-0.056918282
8	0xbd013ce1	-0.0315522
9	0xbda6cd32	-0.08144607
10	0xbd96a241	-0.07355166
11	0xbcb06ebf	-0.021537183
12	0x3c0580a9	0.008148351
13	0xbc9b8eb1	-0.018988939
14	0x3cccca0e	0.024998691
15	0xbc442921	-0.0119726965
16	0x3c8fa26b	0.017533502
17	0xbd3a9328	-0.045550495
18	0x3d04f209	0.032457385
19	0x3d8b829f	0.06812023
20	0xbd9272b6	-0.071507856
21	0x3d60e540	0.05490613
22	0xbd5690f0	-0.052384317
23	0x3d9a8d57	0.0754649
24	0xbd882b69	-0.06648905
25	0x3d145733	0.036215972
26	0xbbfc3b8f	-0.0076975296
27	0x3d343709	0.043997798
28	0xbd886023	-0.066589616
29	0x3b58dfbc	0.003309234
30	0x3d251043	0.04029871
31	0xbd9f69ca	-0.077838495
32	0xbd9ba043	-0.07598927
33	0x3d053c20	0.032528043
34	0x3d91653e	0.070993885
35	0xbc9c5f20	-0.019088328
36	0x3d12bc38	0.03582403
37	0x3d5d0a81	0.053965095
38	0x3d2e50bd	0.042557467
39	0xbd3589af	-0.04432076
40	0x3da5b312	0.080907956
41	0xbc460daf	-0.012088223
42	0xbdb3ab8a	-0.08772953
43	0xbb4199f2	-0.0029541221
44	0x3d5372bf	0.051623102
45	0x3a1579d5	0.00057020533
46	0x3cb08049	0.021545546
47	0x3d90f95d	0.07078812
48	0x3bd4e3b0	0.006496869
49	0x3d2ce9f5	0.042215306
50	0xbcdc307d	-0.02687859
51	0xbd3e935c	-0.04652725
52	0x3d356ea2	0.04429496
53	0xbd6613f5	-0.056171376
54	0xbd52fe1b	-0.051511865
55	0x3d9fde3f	0.07806062
56	0x3d9d93a5	0.076941766
57	0xbd1519df	-0.036401626
58	0xbdaa3f92	-0.08312906
59	0x3d273cda	0.040829517
60	0xbd6db417	-0.058033075
61	0x3c32d540	0.010915101
62	0xbcef29e8	-0.029194787
63	0x3c85aba6	0.0163172
64	0x3d6d550c	0.057942435
65	0xbd210350	-0.0393098
66	0x3c7fd86b	0.015615563
67	0xbcece5c9	-0.028918164
68	0xbd93112b	-0.07181009
69	0x3d07e2a4	0.033175126
70	0xbd39a514	-0.045323446
71	0x3d05b10b	0.032639544
72	0x3ce757ce	0.02824011
73	0x3b286b9f	0.0025698913
74	0x3da32d8d	0.079676725
75	0xbd5e2a0c	-0.054239318
76	0x3da95d91	0.082697995
77	0xbc3b0435	-0.011414577
78	0xbb3c4a23	-0.0028730712
79	0xbd4e8310	-0.05041796
80	0x3cf25cae	0.029585209
81	0xbcbb8eec	-0.022895299
82	0xbcce40e5	-0.025177428
83	0x3d1bdc4d	0.038051892
84	0xbd0f5fd7	-0.03500351
85	0x3caaaf51	0.02083555
86	0x3bb3893d	0.0054790066
87	0x3d9a193f	0.075243466
88	0x3d38f901	0.045159344
89	0xbdaaf55c	-0.0834758
90	0xbc84a5e0	-0.016192377
91	0x3d072eed	0.033003736
92	0x3c52acae	0.012858553
93	0xbc0589f8	-0.00815057
94	0x3ccaefb6	0.024772506
95	0x3d18f30c	0.037341163
96	0xbd798073	-0.060913514
97	0xbd8c52d1	-0.068517335
98	0x3d8cf1ee	0.06882082
99	0xbb99f92c	-0.004698893
100	0x3d039a3a	0.032129504
101	0xbc8c8a23	-0.017155712
102	0xbd306460	-0.043064475
103	0xbda9d5ab	-0.08292707
104	0xbce6f6cf	-0.02819386
105	0xbd5eb775	-0.054374177
106	0x3be0d436	0.006861235
107	0xbdb30387	-0.08740907
108	0x3d646764	0.055762663
109	0x3d0578da	0.032585956
110	0x3c8b3b3e	0.016996022
111	0x3b35beec	0.0027732207
112	0x3d901b5c	0.070364684
113	0x3d7c6245	0.061617155
114	0xbd1bdcee	-0.03805249
115	0xbb3d4430	-0.0028879754
116	0x3d870945	0.06593565
117	0x3d6eba84	0.058283344
118	0x3bd0a462	0.006367252
119	0xbc94a1af	-0.018143503
120	0x3d47352c	0.048634693
121	0xbd5976c9	-0.053091798
122	0xbd3652ee	-0.04451268
123	0x3d9d0d24	0.07668522
124	0xbd8d7205	-0.06906513
125	0x3d7024a7	0.058628704
126	0x3da0e8a4	0.07856873
127	0x3b6cd8d3	0.003613998
